model.pt (torch, 114763 bytes, 26 tensors)

weight f4 [8, 2, 5, 5]
00000000: 70d7 34be cb75 3fba d64a 153e 21a8 5cbd
00000010: a009 4a3e 412f 59be 99e8 b23e 5bdb be3d
00000020: e98b 3fbd 4a63 fcbd efef 6b3e 4161 b63e
00000030: 1e3d e6bd 2b3d 473e 3e8c 8a3e 181f 223e
00000040: 54e7 85be d96c c8bd d35d 65bd 7f80 303c
00000050: a490 80be 832e db3e 0309 b83e b49e 2b3f
00000060: e163 c53d 618b 3dbd 8fbe 1fbe 51e5 313c
00000070: 9496 633d 7cd8 90be b61b 3a3d de19 21bd
00000080: 0901 79bd ec86 90bd 31f3 bcbb c05d 25ba
00000090: 1d1a c43d 5fd0 643d ba6b b53d 2fcb 313d
000000a0: d4a6 863e a99e 473e 0353 19be 2ce0 233e
000000b0: be49 8ebd 5aee 113e a396 86be 9daa 43bd
000000c0: d8d9 593d 9350 223e ea29 b93d a1dc 9b3e
000000d0: 67d7 94bd 2109 10be 35ae 58bc a429 f53d
000000e0: 66b4 8bbe c9e6 29bd c956 12be 2cb5 babe
000000f0: 6b4c 4ebe 6db9 99bd 17c1 413e 7167 543b
00000100: 00dc acbe fe9d 41be 6750 9d3d e949 8dbe
00000110: ea09 86be 4bf7 1fbe 4a41 9dbe e8e6 a3be
00000120: 06f8 df3d 8c04 8bbc aad1 3ebd 1142 d2bd
00000130: d94d e23d 8575 93be 6c02 5a3b 5d07 60bd
00000140: de99 35bd 22bd b23e a9c8 b63d 7509 693e
00000150: 9f15 ab3e 502d be3e 3150 87be df11 953e
00000160: dc76 ff3d bb3f a13e d6a2 5f3e 7a7a ba3e
00000170: b186 3e3e 1c3b 0fbe 136b f83d 848a 3bbe
00000180: e883 65bd de18 2e3e b8d9 573e c727 713e
00000190: 1d87 ef3d bcae 893e c7f6 febc 9d42 8b3d
000001a0: 5091 943e cf77 be3d 56a3 e9bd 47a0 8a3d
000001b0: 6b54 abbe 487b 293d 6a7d eb3d 6008 473e
000001c0: ab06 043e 74f1 e53e f869 ad3d fdd2 0cbe
000001d0: 88d1 7d3c b004 4abe 5211 74be a37a 08bd
000001e0: b20c 86be ed78 0fbe 4e43 a5bd c467 373e
000001f0: b980 30be b0c0 cabd d290 80be 4df3 cc3d
00000200: ed2c 423d b55a 153d 3e7c de3d fe02 3d3e
00000210: e65b 85be cca0 e5bd 043f 46bd 3124 323e
00000220: 72d0 a13e 4bbf 8a3e 3b91 323e 354c 81be
00000230: cdd7 19be 2dbb 193e 0741 8abd cfbc 963c
00000240: 7a3e 943e 626e aabe ef55 29be 1c38 163d
00000250: 91ae 8dbe c487 40be 0511 d83a 0ea2 28bd
00000260: 6d17 f73d 7712 aabe 3810 92be 65a3 6abe
00000270: ff5a 6d3c 28e8 96be 7c7f 2dbe 483f 9b3c
00000280: 23a3 f03c bbeb 01be d48b 29be 2d10 a23d
00000290: 1e23 c6be 6ef2 5abd 00f3 78bd 02df 2a3e
000002a0: 6a28 693c b7ab bcbd a276 e9bd 88ec e6be
000002b0: 9e6e 183d efa0 5bbe 1128 6f3e a9a6 183e
000002c0: 761f 98be d5dc d3bd d8dc 73be 43e9 2dbd
000002d0: 1cf3 9cbe 0f64 e8bd ff27 90be cd3e 093e
000002e0: 3e46 1c3e 062c 553e 98a1 5a3e f88b 4c3e
000002f0: 6521 f7bd 62da 28be ce4e 863e 8be8 1e3d
00000300: 7a39 023e 98d3 3dbe 86d4 763e b89d 573b
00000310: 3947 7d3e d9b6 763e 3926 3b3e 0f13 713e
00000320: c51d 963e 654a 033f 1f19 1e3e e5f9 963e
00000330: 3b95 653e d8d0 5cbd 1d14 0d3e 57de 863e
00000340: d4f1 da3e 140b 60bd 3bc4 44be b890 123e
00000350: aa0f 42be 6a23 72be 2378 293d 7766 33be
00000360: 318d a73d bf67 d7be f5ed debd 16da c8bd
00000370: 5760 92be 6d3e 38bd c40f e8bb 1b11 a33d
00000380: 1a36 cebd 3fb8 d43d 02c7 80bd aa0d e03d
00000390: abe0 30bc d7e1 0c3d 3ea6 183e c0ac 5fbe
000003a0: 6ea5 e2bd 5628 993e 7df6 f03c cb4a 5fbb
000003b0: 48d8 a6ba 0670 c13d 9eff e2bd 4a46 9dbe
000003c0: ec5a 98bd ebbf c4be 1849 643e eb56 f53d
000003d0: 8b2a 15be e312 343d aec1 d4bd 6657 453e
000003e0: b83e 50be 666c 793d e638 093e 353e 6dbd
000003f0: 92eb 20bd f880 d7bd 2091 9ebd 1dd5 b03e
-0.17660308 -0.00073036243 0.14579329 -0.053871278 0.19730234 -0.21209432 0.34943083 0.093191825
-0.046764288 -0.123236254 0.23040746 0.35621074 -0.11242126 0.19456927 0.2706012 0.15832174
-0.26153052 -0.09786386 -0.05599768 0.010772823 -0.25110352 0.42808923 0.35944375 0.67039037
0.09638191 -0.0462755 -0.15600036 0.010857896 0.055563524 -0.28290164 0.045436583 -0.03933131
-0.060792003 -0.07056984 -0.0057662954 -0.00063082203 0.09575293 0.05586278 0.08858438 0.04340666
0.26299155 0.19494118 -0.14973073 0.16003484 -0.06947659 0.1425108 -0.26286802 -0.04777013
0.053186268 0.15851049 0.090411976 0.30441764 -0.07267647 -0.14065982 -0.013225128 0.11970833
-0.2728607 -0.04147986 -0.14290918 -0.36466348 -0.20146339 -0.0750607 0.18921314 0.0032410289
-0.33761597 -0.18907925 0.07681351 -0.2759545 -0.2617944 -0.15621679 -0.30713874 -0.32012105
0.109359786 -0.016969942 -0.04658667 -0.102665074 0.110500045 -0.28800598 0.0033265604 -0.054694522
-0.044336192 0.34909922 0.08924992 0.22757514 0.33414933 0.37143946 -0.2642837 0.29115197
0.124738425 0.31493935 0.2183946 0.36421567 0.18606068 -0.13987392 0.12129798 -0.18314558
-0.056034 0.17001674 0.21079147 0.2355033 0.11695693 0.26891124 -0.031123532 0.06799815
0.29017115 0.093001954 -0.11408107 0.06768852 -0.33462843 0.041377336 0.1149853 0.19436789
0.12893169 0.44910777 0.084674776 -0.1375236 0.015491851 -0.1972835 -0.23834732 -0.03332008
-0.2618156 -0.14010973 -0.08069478 0.17910677 -0.17236604 -0.099000335 -0.2511049 0.100073434
0.047406126 0.036463458 0.10863541 0.18458173 -0.26046675 -0.1121231 -0.04839994 0.17396618
0.31604344 0.2709907 0.17438214 -0.25253454 -0.15023728 0.15012808 -0.06750684 0.018400578
0.28953916 -0.3328734 -0.16536687 0.036674604 -0.27672246 -0.1880179 0.0016484564 -0.041170172
0.12065015 -0.33217213 -0.28528 -0.22913893 0.014487027 -0.29473996 -0.16943163 0.018951073
0.029374665 -0.1268758 -0.16557246 0.079132415 -0.38698667 -0.053453855 -0.060778618 0.16686633
0.014230827 -0.092124395 -0.113995805 -0.45102334 0.037214868 -0.2144811 0.23355128 0.14907326
-0.29711503 -0.10344855 -0.23814714 -0.042458784 -0.30654228 -0.1134721 -0.28155515 0.13402863
0.1526117 0.20817575 0.21350706 0.19975269 -0.120669164 -0.16489556 0.26231998 0.03879599
0.12717238 -0.18537748 0.24104509 0.0032900404 0.247342 0.24093188 0.182763 0.23542427
0.29319587 0.5128539 0.1543927 0.2948753 0.22420208 -0.053910106 0.13777204 0.26341507
0.42762625 -0.054698065 -0.19215481 0.14313018 -0.18951288 -0.23646322 0.041374337 -0.17519556
0.08181227 -0.4207134 -0.108852305 -0.098072216 -0.28589126 -0.04498141 -0.0070819575 0.07962247
-0.10068913 0.10386705 -0.06287958 0.10940106 -0.0107957525 0.034395065 0.14907166 -0.21843243
-0.110667095 0.29913586 0.02941441 -0.003407168 -0.0012729252 0.09445195 -0.11083911 -0.3071769
-0.07439217 -0.38427672 0.22293508 0.11979469 -0.1456701 0.043963324 -0.10388504 0.19271621
-0.20336425 0.060894392 0.13400611 -0.057920653 -0.039287157 -0.10522646 -0.07742524 0.34537593

bias f4 [8]
00000000: 0d9f 06bd 7129 033e 771c 6a3d 0fa1 cc3d
00000010: 6ab1 08be 404d ca3c 46d0 f7bc c806 0ebd
-0.032866526 0.12808777 0.057156052 0.09991657 -0.13348928 0.024695039 -0.03025068 -0.034674436

weight f4 [8]
00000000: 3ec6 843f 8de9 833f ebad 863f e4c3 8d3f
00000010: 5b09 843f 0d33 603f 18aa 753f 6fc4 6c3f
1.0372999 1.0305649 1.0521826 1.1075406 1.0315355 0.875779 0.9596267 0.92487234

bias f4 [8]
00000000: c1f5 19bd 2825 d2bc e686 70bd e892 383d
00000010: 6da2 58bd 2bec 1f3d 42a2 74bd 1af5 a9bd
-0.037587885 -0.025652483 -0.0587224 0.045061976 -0.052889276 0.039043587 -0.059725054 -0.082987025

running_mean f4 [8]
00000000: a8c9 563f 67bd fc3e 581f 7a3e e810 493f
00000010: aedf a83e d847 1d3e 11d4 b63f c5a0 8f3e
0.83901453 0.49363253 0.24426019 0.7854142 0.32983154 0.15359437 1.4283468 0.28052345

running_var f4 [8]
00000000: 2f72 0a40 1bc1 8d3e 3acb 303e 0b6f 4e3f
00000010: 7726 b93e 93a6 a73d d496 2840 3f33 2e3e
2.1632192 0.2768639 0.17265025 0.8063819 0.3616216 0.081860684 2.6342058 0.17011736

weight f4 [16, 8, 3, 3]
00000000: d82e 90be 02bd 4bbe 0c88 dabc 04f7 7abe
00000010: 44eb 72bd c6f7 5fbd b1a0 393e a6ff 303e
00000020: c52b 0d3e 8eb4 9abd 653e d73e 9093 fd3c
00000030: f201 bc3d 4662 103e 6c73 9d3e 3c66 8c3d
00000040: f635 e13c 6462 443d cde3 223d 4c5a d53d
00000050: 8a89 863c d88e 843e 0f15 9e3e 5ec3 413e
00000060: a3b4 d3bd 305b 393c 77b2 1e3d 1773 633c
00000070: 09e8 a73e 85ea 0dbe 1fe2 813e 5c88 3d3d
00000080: 0c0c 27be 6ad7 78be e3f7 a93d 7a53 80bd
00000090: 1c16 1b3e 7d7b 213e ca3c b73d c727 6d3e
000000a0: 901f 543d f580 70be 9d7d ad3e 5b77 e33c
000000b0: 9179 49be a989 983e 36f0 833d 556b 0ebe
000000c0: d077 bcbc 5f6b f0bd 9c02 163e 3a3b 39bc
000000d0: 02e4 54be ef76 3ebe 250d adbd 1267 b6bc
000000e0: a209 4d3e 007a e3bd 094b 323e b9e3 4b3e
000000f0: 6dc5 6dbe caa3 803c 8ffc d2bd fbf6 89bd
00000100: 90cf 8c3b fab6 703e 18ac e2bd c585 8bbe
00000110: 5127 0b3e e384 5a3e d4cf 90bc ee6f 2bbe
00000120: e091 fdbd be5e 52be b053 b6be 27aa 6d3e
00000130: 7218 c0be ea25 16bd 9242 d8be 6fc5 8ebe
00000140: 5373 1c3d 04d4 863e 78b6 b4bd e634 5fbe
00000150: e48e cb3d d408 a6bd 56e5 6f3d c09f 5fbe
00000160: b100 a63c 33f9 c63c c8a1 febc 78c8 023d
00000170: 1ac9 a93e 10f4 27be ad97 9b3d abb7 56be
00000180: 8932 1c3e 6a49 4dbe 8213 983d f1a4 6c3e
00000190: fabb d23e a31c 753e e72a b13d 1a19 753d
000001a0: 6194 e23d 5e44 563e 0307 ee3d 2a44 f4bb
000001b0: 1fb7 953e 74d0 963e a4be 96bc d976 fe3e
000001c0: 9e60 6dbc a228 e5bd a23f c63d 7b1d 523e
000001d0: 5105 d23d e1a6 5a3e a2f2 06bd 7826 24bd
000001e0: 8884 013e 2427 43be 91b6 b03c b16f 87be
000001f0: d56c d739 4299 0dbe d607 a73d d882 723d
00000200: a8ac 843b 06eb fb3d c50c 333e 3488 053e
00000210: 6885 fa3d 44dc e33d 9f7e 773e 2fdd 293e
00000220: c6ec 9cbe 1118 013e 2125 a6bc ad3e 55ba
00000230: 8cc7 903d cbec 3ebe d603 b93d fdf0 fbbd
00000240: 3a09 093d a644 6abd 2a92 8ebd ff25 33be
00000250: 495d f73c 1ed5 5a3e 74a8 5d3e c3a5 95be
00000260: cc42 9ebd c47f 24be 47d3 96bd d780 9fbd
00000270: 37c1 893d e329 3b3a 148d 153e ae4f 13be
00000280: 9273 4fbe 0835 a83c 5927 b7bd d645 823d
00000290: 7719 babe 66f5 5bbd 822f 19be d343 1d3d
000002a0: 1e59 c03d eed6 5d3d 7c71 8cbd 615d 153e
000002b0: 8ebf 0ebe 71e4 95bd ecf6 293e eda8 98bd
000002c0: 2586 5d3d e027 a43b ad56 86bc 7b84 36be
000002d0: c3d5 313d fb43 47be 120a 2abc 8ac6 81be
000002e0: b7aa c4bd bd9f 6fbe c15c 153e 8ebb a4bd
000002f0: db0e d1be 9c05 b83b 8adb 31bc 102f 24be
00000300: ed1a 89be 76a5 62bd 5864 c8bb b6a8 7cbe
00000310: ec22 c8be 21bd 9fbe 65ac cabd e5c9 0d3e
00000320: aff2 46be 35d4 9e3d 1539 023e e5e1 1d3e
00000330: 94a8 9dbd 97e6 313e 8500 763d 2467 87bd
00000340: ff7e 783d 9740 fdbd 34f7 bcbe b8c5 e43c
00000350: 40c2 37bd bc23 9fbe e423 113e 53c6 9f3b
00000360: 0713 133d d8b8 c03e 86ea 17bc cb36 a0bd
00000370: 1ff1 313e 72cd 2dbc 7dce 6c3e 92a0 2ebe
00000380: 41e9 7d3e 3811 26be ad2e f0bb 61bd d23c
00000390: daae 1cbe bdd5 9bbd 06f9 ecbd b40c 263e
000003a0: 9bfa bebd 4046 7d3e 2d83 97bd 6b8b 8ebe
000003b0: 7bdf 533c d9b4 dabe 9f7a 2cbf d4c4 b9be
000003c0: d73b f4bd be85 a23e 06d3 3cbc 801d 20be
000003d0: 7538 a73e 1037 c1bd db08 a2be 4c5d 1abe
000003e0: a8c6 72be 6b69 95bd 88c2 1f3e b047 c2bd
000003f0: 6feb 86bb 4233 8abe 4aa3 3c3e 6b7d 92bd
-0.2816074 -0.1989632 -0.0266762 -0.24508291 -0.059306398 -0.054679655 0.18127705 0.17285022
0.13786228 -0.07553969 0.4203979 0.030954152 0.091800585 0.14099988 0.30752122 0.06855437
0.02749155 0.047945395 0.03976803 0.104176134 0.016423006 0.2589023 0.3087544 0.18922183
-0.10337188 0.011313245 0.038744416 0.01388242 0.32794216 -0.13858993 0.2536783 0.04627262
-0.1631319 -0.24300924 0.08299234 -0.06265922 0.15145153 0.15769763 0.089471415 0.23159705
0.051787913 -0.23486693 0.33884898 0.027766874 -0.1967528 0.29792526 0.06442301 -0.13908131
-0.02300635 -0.117392294 0.14649433 -0.011305625 -0.20790103 -0.18600057 -0.08449773 -0.022265945
0.20023206 -0.11107254 0.17411436 0.19911088 -0.23219843 0.0157031 -0.10302078 -0.06736561
0.0042972043 0.235073 -0.110679805 -0.27250496 0.13589217 0.21339755 -0.017677225 -0.16741917
-0.12381339 -0.20543954 -0.35610723 0.23209439 -0.3751865 -0.03665725 -0.4223829 -0.27885005
0.03819592 0.2633363 -0.08823866 -0.21797523 0.099393636 -0.081071526 0.05856832 -0.21838284
0.020264002 0.02428875 -0.031083003 0.031929463 0.3316124 -0.16401696 0.07597289 -0.20968501
0.15253653 -0.20047536 0.07425596 0.23109795 0.4115904 0.23936705 0.08650761 0.05983839
0.11063457 0.20924518 0.11622431 -0.007454415 0.29241273 0.29455912 -0.018401451 0.4970005
-0.014488367 -0.11189391 0.09680106 0.20519058 0.1025492 0.21352722 -0.032946236 -0.04007575
0.12648213 -0.190579 0.02157143 -0.264524 0.00041089082 -0.13827994 0.081557915 0.059206814
0.0040489025 0.123006865 0.1748534 0.13040239 0.122324765 0.11125997 0.24169396 0.16588281
-0.30649394 0.12606837 -0.020281376 -0.00081346446 0.070693105 -0.18645017 0.09033935 -0.12301824
0.033456065 -0.057194375 -0.06961472 -0.17494963 0.030195849 0.2137036 0.21646291 -0.2922803
-0.07727584 -0.16064364 -0.07364517 -0.07788246 0.06726306 0.00071397255 0.14604598 -0.14385864
-0.2025893 0.0205331 -0.08943052 0.063609764 -0.36347553 -0.053700827 -0.14959529 0.03839476
0.09391998 0.05416005 -0.06857583 0.14586402 -0.1394026 -0.07318962 0.165981 -0.07454095
0.05408301 0.0050096363 -0.016398752 -0.17823975 0.04341675 -0.19459526 -0.0103783775 -0.25346786
-0.09602874 -0.23400779 0.14586164 -0.08043586 -0.40831646 0.005615903 -0.010855565 -0.16033578
-0.26778355 -0.055333577 -0.0061154775 -0.24673733 -0.39089143 -0.3119898 -0.09896163 0.13846548
-0.19428514 0.07755319 0.12717088 0.15418203 -0.07698169 0.1737312 0.06005909 -0.066114694
0.060667988 -0.12365835 -0.3690735 0.02792631 -0.044862986 -0.3108195 0.14173847 0.004875937
0.035906818 0.37641025 -0.009272223 -0.07822951 0.17377137 -0.010608064 0.23125644 -0.1705344
0.2479601 -0.16217506 -0.007329783 0.025725069 -0.15301076 -0.07609127 -0.11570935 0.16215783
-0.09325143 0.2473383 -0.07398067 -0.27840742 0.0129317 -0.427161 -0.67374605 -0.3628298
-0.11925476 0.31742662 -0.011524921 -0.15636253 0.3266026 -0.094343305 -0.3164738 -0.15074652
-0.23708594 -0.072954975 0.15601552 -0.094863296 -0.0041174213 -0.26992232 0.18421665 -0.07152828

bias f4 [16]
00000000: 91b7 973d 83a9 99bd c697 8bbc e7a8 9abd
00000010: 4470 31be ec8f 6d3d 2ae8 67bb cb21 c03d
00000020: 61f4 cbbc 65b4 013e ff64 84bb 5313 ddbd
00000030: bf0c 8f3d 32fd f0bd 62f7 733d 5f29 a0bc
0.074080594 -0.07503035 -0.017040145 -0.07551747 -0.17327982 0.057998583 -0.0035386183 0.093814455
-0.024896802 0.12666471 -0.00404036 -0.107947014 0.06984853 -0.11767043 0.059562095 -0.019550977

weight f4 [16]
00000000: 4965 783f 34b5 733f f0c1 813f eebe 8f3f
00000010: 34b0 7b3f 61d8 6c3f 046d 943f 28ac 663f
00000020: d3ac 7e3f e4ce 6f3f a6eb 773f 258a 773f
00000030: f088 613f 1e9b 753f 9d58 823f c1c2 7b3f
0.9702955 0.9519837 1.013731 1.1230142 0.9831574 0.9251767 1.1595769 0.9010644
0.9948246 0.93675065 0.96843946 0.96695167 0.88099575 0.95939815 1.0183293 0.98344046

bias f4 [16]
00000000: 9d94 fd3d bb1c 833e 7388 173c cea2 e03d
00000010: 0b87 17bc 20a2 973d cd8f 973e 0b8a 883c
00000020: cc86 c83d e384 6c3e 6ebc fd3d 586f 05bd
00000030: 376a be3d dbb8 d5bd 6d39 1e3e 5bd7 76bd
0.12381861 0.25607857 0.009248841 0.109685525 -0.009248505 0.0740397 0.296019 0.016667387
0.097913355 0.23097567 0.12389456 -0.03257689 0.092976026 -0.10435649 0.15451594 -0.060263973

running_mean f4 [16]
00000000: 6715 0d3f bd77 8f3f f21f 113f 889e 153f
00000010: 047c 1e3f a17d be3f 102a 3a3f 8ac8 643f
00000020: 0a02 1d3f 3239 6d3f ef30 733f abfc f93e
00000030: b8eb 593f 3958 293f e897 fc3e 12e9 4c3f
0.5511078 1.1208416 0.5668937 0.58445024 0.6190798 1.4882089 0.7272043 0.893685
0.61331236 0.926654 0.9499654 0.48825583 0.85125303 0.6615024 0.49334645 0.8004314

running_var f4 [16]
00000000: 974a 9f3f d23c 0b40 b51f cf3e b1fa 383f
00000010: 9be3 603f aeb6 3640 575f de3f d852 7b3f
00000020: 34ad 2a3f c92f 673f 896c 3540 c9c2 a13f
00000030: aed2 ae3f 0a05 623f 2024 8e3f c690 a43f
1.2444638 2.1755872 0.40453878 0.72257525 0.878473 2.8549 1.7372845 0.98173285
0.66670537 0.9030729 2.8347495 1.2637569 1.3658044 0.8828894 1.1104774 1.2856681

weight f4 [32, 16, 3, 3]
00000000: 658c 36bd ab40 02be 32ec b2bd c49e 073d
00000010: 9a4e ba3d 16c9 efbd c8b9 403e 0824 8d3d
00000020: e7dc f73d 5ff8 86bd 80bf 2abd 2153 e1bc
00000030: df79 6f3d 50ca abbc d969 df3d 8b0e 0e3e
00000040: 5719 3a3e dbb4 fa3d e6ab 5f3c c750 d33c
00000050: d04f 31bc 84cb 44be ee0d e4bd 07dc 9bbd
00000060: 7f66 4d3d ef29 bd3d 6e65 32be 618b 1c3c
00000070: fd19 f0bd 8f90 9cbd a878 7abe cf7b 03be
00000080: 788d 8ebe a579 363c b00a 0bbe 57b4 86be
00000090: 5951 d2bd d073 c5bd 0ebc 76be ff2a 093d
000000a0: 0934 ebbd 95b7 30bd 1298 6cbd 06b0 483e
000000b0: 1f1e ea3d e8e3 8dbd d68b 4abe 84f1 2fbe
000000c0: 8d25 33be 8e5c 54bd da90 83bd e509 88bd
000000d0: f483 08be f629 85be d55e 0e3e 8149 683d
000000e0: 7d5e b83e e398 27bd 6336 fbbd 811f 82be
000000f0: 7af6 edbb 63c4 a23b f68a ed39 9c1a a2bc
00000100: 351b c43c 5578 cdbc b1a2 903d 232f 2cbe
00000110: d7ba 94be 12df 973d 5fee 96bc a970 ca3b
00000120: c503 11be bb0b dd3d 00f6 0cbe 2d96 733c
00000130: b5be 493e 4125 d33d 6528 58be 440c afbd
00000140: 7324 20be dd5d dfbd dc74 f93c 67c0 033e
00000150: 0c68 3cbe 29ce aebd 414a 21be c92a 48be
00000160: 6cef d43c b32d 82be b637 e2bd f77b 2a3c
00000170: 2c5a d23d 3eb9 4abc 9199 42bd 26fa a43d
00000180: 20dc db3d ad5c 653e 366d c23c cbca 3fbe
00000190: 948e f7bc ccf8 9cbd 8188 b53d e87e 7b3c
000001a0: b0bc eabd 14c2 cb3d fe88 b3bc 08e3 febd
000001b0: c20b e53d 706f d53d d413 4bbb 1c2e d03c
000001c0: 85e8 153e 3780 1f3d fc5a 64bd d2b6 79bb
000001d0: 0d39 d3bc de4c 0abe c448 12be 9fd8 803d
000001e0: 3513 de3c 5eea 183e 92c2 7d3d c7e4 093e
000001f0: 64b7 8d3e c625 b2bd 364e f53d d006 0f3e
00000200: 8a66 bc3d 8479 7b3d 0af4 d0bc 3b0d f7bd
00000210: 02f8 60be b697 5ebd 7644 73be b338 95bd
00000220: 8766 01be 7e7c 1dbe 4ae9 d7bd bc41 bdbd
00000230: a342 d8bd f83e a53c eece 9f3d bd0c 58be
00000240: 15a6 853c 05a5 813d 5b69 06bd b08b 09be
00000250: 3431 3cbe ef12 1bbe 1fad 7ebd 87fe 4e3d
00000260: 4994 433e 7240 4d3b 3100 0dbd 524a 1fbe
00000270: b1f1 4fbd 09b0 d53d 7df8 583e 54ca 90bd
00000280: a161 6b3d 2b9a 4c3e 6a92 0e3d f9f2 0a3e
00000290: 02be 163c 3159 2d3d a08a ad3d 28bb 7e3d
000002a0: 0986 5a3b 5005 073d 3090 783d 6d48 1fbe
000002b0: 0b50 68bc 3634 70bd f6d1 92bd f423 403d
000002c0: 70a0 43be a80d aabd 8588 da3d 82c6 a7bc
000002d0: ffbc 533c 8251 023e efde f63d a612 073b
000002e0: 6c3b 03be 7840 ba3e 1802 a53d 30e6 d43d
000002f0: 016f 4fbd 901f 8e3d 6efb 9b3e 5123 34bc
00000300: 076e 403e a8b5 15bd f747 e63d c884 893d
00000310: 9564 6d3e 011a 973e 6681 853c e04d 7fbd
00000320: 43e8 cbbc 654b 14bd 3152 fd3d 3682 483e
00000330: a704 883e 976f a4bd 7778 51bd babd a83d
00000340: 9f93 4ebe a976 d3bd 3210 e3bd 40a9 963d
00000350: a87e 69bd 07db 643d 412b f73c 67b0 003d
00000360: 55d6 943d 0169 e83d 64ae 0a3e b78a 63bd
00000370: c234 aabc 30fd ebbb 7070 1ebe 6cb5 45b9
00000380: 251f 1e3d 5a45 78bb 66f6 68bb 5893 39bd
00000390: c989 b63d 2858 193d 7c3b 413e 5b5a 26be
000003a0: 4f04 fd3d 0b73 2dbe 936e 8abd 48d1 48be
000003b0: 47f3 48bd f181 d7bd 667b aebe eaf3 94bd
000003c0: 57dd 7a3d 65c6 3a3e 4a64 f83c 891f 89bd
000003d0: 6b8d 963d 7353 4ebe 85b8 fb3d 89c1 41bd
000003e0: 3c21 8ebc 1fe6 8cbd a6c3 503d 86c3 5b3c
000003f0: ff40 23be 5c45 553c 8ecd 9bbd cdf7 103d
-0.044567484 -0.12719981 -0.08736457 0.033110395 0.09097023 -0.11708276 0.1882087 0.06891638
0.12102681 -0.06590342 -0.041686535 -0.02750546 0.058465835 -0.020970494 0.10908861 0.13872735
0.18173729 0.12241527 0.013651824 0.025795354 -0.010822251 -0.1921826 -0.111354694 -0.07610326
0.050146576 0.09236514 -0.17421505 0.009554715 -0.11723707 -0.0764476 -0.24460089 -0.12840198
-0.27842307 0.011137401 -0.13578296 -0.26309463 -0.10269422 -0.0964123 -0.24095175 0.03348827
-0.11484534 -0.043143827 -0.057762213 0.19598398 0.114315264 -0.06928235 -0.19779906 -0.17181975
-0.17494793 -0.05184608 -0.064241126 -0.06642512 -0.13331586 -0.26008576 0.13903363 0.056710724
0.3600959 -0.04091729 -0.12266233 -0.2541466 -0.0072620483 0.004967259 0.00045307697 -0.019788079
0.023938755 -0.025081793 0.07062281 -0.16814856 -0.29048797 0.07415594 -0.018424211 0.006177981
-0.14161594 0.10793253 -0.13765717 0.014867348 0.19701655 0.1030984 -0.2110916 -0.08547261
-0.15638904 -0.10906575 0.03045123 0.12866364 -0.18399066 -0.08535416 -0.15750982 -0.19547571
0.025993071 -0.2542549 -0.11045782 0.010405532 0.10271105 -0.012373267 -0.047509734 0.080555245
0.10735345 0.22398634 0.023733716 -0.18729703 -0.030219354 -0.07664642 0.08863927 0.015350081
-0.114617705 0.09949127 -0.021915909 -0.124456465 0.11183883 0.10421646 -0.003098716 0.025412612
0.1463948 0.038940635 -0.055750832 -0.0038103354 -0.02578404 -0.13505885 -0.1428557 0.06291317
0.027108768 0.14933154 0.061953135 0.13466178 0.27678978 -0.08698611 0.11977808 0.13967443
0.09199245 0.061395183 -0.025506992 -0.120630704 -0.21969607 -0.0543439 -0.23756585 -0.07286205
-0.12636767 -0.15379521 -0.10542543 -0.092410535 -0.10559585 0.020171627 0.078031406 -0.2109861
0.016314546 0.06330303 -0.03281532 -0.13432193 -0.18378145 -0.15143941 -0.06217682 0.050535705
0.19099535 0.003131893 -0.03442401 -0.15555695 -0.050767604 0.10433967 0.21188541 -0.07069841
0.057466153 0.19980685 0.0348076 0.13569249 0.009200575 0.042321388 0.08473706 0.062190205
0.0033344051 0.03296405 0.060684383 -0.15554972 -0.01417924 -0.058643542 -0.07168953 0.046909288
-0.19104171 -0.08303386 0.1067057 -0.020480398 0.012923478 0.12726405 0.1205424 0.002061048
-0.12815636 0.3637731 0.0805704 0.10395467 -0.05064297 0.06939614 0.30465263 -0.010994748
0.18791972 -0.036550194 0.11244195 0.06714779 0.231829 0.29512027 0.016297054 -0.062330127
-0.024891024 -0.036204714 0.123691924 0.19580922 0.2656605 -0.080290966 -0.051140275 0.082393125
-0.201735 -0.10325367 -0.110870734 0.073565006 -0.057005554 0.055872943 0.030171992 0.03141823
0.07267443 0.11348153 0.13543087 -0.05555221 -0.02077711 -0.007201813 -0.15472579 -0.00018854969
0.03860392 -0.0037883134 -0.0035547256 -0.045306534 0.08912999 0.037437588 0.18870348 -0.16245405
0.123543374 -0.16938417 -0.067593716 -0.19611084 -0.049060132 -0.10522831 -0.3407852 -0.072730854
0.061246242 0.18239744 0.030321259 -0.06695468 0.07351192 -0.20149021 0.12291054 -0.04730371
-0.017349832 -0.068798296 0.050967835 0.013413316 -0.15942763 0.013017025 -0.07607566 0.03539257

bias f4 [32]
00000000: f8a2 6abc c6f1 313d 4b52 dfbd 282f 0cbd
00000010: c9b0 18be bc0f 89be fc92 74bc b58e 3f3d
00000020: 7589 10be 8fff 1bbd 86c8 8ebe 374d f4bc
00000030: d500 c1bc b582 a83b 3699 a4bd 1037 3abd
00000040: 8cdc cdbd 0f3b 1fbd ea45 c9bd d568 a2bd
00000050: 0f2f 5a3d 2adc 19be 52fa 9cbd 3219 c7bd
00000060: e3c3 cbbc 9d13 21be 8da1 bfbd 8391 b7bd
00000070: f9e6 3fbe c5e6 3dbd aa4c 05be 703b edbd
-0.014321081 0.043443464 -0.10904368 -0.03422466 -0.14911188 -0.26769817 -0.014927622 0.046766955
-0.14114936 -0.038085517 -0.27887362 -0.029821975 -0.023559967 0.0051425346 -0.08037035 -0.045462668
-0.100518316 -0.038874682 -0.09827788 -0.079301514 0.053267535 -0.15025392 -0.07664932 -0.097216025
-0.02487368 -0.15730138 -0.09356985 -0.08963301 -0.18740453 -0.046362657 -0.13017526 -0.115836024

weight f4 [32]
00000000: bf86 803f bd7b 5f3f 1dd4 733f f0b6 823f
00000010: 1f3e 7c3f a7f4 813f ea2b 8b3f a909 753f
00000020: a321 7f3f 2e6e 703f 4d8b 8f3f 0dac 813f
00000030: 6ec5 643f 36ba 6f3f de78 873f 241d 7d3f
00000040: 389a 663f f2b4 773f fd3a 823f ab2e 763f
00000050: a462 843f b83c 7d3f 7bef 643f 1de0 703f
00000060: c9a6 813f ad34 793f a3b8 703f 77bc 853f
00000070: 81dd 6e3f 20c6 843f f9db 873f 14fc 723f
1.0041121 0.87298185 0.95245534 1.0212078 0.9853229 1.0152787 1.0872777 0.95717865
0.996607 0.9391812 1.1214386 1.0130631 0.89363754 0.9364351 1.0583761 0.9887259
0.9007907 0.96760476 1.0174252 0.9616496 1.0342603 0.98920774 0.8942792 0.9409197
1.0129024 0.97346 0.94031733 1.044814 0.9330674 1.0372963 1.0614005 0.9491589

bias f4 [32]
00000000: 7326 62bc 14f5 0d3e e06b 533e fa37 593d
00000010: 5549 9cbd 1bb4 03bd 57f8 a83d 9afb a33d
00000020: d73b aabd 07f2 703e 6f08 11be 192d 6c3d
00000030: 7dbf 443e 0618 243e 352a 81be 42c6 8bbe
00000040: eb89 19bd 45f2 6f3e 481e e1bd c0d2 5c3e
00000050: 1d9b acbc e7c2 473e fe8b 4b3d c8b2 6d3e
00000060: 5fa9 233e f302 4e3d 42f3 c63c c912 afbd
00000070: 31a6 933d 24a8 fe3d 8c31 693e 2dab eb3d
-0.013803112 0.13863021 0.2064662 0.0530319 -0.076311745 -0.032154184 0.08250492 0.080069736
-0.08312195 0.23529826 -0.14163373 0.057660196 0.19213672 0.16024789 -0.25227514 -0.27299696
-0.037485044 0.23432262 -0.10992104 0.2156477 -0.021070058 0.19507943 0.049694054 0.23212731
0.15982579 0.05029578 0.024285916 -0.08548505 0.07209433 0.12434414 0.22772807 0.115072586

running_mean f4 [32]
00000000: 1661 153f 5c94 963f 379d 8e3f 27c0 dc3e
00000010: ad54 f83e 8eee 3a3e c7c8 4c3f 4f9e 373f
00000020: 591d c73e a51a 463f 5ea1 513e 30d0 ac3e
00000030: df67 173f f5c3 2b3f 017f ef3e 58e3 7d3e
00000040: 36de 4e3f 7361 6e3f 3570 0a3f 920b 093f
00000050: 14a9 783e b7f8 143f e27a ee3e b1c9 073f
00000060: 9ea8 0b3f a42e 3b3f 6a33 e93e e12a f73e
00000070: 1078 a93e 54d6 1a3f 621b f93e 0523 363e
0.58351266 1.1764026 1.1141728 0.4311535 0.48502102 0.18255064 0.7999386 0.71725935
0.38889578 0.77384406 0.20471713 0.33752584 0.5914287 0.6709588 0.46776584 0.24793756
0.80807817 0.93117446 0.54077464 0.5353328 0.24283248 0.5819201 0.46578127 0.5304213
0.54554164 0.7311804 0.45547038 0.48274902 0.33099413 0.6048329 0.48653704 0.17786796

running_var f4 [32]
00000000: f18e 5a3f 9ce9 2c40 b374 0d40 1b72 df3e
00000010: bad3 523f 1209 673e a1b7 863f 38a1 d83f
00000020: 991b 1a3f a41c 913f dee7 573e 0932 b63e
00000030: 66a8 413f 005d 873f 3c7f fc3e 4f29 683e
00000040: a9f2 bd3f 8deb 1440 1fc1 493f 9764 523f
00000050: 817b 823e d6c1 843f 60c4 583f 69e9 9f3f
00000060: 5186 7c3f 72b5 f93f ee8b 113f 25bf 193f
00000070: 71f8 d23e d627 343f d21b 943f 1d9b 0e3e
0.8537436 2.7017584 2.2102478 0.43641743 0.8235432 0.22562054 1.0524789 1.69242
0.6019836 1.1336865 0.21084544 0.3558505 0.7564758 1.0575256 0.49315822 0.22672008
1.4839679 2.3268769 0.78810304 0.8218474 0.2548485 1.0371654 0.84674644 1.2493106
0.9864245 1.9508498 0.5685414 0.6005729 0.4120517 0.70373285 1.157099 0.13926359

weight f4 [64, 32, 3, 3]
00000000: 4bae 523d 71b9 4a3d 13b2 e63c c860 663d
00000010: b602 143e 270b 403c 0cb6 1cbc c68d 453d
00000020: a4df cabc f6b2 b4bc 2f98 01bc 6913 c2bd
00000030: a423 1dbe 055d a33c 1a1f 8ebe 3036 3cbe
00000040: 7cd3 a6bd f42d bdbd 5df4 ebbd 332b 82bc
00000050: c96f 9a3d e23f 40bd c66c 5dbd de9e 363d
00000060: 1634 9d3c 0631 34bd 96a1 8b3d 3bed 963d
00000070: c577 b6bd 7a69 f8bc c707 c6bc bcf9 3fbe
00000080: 532d 63be abcb 03be b5de 51bd 0fd9 d5bd
00000090: b5df 09be 12b6 61bc 5b1d a03b 0fd4 75bd
000000a0: 41bd 12be afe7 acbd 10ed 3bbe 4aeb 30be
000000b0: 77e1 11be cef0 c53d b7b1 c43c f470 7c3c
000000c0: d362 a53c ac8d a6bd 2e7c c93d daed 62bc
000000d0: 4673 eabd 1c4f 2e3d d56a ac3c f991 a7bd
000000e0: 3a86 23bc ae0b 833d efc0 1e3d 39b8 2b3d
000000f0: dc80 c4bd 2931 f2bd d9e4 e8bd 5340 abbd
00000100: 8ddf edbd 6139 f63c 6b78 a63d f096 03bd
00000110: 5d3b c13b 6236 4b3d 9eb6 b33d 789b a13d
00000120: 36a7 aabd 757e acbd a8cd eebd 90d7 933d
00000130: 6088 463d 8c52 86bd 5475 18be 0dd7 ab3c
00000140: d771 fbbd 5829 a73c 5b7c 15be a9b8 f0bc
00000150: 8a44 033d 815c ad3d c2e2 abbd 7621 d83c
00000160: bcca 40bd a09d a43c 70c1 86bd 6b02 cdbd
00000170: 2902 84bd 8bca 89bd 971a acbc 04db 0bbe
00000180: 0380 463d 46c0 b73d dfc2 3d3d 7d3c e0bc
00000190: 620e 0b3c 93ef 5c3c 8f5d 03be 3010 59bd
000001a0: ab75 16be 06e5 02be fced f73c 5626 bebc
000001b0: 7997 19be b3c1 89bd 9688 62bd 46d0 78bd
000001c0: cd6c 603d 5c33 963d 17ab 813d 1978 8e3d
000001d0: 0667 14bd 802e 643c f950 d4bc f6bf 48bd
000001e0: cdb6 823d eaae bbbd 377a febd f617 20be
000001f0: aaf1 d5bd 104c 64bc 2662 82bc 8f82 86bd
00000200: c9e6 fbbc 2c0e 5cbd f4dc dcbd 591d 12be
00000210: f27f cc3d 6f53 cf3c fc93 0abd dbae acbd
00000220: 1a9a f33c 4022 bcbd ff6a 983d d9f5 713d
00000230: c909 3b3e 2f32 14bc f37f e43d e6ab 093e
00000240: 0d4a c73b d780 7dbd 65b8 a33d eec2 c3bc
00000250: 8103 a5bd 05f5 943d fc22 5e3c 366e c23d
00000260: 7c1e 00bd 94db 86bd 8f2f 58bd dfc7 b83d
00000270: 52e0 8a3d cef8 863d 0f9e b0bd 40af 683d
00000280: 045b b03c 1493 c8bd b078 bbbd ec0c cfbc
00000290: f8f8 fdbc 96f2 1e3d 3063 06bb 2bd8 54bd
000002a0: a47d 04be d881 9a3d fa31 963b d1b4 b23b
000002b0: 6108 943d 9b58 623d 5f7c acbd 31b9 07be
000002c0: dc4f 883b 61be b0bd a0c0 d5bb c324 4c3d
000002d0: a8a7 4f3c 26d7 fbbc 47fe 8c3d 0ead 4d3c
000002e0: 4de1 143b a53e b03d f75c afbd 8b3f 16be
000002f0: a30c 28bd 0b3e 873b 2fa0 8cba 0124 b7bd
00000300: c74c 373e 09df 4f3e 6eab 6e3e 986f 75bd
00000310: f4b4 553d bd43 b3bb 16d8 22bc 1dfa 59be
00000320: 05d1 babd 5994 cc3c 0862 0fbe 233e e73d
00000330: 5fda ebbd 1533 d9bd e1ce abbd bca9 3ebe
00000340: e0ea a9bd fa37 973b 1635 183e f4cb 963b
00000350: 9b9a 39bd 0d78 92ba 3d54 0bbe 5338 143e
00000360: ea19 bfbc 0b08 753b 1ffc a7bc 3be3 acbd
00000370: aa04 0bbe 3cd2 7ebb 4aa8 adbd eaca 143d
00000380: 5e46 b63d 3295 86bd b375 543d 885d 2bbe
00000390: 1adb e03c 7fde 26bd 12f7 273e b103 ffbc
000003a0: 4d8e aebd bac3 95bd 499f 7bbe 32ba a8bc
000003b0: 1e6e 8ebd b062 cbbc 58d8 b23d 2c10 d6bd
000003c0: 286b 3cbe 70a8 50be e217 0ebe 0de0 f8bd
000003d0: dab6 6fbb c8e6 3bbe 45b5 f939 76ce 95bb
000003e0: c04e 4c3e e3ce 923d 9f31 4abd ae3d 55bd
000003f0: d579 f83d 7344 b73d f4e7 143e 805f 8bbd
0.05143575 0.049493257 0.028161084 0.05624464 0.14454159 0.011721409 -0.009564888 0.04823091
-0.024764843 -0.022057991 -0.007909819 -0.094763584 -0.15345627 0.019941816 -0.27758104 -0.18380046
-0.08145806 -0.092372805 -0.11521218 -0.01588974 0.075408526 -0.046935923 -0.054058813 0.0445851
0.019189876 -0.043992065 0.068179294 0.07369467 -0.08909563 -0.030323733 -0.02417363 -0.1874761
-0.22185259 -0.12870662 -0.05123778 -0.10441791 -0.13464244 -0.013776319 0.004886312 -0.060016688
-0.14330007 -0.08442628 -0.18352151 -0.17277256 -0.14246164 0.096650705 0.024010522 0.0154077895
0.020188725 -0.081324905 0.098381385 -0.013850654 -0.11447768 0.042555913 0.021047035 -0.08182139
-0.009980733 0.06398712 0.038758215 0.041923735 -0.095948905 -0.11825783 -0.11371774 -0.08361878
-0.116149046 0.030056657 0.08128437 -0.032126367 0.005896969 0.04961241 0.08775066 0.078909814
-0.08332674 -0.08422557 -0.116603196 0.0721885 0.0484699 -0.06558713 -0.14888507 0.020976568
-0.122775726 0.020405456 -0.14598219 -0.029384928 0.032047786 0.08464909 -0.0839286 0.026383143
-0.047068343 0.020094693 -0.06579864 -0.10010227 -0.064457245 -0.06728085 -0.021008773 -0.13657767
0.048461925 0.0897222 0.04632842 -0.027372593 0.008487316 0.013484853 -0.12828659 -0.052993953
-0.14693324 -0.12782678 0.030264847 -0.02321164 -0.14999188 -0.06726398 -0.05530604 -0.0607455
0.05479126 0.07334015 0.06331461 0.069565006 -0.036231063 0.013927102 -0.025917517 -0.049011193
0.06382523 -0.091642216 -0.124256544 -0.1563414 -0.104464844 -0.01393415 -0.015915941 -0.06567871
-0.030749695 -0.053724453 -0.10784331 -0.14269008 0.09985341 0.025308339 -0.033832535 -0.084317885
0.029736567 -0.0918622 0.07442283 0.05907235 0.18265451 -0.009045168 0.11157217 0.1344448
0.0060818256 -0.06189045 0.07994155 -0.02389666 -0.08057309 0.07273296 0.013558146 0.09493677
-0.031279072 -0.0658485 -0.05277973 0.090224974 0.06781067 0.065904245 -0.08623897 0.056807756
0.021527775 -0.09793678 -0.09153879 -0.025274716 -0.031002507 0.038805567 -0.0020505898 -0.051963966
-0.12938553 0.07544297 0.0045835944 0.005453684 0.07228161 0.055260282 -0.084221594 -0.13254239
0.0041599106 -0.08630062 -0.006523207 0.049839746 0.01267425 -0.03074224 0.06884437 0.0125534665
0.0022717298 0.086056985 -0.085626535 -0.14672677 -0.041027676 0.004127269 -0.0010728891 -0.08942414
0.17900382 0.20299925 0.23307583 -0.059920877 0.052174523 -0.0054707215 -0.009939214 -0.21286817
-0.091218986 0.024973081 -0.1400224 0.112911485 -0.1151626 -0.10605446 -0.083890684 -0.18619436
-0.08296752 0.004614827 0.14864 0.00460195 -0.04531346 -0.0011174694 -0.13606353 0.14474611
-0.023327786 0.0037388827 -0.020505963 -0.08441778 -0.13575998 -0.0038882634 -0.08479364 0.036326326
0.0890014 -0.065714255 0.05187006 -0.16734898 0.027448226 -0.040739533 0.16402844 -0.03112969
-0.085232355 -0.073127225 -0.24572481 -0.020596597 -0.06954597 -0.024827331 0.087326705 -0.10452303
-0.18400252 -0.20376754 -0.13876298 -0.12152109 -0.0036577494 -0.18349755 0.00047628037 -0.004571731
0.19951916 0.07168367 -0.04936373 -0.052060775 0.121326126 0.089486025 0.14541608 -0.068053246

bias f4 [64]
00000000: 427c bc3b 9e97 cf3d e4cc 57be b543 bebd
00000010: 47c2 bcbd 3ea8 cdbd d117 04be 02fb 803d
00000020: 77ea e6bd 1495 cfbd 1151 18bc 4ef0 ff3d
00000030: 4cf8 6fbd 2d9d edbd c530 8ebe b1c8 6c3d
00000040: b1aa abbd 34b0 00bd ce27 2fbc 7918 c9bc
00000050: 01e2 d13c 113b 2abd 334f 5c3b 0ad4 2abe
00000060: 9c50 b4bd 5df0 d9bd b5c7 3a3d ff27 f63d
00000070: 1a1a 59be bf0d 9cbd c5eb e7bd 5c98 b43d
00000080: 13a0 bfbb 13ff a93b df71 8cba 7539 803d
00000090: 8c66 58be 4811 db3c efa1 583d 14a6 af3d
000000a0: eb84 19be 4a4f 2bbe 9caa e2bc 5b2d 4bbd
000000b0: ca07 9abc 1da3 d6bc f69c ca3b a828 963d
000000c0: 522a 603d 2063 533d c75d e73d 0b60 75bd
000000d0: 5c27 dc3c f9d2 47be 2396 a3bd 429a 2dbe
000000e0: 7b7d 93bd c9bb 1bbe de4b 8c3c f1e7 6b3d
000000f0: 2711 34bc 5a93 543d ed64 42bd f714 6abd
0.0057521174 0.101363406 -0.21074253 -0.09290258 -0.09216743 -0.10041855 -0.1289971 0.06297876
-0.11275189 -0.10135856 -0.0092966715 0.12497006 -0.058586404 -0.116022445 -0.27771583 0.05780858
-0.08382166 -0.03141804 -0.0106906425 -0.024547802 0.025620462 -0.041560236 0.0033616542 -0.16682449
-0.088044375 -0.10641549 0.04560061 0.120193474 -0.21201363 -0.07619809 -0.11324266 0.08818123
-0.0058479398 0.005187878 -0.0010715089 0.06260959 -0.21132869 0.026741639 0.052888807 0.08576599
-0.1499211 -0.16729465 -0.027669244 -0.0496038 -0.018802542 -0.026200825 0.006183262 0.07331973
0.05472786 0.051608205 0.112971835 -0.059906047 0.026874237 -0.19514073 -0.07987621 -0.16953376
-0.07201668 -0.15208353 0.01712602 0.057594243 -0.010990418 0.051898338 -0.04745953 -0.0571489

weight f4 [64]
00000000: 0b7e ba3f 2eec b33f c1bf bb3f 41ea df3f
00000010: 51ce d93f 540c d33f 509e d43f d569 d13f
00000020: b5b7 c43f 4405 b73f 6ad4 c03f 13e2 c23f
00000030: 0cc8 ae3f d857 c83f c96b d93f f55f c33f
00000040: f719 cd3f cb4d c53f 3d6b c83f f10b bf3f
00000050: 2eec c03f 0561 c73f 715b ca3f b6c5 ca3f
00000060: ef85 c63f fe57 d83f 7beb b23f e1d2 c83f
00000070: 9926 cb3f 22b2 d23f db26 cf3f d64e ce3f
00000080: b03b c73f 7012 c43f d0db c93f 82c4 c93f
00000090: 0774 c13f a6fa c83f f3d2 ca3f 04ab cd3f
000000a0: c706 b53f 9665 c53f 9f3d c93f 9fef d03f
000000b0: 0c6b cb3f a3c5 c33f e756 ba3f c58d c53f
000000c0: 847c ca3f d7fe e03f f30a c53f 39c6 b93f
000000d0: c9da bd3f e79f d43f 6be9 cc3f febe d33f
000000e0: ec61 bd3f 662f b73f ac6f b83f 1d1f bb3f
000000f0: 6a32 c23f 339f b53f af61 c23f 40fc d13f
1.4569715 1.4056451 1.4667894 1.7493364 1.7016088 1.6488137 1.6610813 1.6360422
1.5368563 1.4298482 1.5064824 1.5225242 1.36548 1.5651808 1.6986018 1.5263659
1.6023549 1.5414366 1.5657727 1.4925519 1.5072076 1.5576483 1.5809156 1.5841587
1.5509623 1.6901853 1.3978113 1.5689355 1.5871154 1.6460612 1.6183733 1.6117809
1.556509 1.5318127 1.5770206 1.5763094 1.5113534 1.5701492 1.5845627 1.6067815
1.4142693 1.5421627 1.572193 1.6323127 1.5892043 1.5294689 1.455777 1.543389
1.5819249 1.7577771 1.5393966 1.4513618 1.4832393 1.6611298 1.6008734 1.6542661
1.4795508 1.431134 1.440908 1.461887 1.5171635 1.4189209 1.5186061 1.6405106

bias f4 [64]
00000000: 272f 9abd 7717 88bd 2883 a3bc 9bf5 043d
00000010: f4a9 8b3d 1b69 febb 3fe4 bcbd ab35 cfbd
00000020: 1af2 ac3c dd58 5f3c 48d3 eabd 2710 f1bd
00000030: c055 b0bc fc04 e6bc 2acb 84bd d3c2 b03c
00000040: bf17 0b3d 98d0 e5bd c90a 753d 5ab6 893d
00000050: 554a f7bb fe6d bf3c 8134 93bd ec63 ec3d
00000060: 0e8a b03a f31b f6bd 5160 9f3c a48c 1fbd
00000070: 9ecf 6d3d 3043 9a3d e58d 373d 38f0 c3bd
00000080: 8505 c3bd 824b 823d 30aa 913d 4c6b 673d
00000090: e4c4 3fbd 9efc aabd e598 e63d 519e 88bb
000000a0: 2dd2 b6bd 4c98 d5bc 0d20 573c 26da 1abd
000000b0: f8be 5fbd 8fb7 6bbd 7afc a5bd 552c f73d
000000c0: 28e4 ddbd 8a63 d13d 554e 1abd d33e 8c3d
000000d0: 6756 9abc 081d f5bd abab 1fbd 8244 a8bd
000000e0: 4f97 c03d 6634 523d d507 a9bd beee 5c3d
000000f0: a390 c93b 13ab cabd f477 a13d 7f45 d0bc
-0.07528525 -0.066451006 -0.019960001 0.03246079 0.06819525 -0.0077639944 -0.09223222 -0.10117658
0.021111537 0.0136320265 -0.1146608 -0.11770659 -0.021525264 -0.028078549 -0.06484063 0.021577274
0.033958193 -0.11221427 0.05982474 0.06724234 -0.007546703 0.023367878 -0.07187749 0.11542496
0.0013468878 -0.1201705 0.019455107 -0.038952485 0.058059327 0.07532346 0.044813056 -0.095673025
-0.09522537 0.06362058 0.07112539 0.05649881 -0.04681863 -0.08348964 0.11259631 -0.0041692634
-0.089268066 -0.026073597 0.0131302 -0.0378057 -0.05462548 -0.057548102 -0.08104797 0.120690025
-0.10834533 0.10224064 -0.03767236 0.0684792 -0.018840028 -0.11968428 -0.038982075 -0.08216192
0.0940386 0.051319502 -0.08253447 0.05393862 0.0061512752 -0.09895911 0.07884207 -0.025423763

running_mean f4 [64]
00000000: d2f8 2b3f c361 6c3f 0b7b 2b3e adb0 c33e
00000010: 33ed 873e 730f 883e 6eeb b83e f7cc 403f
00000020: f4b2 313f 0dd7 1a3f 9dca 813f 86f9 853f
00000030: 087e 143f 3929 1b3f f688 393e 6ea6 413f
00000040: 474b 803e fe28 563f d949 0f3f 93c7 2b3f
00000050: 059f 653f dc68 023f a020 ca3e 4c61 9e3e
00000060: 43d5 113f c242 133f 6a3d 643f 968b 683f
00000070: a2f1 8f3e afa7 9f3e f0e7 083f ea24 763f
00000080: a017 943f c8b8 0c3f 960b 063f 2856 043f
00000090: 1d84 b13e 2272 403f 511a 503f a32f 363f
000000a0: 5f69 913e b615 023f c62b 863e 4f2d 063f
000000b0: 809d 2f3f c81a 043f 1eb4 213f e67b 603f
000000c0: 5236 8e3f 240c 323f 2d1f 5d3f da2a c63e
000000d0: e3f0 313f ac30 ec3e ba77 bf3e 0098 043f
000000e0: 5948 8e3e d1d9 813e 1a46 6a3f de93 303f
000000f0: 6820 303f 7b86 2d3f bc4e 323f bf4b e93e
0.67176545 0.9233667 0.16746156 0.3822073 0.26548156 0.26574287 0.3611712 0.7531275
0.69413686 0.6048439 1.0139958 1.0466774 0.5800481 0.60609776 0.18118653 0.75644577
0.25057432 0.836563 0.5597206 0.671014 0.8969577 0.5094125 0.39478016 0.30933607
0.56966037 0.5752374 0.8915621 0.9083799 0.2811404 0.3118262 0.5347891 0.96150076
1.156971 0.54969454 0.5236143 0.51693964 0.34671107 0.7517415 0.81290156 0.7116644
0.28400704 0.5081438 0.2620527 0.52412885 0.685997 0.51603365 0.6316546 0.87689054
1.1110327 0.69549775 0.86375695 0.38704568 0.6950819 0.46130884 0.37396032 0.51794434
0.27789572 0.25361493 0.91513216 0.6897563 0.6879945 0.67783326 0.6965139 0.45565602

running_var f4 [64]
00000000: fec0 7c3f f576 9f3f 10dc 873e d620 143f
00000010: b40a ac3e be27 d13e 36a8 fd3e 7fed 8f3f
00000020: 94a3 5c3f 0a3e 3e3f 99b9 b23f dfae fe3f
00000030: f548 953f 2171 8d3f 76d9 703e 7683 8c3f
00000040: 50bf aa3e 55e4 e33f dde2 7f3f 852b 843f
00000050: 3b26 fd3f 5d31 393f 17fa 093f d16e 033f
00000060: c0ab 273f 3d43 813f 92f7 d03f 15ed b83f
00000070: a68e ea3e a61e e23e a07e 783f a7bb c63f
00000080: ca39 3240 d564 163f 188e 623f 87b0 053f
00000090: 127f 213f 4d4c 983f c080 893f 0f54 543f
000000a0: a4c8 163f 3fee 513f 29db b73e d02b 363f
000000b0: 9473 703f b4d9 2c3f 48fc 6e3f 983c a23f
000000c0: deca fd3f 6321 553f 9966 993f 99b8 fe3e
000000d0: eee1 853f 0f2e 5a3f 943b 083f ed90 923f
000000e0: b3c0 c13e 89ba db3e a7d6 c43f 4cf7 ca3f
000000f0: b0a9 923f af57 8c3f ebec 9f3f 68de 433f
0.9873198 1.2458178 0.26535082 0.57862604 0.33601916 0.40850633 0.49542397 1.1244353
0.861871 0.74313414 1.396289 1.9897116 1.166289 1.1050149 0.23520455 1.0977619
0.33349085 1.7804056 0.9995554 1.0325781 1.9777292 0.7234095 0.5389723 0.5134097
0.65496445 1.0098644 1.6325552 1.4447352 0.45811957 0.44164008 0.97068214 1.5526017
2.7847772 0.5874761 0.8849807 0.52222484 0.6308452 1.1898285 1.0742416 0.82940763
0.58899903 0.8200416 0.35909393 0.711606 0.9392636 0.6751969 0.933537 1.2674742
1.9827535 0.8325407 1.1984435 0.49750212 1.0459573 0.8522653 0.5321591 1.1450478
0.3784233 0.42915753 1.5378007 1.5856719 1.1458035 1.0964259 1.2494177 0.7651124

weight f4 [8, 64]
00000000: dea5 4b3e 6389 3f3e a414 98bd d4dc e33d
00000010: 1daa df3e 1972 603e 3662 9e3e 22cc 33be
00000020: 967a e23e 4a94 933d 038e 8bbe 9a5f 6a3e
00000030: 487e 46be 360d f73d ea3d cf3d f711 c13e
00000040: 27aa f93e 9de8 643d 9ec6 f2bd 12e5 333d
00000050: 5f5a 393e 1704 ab3e ca26 a93e 94bd a83d
00000060: 18a4 85be 2b18 cbbe a436 1c3d 9597 a6be
00000070: f1b1 c73e 2be9 d23e 8a77 0bbe b106 7a3e
00000080: 3005 293e ee1f b2bd 62f6 f2be 9b9d f63d
00000090: 994c bcbe 0eec bbbe 6b5e c93c 2f92 a6bd
000000a0: bf10 1dbe 65d0 4fbe 552a a0be d8a9 763e
000000b0: afe1 133e c652 9dbe 7d5c 83be 0226 693d
000000c0: 3783 d63c d412 953e de04 06be 3075 ab3e
000000d0: fd65 133e c6f5 a9be 0d38 f63d 468f a0be
000000e0: 10a9 c43e 6b2a e43d 23b4 523c a4ca 7dbe
000000f0: ddad afbe 1dd0 873e 9e83 db3d dfba 1e3e
00000100: 9660 343c bdb7 15be 3ab4 1bbe df56 ca3e
00000110: 9dcb a2be a3b2 53be 69d4 38be bd94 913e
00000120: a091 67be 943f 57be 90b8 1ebe b0b7 4bbc
00000130: 587c e93d 4a38 7a3e e748 5b3e 137e 093e
00000140: 3fff be3e 0149 3bbd b261 803e 5138 0dbf
00000150: f149 d4bc 1f42 12be 61c8 a0bd ff0c b93e
00000160: 9ce4 aebe d3d1 55bd 0a4f b6be d94e 2ebe
00000170: 8f87 8b3e 7d5c 4fbe 9445 7b3e b31f 8bbe
00000180: e6dc 903d 0d65 52be 5b41 743e 6840 d5be
00000190: 97d4 0b3d d45a c13e 4b01 c7be a75f a5bd
000001a0: 8453 4cbe 61a5 31be e128 a53c 420c 9bbe
000001b0: dbcb 063e 76dc 693d b9fc 6b3d 273e cebe
000001c0: 6c62 27be 2f0d 6bbe cb69 e6be 00d4 513e
000001d0: 43c8 82be 85d6 fd3d 5964 e53e a6c1 9e3e
000001e0: 4947 c03d 75e0 4abd 4900 62be 737d 4d3e
000001f0: d7c6 1d3e b4ee 80be b040 02bf 32b5 d1be
00000200: 783b 283d b429 c23c 0293 ad3e b408 05bf
00000210: 650b dabd edb8 bc3e 5082 273e 0af3 c8be
00000220: ac85 06be 9755 2f3e d346 5abe ecf5 28be
00000230: d559 b1bc ee2b 15bd 4010 e23e 12bf 183c
00000240: 15fa 36bd 7a5e 31be 2b8f 78be 3cdc dcbc
00000250: 56e7 3fbe 74d8 a2bd 1d68 92be 99c5 65be
00000260: 9f47 983e 6366 0ebd ea60 463e 0173 7a3d
00000270: bd1e a1be 8697 28be 90e1 b2be b7b4 86bd
00000280: 81fe 4dbe db9b ccbd 5f04 42bc a98c a63e
00000290: e416 89be 5ed9 6b3e a2f3 8a3e c2eb 6d3d
000002a0: c055 903e f43a 95be 6664 b83e 7ef7 c83e
000002b0: 3f38 bdbd 150c b13e ccf3 f03c 5ec6 6e3e
000002c0: bd52 923b b03e 6e3e 3e5e 713e 9e57 99be
000002d0: 586f 473e 9960 89be 6fee 47bd 0d6a 68be
000002e0: 1106 003e d6aa 483e f8a2 85be b292 173e
000002f0: 7a1d 693d e9a5 60be fa8e c43d b153 713e
00000300: 87fb 43be 9ff9 e1bc 5d05 e8bc 5a99 8ebe
00000310: a96b 573e 7307 1fbc bfb8 6cbe 82c3 6ebe
00000320: 63d7 09be 70d6 9bbd bd5e 21bd b8af 84be
00000330: 241d 12be 85e0 88be bcd1 0ebf 26ba 7dbe
00000340: ebc0 9cbe f2af 193d 3c40 223e 8e3c 6f3e
00000350: 576a 89be 0b09 013e 0fd2 75be 80b3 5d3e
00000360: 7cc7 b7bc 2674 e8be aad8 493e c592 173e
00000370: cee2 4b3e bd25 8b3d bf2e 3d3e b442 34be
00000380: 3cbc 6bbe 9d2c d03e 21cd 2c3e d5ba 1fbd
00000390: 63fc a5be d68b 79bd 77ef 8a3e ac11 743e
000003a0: 0af7 01be 5533 ae3e fe7d 84be 2ddd 1cbe
000003b0: a882 25be 64ab 0bbe 8295 e13d d542 993e
000003c0: 0284 23be 8944 973e 2346 8c3e b738 49bc
000003d0: 9793 fd3d 5cc1 dfbe d63e 0ebf bc22 acbe
000003e0: becb 25be d7b0 673e d259 af3d cb4c c33d
000003f0: 1ce6 353e 5c0c 64be df95 853d f00d d1bd
0.19887492 0.18704753 -0.07425812 0.11126104 0.43684474 0.21918525 0.30934304 -0.17558339
0.4423415 0.07206018 -0.27256784 0.22888032 -0.1938411 0.12063067 0.10119231 0.3770902
0.48762628 0.0558859 -0.118542895 0.04391963 0.1810088 0.33401558 0.33037406 0.08239284
-0.26101756 -0.39666876 0.038138047 -0.32537523 0.39002946 0.41193518 -0.1361982 0.24416615
0.16505885 -0.08697496 -0.474536 0.120417796 -0.3677719 -0.36703533 0.024581155 -0.08133351
-0.1533842 -0.2029434 -0.31282297 0.24088228 0.1444156 -0.30727214 -0.256565 0.056921013
0.026185615 0.29115927 -0.13087794 0.33487844 0.14394374 -0.33195323 0.120224096 -0.3135931
0.38410234 0.11140903 0.012860331 -0.24784333 -0.34312335 0.26525965 0.10718463 0.15500973
0.011009356 -0.14620872 -0.1520547 0.39519402 -0.3179597 -0.20673613 -0.18049778 0.2843379
-0.22614145 -0.21020347 -0.15500093 -0.012433931 0.1140067 0.24435535 0.21414529 0.13427
0.37304112 -0.04572392 0.25074536 -0.55164057 -0.025914164 -0.14283036 -0.07850719 0.36142728
-0.3415879 -0.052202057 -0.35607177 -0.17022265 0.2725186 -0.20250125 0.2453826 -0.27172622
0.07073383 -0.2054636 0.23853056 -0.416507 0.03413829 0.3776461 -0.38868174 -0.08074885
-0.19953734 -0.17348243 0.020161094 -0.3028279 0.13163702 0.057095014 0.057614062 -0.40281793
-0.16346139 -0.22954248 -0.4500259 0.20491028 -0.25543413 0.12394432 0.44803122 0.31007117
0.093885966 -0.049530465 -0.22070421 0.20067386 0.15407883 -0.25182116 -0.50879955 -0.40958554
0.04107234 0.023701526 0.3390122 -0.51966405 -0.106467046 0.36859837 0.16358304 -0.39247924
-0.1313693 0.17122494 -0.2131608 -0.16500062 -0.02164928 -0.036418848 0.44153023 0.009322898
-0.04467209 -0.17321196 -0.24273364 -0.026960485 -0.18740591 -0.079514414 -0.28595057 -0.22438659
0.29742143 -0.034765612 0.19372907 0.061144833 -0.31468764 -0.16464052 -0.34937716 -0.06577437
-0.20116617 -0.099906646 -0.011841862 0.3252919 -0.26775277 0.23032138 0.27139002 0.058086164
0.28190422 -0.2914654 0.36014098 0.39251322 -0.09239244 0.3457953 0.029413126 0.23317859
0.0044654296 0.23266101 0.23571107 -0.2994966 0.19476068 -0.2683151 -0.048811372 -0.22696705
0.12502314 0.19596419 -0.26100898 0.14802054 0.056912877 -0.2193829 0.09597583 0.23567082
-0.19138919 -0.027584849 -0.02832287 -0.27851373 0.21037163 -0.009706366 -0.2311735 -0.23316768
-0.1346107 -0.0760926 -0.03939699 -0.25915313 -0.14268929 -0.26733795 -0.5578878 -0.24778041
-0.30615935 0.03752131 0.15844816 0.23362944 -0.26838943 0.12601106 -0.24005912 0.21650505
-0.022433989 -0.45401114 0.19711557 0.14802082 0.19910738 0.067943074 0.18474863 -0.1760357
-0.23021024 0.40659037 0.16875125 -0.038996536 -0.32419118 -0.060924374 0.27135822 0.23834866
-0.12691894 0.34023538 -0.25877374 -0.15318747 -0.16163123 -0.13639599 0.110148445 0.299338
-0.15968326 0.29544476 0.2739726 -0.012281588 0.12381666 -0.4370221 -0.5556463 -0.3362025
-0.16191003 0.22626053 0.08562054 0.095361315 0.17763561 -0.2227034 0.06522726 -0.102077365

bias f4 [8]
00000000: 1765 363c c63b 303d 0c8a 48bd 176a d13c
00000010: c74f e3bc 80af bfbb 757a 903d 9c52 883d
0.0111325 0.043025754 -0.048959777 0.025563283 -0.027748002 -0.0058497787 0.07054607 0.066563815
