Models/cloud_model_2.pt (torch, 583371 bytes, 26 tensors)

weight f4 [8, 2, 5, 5]
-0.0808373 -0.115933396 -0.101479694 -0.03008735 0.021094445 -0.06345987 -0.29744738 -0.3718858
-0.14921121 -0.22277176 -0.32733545 -0.20889612 -0.099249 -0.21005411 -0.02660384 -0.2211402
-0.35936067 0.18754388 -0.1341215 0.19749135 0.13959901 0.018761277 -0.002050252 0.03694806
-0.3020175 -0.019819412 0.068077974 0.07649345 0.41086435 0.51727194 0.45916057 0.11550029
0.3399 0.40869758 -0.044378128 0.024085315 0.16869067 -0.11856208 -0.053604126 0.09965308
0.21603315 0.2220381 0.1886721 -0.13960195 -0.019756412 0.100341246 -0.15427084 0.13427357
0.07296519 -0.061628852 -0.06898662 0.14771567 0.028097484 -0.1534249 -0.3517808 -0.04472419
0.034662884 -0.33596295 0.1655172 -0.30592176 0.15722115 -0.13207786 -0.055169865 -0.13634327
0.3255211 -0.06334788 0.15823454 -0.10199051 0.21028893 0.2979849 0.426385 -0.04861453
0.0793514 0.18956377 -0.2692518 -0.002600162 -0.13516529 -0.042108916 -0.07309896 -0.383724
-0.39313608 0.1908119 0.03173963 0.16509923 -0.08181918 0.12274531 0.13818735 0.13087857
-0.149474 -0.048725594 -0.11515968 0.564785 -0.16768469 0.15504242 -0.2767712 0.021309046
0.38118047 0.43788734 0.05787552 0.037403822 0.031679206 0.21633336 -0.21560459 -0.21264878
0.025109276 -0.0033514223 0.2709518 0.42008242 0.16189809 -0.1109556 -0.08800336 0.05210352
-0.049491905 0.21589136 -0.41191766 0.1156343 0.32738853 -0.15663563 -0.10979016 0.24062064
0.25584203 0.079553425 0.21124245 0.24137083 -0.024479 -0.022320433 -0.055048894 -0.15622278
-0.32065782 -0.29436156 0.0019797462 0.03189294 0.10797101 -0.12646587 -0.27201816 0.045008194
-0.0075832633 -0.14687608 -0.13600944 0.028598752 -0.22382297 -0.1705663 0.014343827 -0.10735339
0.2510444 0.03703173 -0.09750182 -0.105543345 -0.15931578 0.04727443 -0.16364835 0.27000576
-0.14484714 -0.045827385 0.030973187 -0.16153054 0.35799912 0.3043678 -0.25898606 0.33150366
0.044275533 -0.05977189 0.49773324 0.05764369 -0.052384306 0.12001918 0.18928607 0.2943229
0.27000967 0.02310816 0.20888975 -0.22257566 -0.25405958 0.022838159 -0.21021385 0.19282746
0.08378353 -0.16746064 -0.16950881 -0.054446947 -0.340189 0.13495082 -0.29500684 -0.22946528
0.2996188 -0.3150853 0.157145 -0.26496136 -0.1929052 -0.34501338 -0.25691494 -0.31700775
-0.36759907 0.023038747 -0.15884157 0.22214332 -0.14306079 -0.25239816 0.032335114 -0.16538167
-0.054029778 -0.1848286 0.05684332 -0.3149351 0.037870467 0.1566138 0.24238367 0.032767456
0.4281849 -0.20990247 0.21624462 0.4386664 0.2643595 -0.18050352 -0.087141484 -0.048875216
-0.08009616 -0.40424606 -0.33716226 -0.16961993 -0.04839129 -0.2480923 0.36632898 0.37950936
-0.029613892 0.37764472 -0.03079315 -0.12930076 -0.27822262 0.017043063 -0.0723097 -0.024375783
0.15341195 0.10345386 0.16007434 0.1637493 0.23270106 0.1844585 0.2915092 0.26169938
-0.15365835 0.039627463 -0.26774207 -0.07015799 0.40046322 -0.042752538 -0.002665934 0.21521738
-0.12967895 0.2211436 0.25669125 0.37106624 0.25934398 0.31150085 0.26693913 0.101838745
00000000: 078e a5bd 7d6e edbd 96d4 cfbd bf79 f6bc
00000010: 42ce ac3c 40f7 81bd 064b 98be d167 bebe
00000020: d3ca 18be 481e 64be 8398 a7be dde8 55be
00000030: 0f43 cbbd 6d18 57be 4cf0 d9bc 9472 62be
00000040: 1ffe b7be 810b 403e 2657 09be 2c3b 4a3e
00000050: 0bf3 0e3e 40b1 993c 855d 06bb d956 173d
00000060: 0aa2 9abe 525c a2bc 776c 8b3d 99a8 9c3d
00000070: d05c d23e ef6b 043f 1817 eb3e 6b8b ec3d
00000080: 5f07 ae3e cf40 d13e d7c5 35bd 914e c53c
00000090: 3fbd 2c3e add0 f2bd 0090 5bbd ea16 cc3d
000000a0: cb37 5d3e f55d 633e 4233 413e d0f3 0ebe
000000b0: 33d8 a1bc b67f cd3d 2df9 1dbe 037f 093e
000000c0: c66e 953d 896e 7cbd db48 8dbd c742 173e
000000d0: b22c e63c 6b1b 1dbe 9d1c b4be b630 37bd
000000e0: abfa 0d3d 5603 acbe 577d 293e c7a1 9cbe
000000f0: 95fe 203e 6b3f 07be ccf9 61bd 929d 0bbe
00000100: b4aa a63e 89bc 81bd 3c08 223e 67e0 d0bd
00000110: fb55 573e 7a91 983e 224f da3e 0820 47bd
00000120: fd82 a23d 011d 423e 5fdb 89be 7b67 2abb
00000130: c568 0abe 667a 2cbd e8b4 95bd 7977 c4be
00000140: 2249 c9be 3264 433e 6a01 023d c60f 293e
00000150: d090 a7bd e561 fb3d fc80 0d3e 0805 063e
00000160: b60f 19be 7d94 47bd d7d8 ebbd c095 103f
00000170: 89b5 2bbe 71c3 1e3e f4b4 8dbe 4f90 ae3c
00000180: 162a c33e c532 e03e e20e 6d3d c034 193d
00000190: 0ec2 013d 7e86 5d3e 73c7 5cbe 9ac0 59be
000001a0: f8b1 cd3c 89a3 5bbb 32ba 8a3e 0b15 d73e
000001b0: 9dc8 253e b13c e3bd 1b3b b4bd 806a 553d
000001c0: 06b8 4abd a012 5d3e dfe6 d2be add1 ec3d
000001d0: 789f a73e 1765 20be aad9 e0bd 4265 763e
000001e0: bafd 823e e8ec a23d f14f 583e ea29 773e
000001f0: 2f88 c8bc 57d9 b6bc f37a 61bd ddf8 1fbe
00000200: 432d a4be 8fb6 96be a1be 013b 2ca2 023d
00000210: e81f dd3d 4580 01be f745 8bbe 835a 383d
00000220: 067d f8bb af66 16be 0f46 0bbe ee47 ea3c
00000230: d931 65be efa8 2ebe 5f02 6b3c 18dc dbbd
00000240: e488 803e 95ae 173d 09af c7bd 1c27 d8bd
00000250: ad23 23be d5a2 413d 6f93 27be 323e 8a3e
00000260: cf52 14be 7fb5 3bbd 7bbb fd3c 4368 25be
00000270: a94b b73e 19d6 9b3e d299 84be d9ba a93e
00000280: 435a 353d 5fd3 74bd e4d6 fe3e ca1b 6c3d
00000290: ed90 56bd 9ecc f53d 35d4 413e 7eb1 963e
000002a0: b53e 8a3e 534d bd3c 32e7 553e e0ea 63be
000002b0: 1914 82be 1717 bb3c 4d42 57be 9074 453e
000002c0: b396 ab3d cd7a 2bbe b893 2dbe c303 5fbd
000002d0: 412d aebe 8c30 0a3e 230b 97be f2f8 6abe
000002e0: a367 993e dc52 a1be 9eea 203e 04a9 87be
000002f0: f188 45be 98a5 b0be 5b8a 83be d74e a2be
00000300: f235 bcbe c1bb bc3c 5da7 22be 8a79 633e
00000310: 877e 12be 553a 81be d371 043d d059 29be
00000320: 544e 5dbd b543 3dbe 8bd4 683d 2c3f a1be
00000330: 101e 1b3d 5e5f 203e 6d33 783e 2b37 063d
00000340: 0d3b db3e acf0 56be 3b6f 5d3e e298 e03e
00000350: 215a 873e ead5 38be 3c77 b2bd 6131 48bd
00000360: 7509 a4bd 57f9 cebe 88a0 acbe d9b0 2dbe
00000370: f235 46bd e80b 7ebe 798f bb3e 0d4f c23e
00000380: d598 f2bc a65a c13e eb41 fcbc 6b67 04be
00000390: 3273 8ebe e59d 8b3c 1c17 94bd b9af c7bc
000003a0: 0618 1d3e 9edf d33d 87ea 233e e6ad 273e
000003b0: 3049 6e3e b0e2 3c3e b240 953e 76fd 853e
000003c0: 9d58 1dbe 6850 223d 7d15 89be feae 8fbd
000003d0: 8409 cd3e 491d 2fbd f3b6 2ebb f261 5c3e
000003e0: 8fca 04be 7873 623e 096d 833e 65fc bd3e
000003f0: bcc8 843e 0a7d 9f3e 3fac 883e d590 d03d

bias f4 [8]
-0.009661385 -0.044191074 0.09068729 0.030935094 -0.03421628 -0.15933716 0.097431235 0.10053145
00000000: c94a 1ebc b301 35bd 42ba b93d 986b fd3c
00000010: 5f26 0cbd 4829 23be 078a c73d 6fe3 cd3d

weight f4 [8]
0.9996916 1.1069865 0.9226692 0.9921731 0.9209552 1.0144919 1.0526291 0.9501709
00000000: caeb 7f3f bcb1 8d3f 0c34 6c3f 0eff 7d3f
00000010: b8c3 6b3f dfda 813f 8dbc 863f 663e 733f

bias f4 [8]
0.0014692589 0.1573035 0.11957977 -0.06840612 0.009206641 -0.016676482 0.09523469 0.15959938
00000000: 2694 c03a 2b14 213e 3de6 f43d 8218 8cbd
00000010: 74d7 163c 1e9d 88bc 680a c33d 056e 233e

running_mean f4 [8]
0.19347619 0.3325105 0.23498 0.5751507 0.71344805 0.35017404 0.4842051 0.22961876
00000000: 9f1e 463e d13e aa3e 999e 703e 143d 133f
00000010: 88a4 363f 034a b33e bbe9 f73e 2e21 6b3e

running_var f4 [8]
0.11589744 0.77484894 0.091235705 0.41038242 1.4287469 0.3913899 0.45096162 0.094628274
00000000: a35b ed3d 805c 463f c9d9 ba3d a51d d23e
00000010: 2ee1 b63f 4264 c83e 71e4 e63e 78cc c13d

weight f4 [16, 8, 3, 3]
0.22995213 0.002778665 0.06677686 -0.018375147 0.21043587 0.041847393 -0.20769107 0.040395387
-0.02217586 0.044503603 0.049202137 0.014221811 0.016355073 -0.36223412 -0.18041553 -0.19487453
-0.19256277 -0.40590155 -0.103324085 -0.014517063 -0.0122300545 0.02832312 -0.03285102 0.08726793
0.09281442 -0.020494318 0.067079775 -0.12353282 0.110714644 -0.06951049 0.17895043 -0.027332973
0.20682998 0.24510352 -0.06736872 0.09548891 0.19385009 0.10969488 0.056696888 -0.11157574
0.0052851113 -0.30801746 -0.07759238 -0.075868115 -0.04618897 0.21482909 -0.08981875 -0.19313572
0.30646428 0.18084067 0.15722421 -0.099913 -0.11691052 0.06990436 0.18459748 -0.17215139
-0.042781264 0.03659808 -0.29957598 -0.07822811 0.020743778 0.19417384 -0.24179357 -0.2013646
-0.23420766 -0.12291489 -0.30414876 -0.30769527 -0.30939987 -0.12527998 -0.084163085 -0.074767366
-0.02816127 -0.31987584 -0.19552025 -0.14856972 -0.04296283 0.15780747 0.07208951 0.19376491
-0.09917908 0.0031250336 -0.10080891 -0.14623003 -0.11302816 -0.53895324 -0.15199919 -0.2589837
-0.005262851 0.0034812817 -0.11032701 0.062110316 -0.10175715 -0.1209453 -0.22912829 -0.2898834
-0.1295944 -0.07699891 0.16186549 -0.18531494 -0.08197322 0.09799039 0.12621024 0.05144995
0.14533502 -0.052254308 0.18706615 -0.004016387 -0.017052358 0.012333319 0.034304526 -0.20232768
-0.070107594 0.4926355 -0.0001334799 0.13889384 -0.008567461 0.029536176 0.26290864 0.10019376
0.156086 0.07658945 0.17470735 -0.050859697 0.03784775 -0.19681606 0.11481973 0.015514686
-0.40533894 -0.14162807 0.11757729 0.08708612 0.33581287 -0.1737306 0.017588839 -0.09581383
-0.2834995 -0.4472071 0.009387036 -0.0420186 -0.1061434 -0.068445645 -0.06726102 0.10783487
0.045427985 -0.03977522 0.039188076 0.0685945 -0.09644571 0.1429184 -0.05022417 -0.1340514
0.1891914 -0.31101513 -0.2656659 -0.12645175 -0.11737349 -0.31239468 -0.2347999 0.02342646
-0.012944057 0.1460346 0.0635229 -0.28863445 0.15934527 -0.13408487 0.0019748723 -0.07548108
-0.17686044 -0.18694867 -0.1502781 -0.1861419 0.1058386 0.12350787 -0.24217479 -0.05123826
0.25884673 -0.011497141 0.29168797 0.08069531 0.21411403 0.12878448 0.031653274 -0.05472015
0.01755644 -0.081525 0.13448144 -0.015281995 0.15359114 -0.016910404 0.3186794 0.07789373
-0.12914367 -0.26896432 -0.124977134 -0.014499987 -0.05876259 -0.038602732 0.0637581 -0.136931
-0.0016384129 0.22145213 0.12374096 -0.055333253 -0.25107577 -0.36248186 -0.18783025 -0.16021252
-0.108857095 -0.34050724 -0.20506501 -0.13995044 0.05789322 -0.110215 -0.058622032 -0.18517
-0.17750046 -0.064637326 0.20682518 -0.18008874 -0.11323479 0.17887814 -0.025575768 0.00030159808
0.2226904 0.012707553 -0.00011627495 0.12358102 0.014745359 -0.07333191 -0.2001831 0.07877989
0.18276273 0.21407478 0.13112713 0.17577954 0.09369211 -0.046656568 -0.04510334 0.032169055
-0.099190265 0.062451355 0.031164061 0.17875007 -0.037530318 0.07403953 -0.07866542 -0.111902416
0.16796908 0.013120405 0.07316889 0.09651173 0.08980462 -0.24222557 -0.0008335734 0.33273962
00000000: 9278 6b3e 431a 363b 4ec2 883d 7a87 96bc
00000010: 807c 573e 2c68 2b3d f8ac 54be a275 253d
00000020: 26aa b5bc 6949 363d 2e88 493d 9902 693c
00000030: 13fb 853c c076 b9be d9be 38be 308d 47be
00000040: 2d2f 45be 54d2 cfbe 949b d3bd fad8 6dbc
00000050: 9160 48bc e305 e83c cb8e 06bd 87b9 b23d
00000060: 7d15 be3d b3e3 a7bc 1f61 893d c6fe fcbd
00000070: 5cbe e23d 845b 8ebd c83e 373e 66e9 dfbc
00000080: 3dcb 533e 6bfc 7a3e 9df8 89bd b18f c33d
00000090: a380 463e b6a7 e03d ff3a 683d d281 e4bd
000000a0: ba2e ad3b 77b4 9dbe c1e8 9ebd be60 9bbd
000000b0: a530 3dbd 28fc 5b3e e5f2 b7bd 5fc5 45be
000000c0: e3e8 9c3e 4c2e 393e 62ff 203e 309f ccbd
000000d0: c86e efbd 042a 8f3d 1f07 3d3e 7448 30be
000000e0: 683b 2fbd dee7 153d 0662 99be 0f36 a0bd
000000f0: dbee a93c 82d5 463e bc98 77be 8632 4ebe
00000100: 22d4 6fbe cdba fbbd 63b9 9bbe 3c8a 9dbe
00000110: a969 9ebe 6549 00be b25d acbd a21f 99bd
00000120: 77b2 e6bc c4c6 a3be 7636 48be a922 18be
00000130: cbf9 2fbd 4898 213e aaa3 933d 4f6a 463e
00000140: 671e cbbd 5dcd 4c3b e774 cebd 53bd 15be
00000150: 4f7b e7bd d7f8 09bf ada5 1bbe 8399 84be
00000160: fe73 acbb 3726 643b 21f3 e1bd 6367 7e3d
00000170: 0d66 d0bd 2bb2 f7bd 9ba0 6abe 996b 94be
00000180: 65b4 04be 9bb1 9dbd 11c0 253e 33c3 3dbe
00000190: 93e1 a7bd 30af c83d 423d 013e 2fbd 523d
000001a0: b4d2 143e 9d08 56bd 458e 3f3e e59b 83bb
000001b0: 63b1 8bbc b011 4a3c e782 0c3d fd2e 4fbe
000001c0: 9294 8fbd b83a fc3e bdf6 0bb9 303a 0e3e
000001d0: 895e 0cbc daf5 f13c f69b 863e 6332 cd3d
000001e0: 02d5 1f3e eeda 9c3d 7ce6 323e 4252 50bd
000001f0: 3e06 1b3d 268a 49be 9b26 eb3d 4f31 7e3c
00000200: 9688 cfbe f306 11be 5dcc f03d 355a b23d
00000210: aaef ab3e 6fe6 31be 7816 903c 0b3a c4bd
00000220: d926 91be 54f8 e4be 15cc 193c b21b 2cbd
00000230: b661 d9bd 3b2d 8cbd 25c0 89bd 87d8 dc3d
00000240: b212 3a3d 57eb 22bd ad83 203d 467b 8c3d
00000250: 5485 c5bd 3359 123e dcb7 4dbd c544 09be
00000260: 64bb 413e 603d 9fbe 5c05 88be 917c 01be
00000270: 8361 f0bd 32f2 9fbe 636f 70be d9e8 bf3c
00000280: 4f13 54bc 188a 153e 4b18 823d e5c7 93be
00000290: 682b 233e 8b4d 09be dc6c 013b d395 9abd
000002a0: e71a 35be 796f 3fbe 81e2 19be fb9b 3ebe
000002b0: e8c1 d83d b2f1 fc3d abfc 77be 36df 51bd
000002c0: 8f87 843e 815e 3cbc 2058 953e 9543 a53d
000002d0: b540 5b3e 14e0 033e dda6 013d 3c22 60bd
000002e0: 86d2 8f3c 94f6 a6bd 81b5 093e 5561 7abc
000002f0: ff46 1d3e b087 8abc f229 a33e bf86 9f3d
00000300: 3d3e 04be b1b5 89be 03f4 ffbd 5a91 6dbc
00000310: 0bb1 70bd e61d 1ebd 9b93 823d a437 0cbe
00000320: 04c0 d6ba 59c4 623e e76b fd3d 1fa5 62bd
00000330: 018d 80be 3997 b9be 9356 40be c00e 24be
00000340: 78f0 debd f756 aebe 90fc 51be 2b4f 0fbe
00000350: 7121 6d3d 67b8 e1bd a81d 70bd 349d 3dbe
00000360: aec2 35be 9360 84bd fbc9 533e 2f69 38be
00000370: a4e7 e7bd d52b 373e 4684 d1bc cf1f 9e39
00000380: f408 643e 5733 503c a3d8 f3b8 0c18 fd3d
00000390: 8596 713c 0a2f 96bd ccfc 4cbe 5a57 a13d
000003a0: 2726 3b3e 6b36 5b3e 3146 063e 8dff 333e
000003b0: a6e1 bf3d f51a 3fbd 48be 38bd b3c3 033d
000003c0: 4424 cbbd fecc 7f3d c64b ff3c 420a 373e
000003d0: 64b9 19bd 09a2 973d 561b a1bd 182d e5bd
000003e0: 1600 2c3e f8f6 563c 92d9 953d f1a7 c53d
000003f0: 7ceb b73d fb09 78be 2a84 5aba d95c aa3e

bias f4 [16]
-0.11004582 -0.048756327 -0.07323804 -0.018478917 0.02339565 0.0062733986 -0.054768525 -0.06282824
-0.014185881 -0.061103266 0.00023606217 0.04506887 0.12785202 -0.11875044 -0.029050462 0.05764185
00000000: b45f e1bd b7b4 47bd d3fd 95bd 1961 97bc
00000010: 3ca8 bf3c 1591 cd3b f654 60bd 18ac 80bd
00000020: e66b 68bc 6b47 7abd 7587 7739 239a 383d
00000030: a4eb 023e 6e33 f3bd 3cfb edbc dc19 6c3d

weight f4 [16]
1.101853 1.0414107 1.0059383 1.0211333 1.0663121 0.95234126 0.8909089 1.0201491
0.9673091 0.9173488 0.8910903 0.96206385 1.0067883 1.170101 0.90027165 0.8147599
00000000: 8509 8d3f f24c 853f 96c2 803f 7fb4 823f
00000010: ea7c 883f a3cc 733f 9b12 643f 3f94 823f
00000020: 92a1 773f 5fd7 6a3f 7e1e 643f d149 763f
00000030: 70de 803f dfc5 953f 3478 663f 1b94 503f

bias f4 [16]
0.013200296 0.06915774 -0.12524508 0.16666551 -0.07767215 0.06200927 0.07409961 -0.23416264
-0.01636213 -0.19591329 0.09730962 -0.068987355 0.16206375 -0.050952792 -0.24517877 -0.26016238
00000000: 0e46 583c 93a2 8d3d 3f40 00be 5daa 2a3e
00000010: 9412 9fbd 6ffd 7d3d 89c1 973d 55c8 6fbe
00000020: e009 86bc 7e9d 48be 444a c73d 3e49 8dbd
00000030: 0af4 253e e0b3 50bd 2510 7bbe 0134 85be

running_mean f4 [16]
0.31979933 0.41232142 0.3981585 1.0182372 0.68031836 0.51909137 1.0096489 0.42043197
0.6161253 0.404955 0.3886223 1.0861166 0.73525673 0.6800402 0.49098235 0.6124657
00000000: bdbc a33e cb1b d33e 6edb cb3e 9955 823f
00000010: 5829 2e3f 2ce3 043f 2d3c 813f dc42 d73e
00000020: 63ba 1d3f 4356 cf3e 81f9 c63e de05 8b3f
00000030: c939 3c3f 1d17 2e3f 0a62 fb3e 8dca 1c3f

running_var f4 [16]
0.34213442 0.43468592 0.333825 2.0338032 2.4321733 0.5147816 1.995675 0.378515
0.8923187 0.3409929 0.5202753 0.92124176 1.3887209 1.0425314 1.5215755 0.4914216
00000000: 3e2c af3e 278f de3e 1ceb aa3e d529 0240
00000010: baa8 1b40 bac8 033f 4772 ff3f b8cc c13e
00000020: 006f 643f 9f96 ae3e c330 053f 80d6 6b3f
00000030: 9bc1 b13f ab71 853f fcc2 c23f 9d9b fb3e

weight f4 [32, 16, 3, 3]
0.039202347 -0.15653983 0.1300393 0.27019566 0.31013635 0.02865481 -0.03972042 -0.09447294
0.0065301396 0.07672744 -0.0025078477 0.0968752 0.12687217 0.06994853 0.025096256 -0.044026412
0.1628543 -0.13693891 -0.09927605 0.022115994 -0.14390086 0.048955552 -0.04312021 0.26215494
0.085158564 -0.021777552 0.081506655 0.03780045 0.1398431 0.11850017 -0.2077156 -0.03324397
0.14707138 -0.16757071 0.036990486 0.02870738 0.053036686 0.24256103 0.065415755 -0.34439793
-0.27322662 -0.20640391 -0.10260119 0.022460628 -0.1671871 -0.082967564 0.0111162 -0.045231692
0.10814111 0.050944585 0.014351228 -0.07053867 0.07673704 -0.019836105 0.006459123 0.16420679
0.07088357 -0.017595284 0.0099277785 0.023314314 -0.13525042 -0.0028897799 -0.096778296 -0.110208146
-0.23217326 0.029431902 -0.08200022 0.038411338 -0.16248932 0.1800149 0.17440535 0.18525562
-0.07772312 -0.1541185 -0.044085123 -0.049246136 -0.24305487 -0.060790554 0.14153504 -0.0430491
-0.08613965 0.21865277 0.025229653 0.17119078 0.12737799 -0.09713921 0.045096338 -0.00844725
0.0032697914 0.1193249 0.063689575 -0.05179091 -0.1673365 0.057111148 0.06903243 0.030359218
0.19845167 -0.120520234 0.028242875 -0.15673251 0.027278228 0.03514366 0.17599435 -0.13369918
-0.1196113 0.06909359 -0.029813293 0.25138754 0.001171327 0.08411296 -0.005006039 -0.15254147
-0.09974558 0.13373199 -0.06425817 -0.040398564 -0.13963391 -0.047803666 -0.073004685 0.07349566
-0.3277966 -0.46530497 -0.10418262 -0.2685021 0.24390964 -0.09224934 0.1157652 -0.02547705
0.019123891 -0.24870501 -0.23872536 -0.11176144 -0.01750882 0.11154808 -0.097838074 0.02458566
-0.047333848 -0.017293993 -0.10499438 -0.05347822 0.08761429 -0.047966316 -0.078941114 -0.18318915
-0.32710916 -0.17219876 -0.31787866 0.06755847 0.033708364 0.0905603 -0.06983252 -0.1011083
-0.1167411 -0.11626998 -0.30441344 -0.23065504 0.040298417 0.061765328 0.15099892 0.03958862
-0.14479744 -0.17012541 0.1533751 0.16225763 0.07700643 0.03763967 0.062734045 0.029867314
-0.065659426 -0.028453864 0.1606698 -0.0036340493 0.024771636 -0.10785209 0.03115922 0.13851994
-0.015619438 0.08954743 -0.12105899 0.057713095 0.095444754 0.010120909 0.16834174 0.032011446
-0.005150537 -0.20583043 0.105327226 0.13551982 -0.10268979 -0.057273507 -0.18495092 0.008668103
0.027861888 0.24738948 -0.04542539 -0.10608994 -0.081280276 0.20532964 -0.059016254 0.032803584
-0.005718486 -0.05399499 -0.006714088 0.055098645 -0.12982687 0.009009771 -0.104525045 -0.08666246
-0.103403345 -0.047439873 0.10326192 0.035723776 0.015313431 0.10513827 0.0069973017 0.06906672
-0.18748142 -0.109385595 0.12363285 -0.082095005 -0.15679976 -0.18476552 -0.03295735 -0.011759544
-0.09340011 0.054274913 -0.05868122 -0.08394437 0.14065048 0.025855245 -0.055000056 -0.1291233
0.060869526 0.050674018 -0.108067684 -0.051763598 0.08481721 -0.010939718 -0.22791679 0.07044705
-0.0692737 -0.05230382 0.04233168 -0.11493083 0.10289816 -0.021729557 -0.06104332 0.017580729
-0.123244986 -0.15344955 0.04485773 0.04730047 -0.020365365 -0.12480577 -0.23475851 0.11111089
00000000: a492 203d fa4b 20be 0629 053e 1657 8a3e
00000010: 31ca 9e3e 7ebd ea3c e1b1 22bd 077b c1bd
00000020: c8fa d53b 4723 9d3d b45a 24bb 8166 c63d
00000030: c7ea 013e 2d41 8f3d aa96 cd3c 0a55 34bd
00000040: 47c3 263e b739 0cbe 3e51 cbbd 9a2c b53c
00000050: bf5a 13be 9e85 483d d19e 30bd 2c39 863e
00000060: 9d67 ae3d d666 b2bc f6ec a63d a5d4 1a3d
00000070: 0833 0f3e 38b0 f23d 66b3 54be d42a 08bd
00000080: e199 163e a897 2bbe 5683 173d bd2b eb3c
00000090: ff3c 593d eb61 783e b2f8 853d ed54 b0be
000000a0: 5ce4 8bbe 8c5b 53be 9320 d2bd 5aff b73c
000000b0: 1833 2bbe e6ea a9bd b920 363c de44 39bd
000000c0: 1679 dd3d 45ab 503d 6a21 6b3c 9476 90bd
000000d0: 4f28 9d3d 547f a2bc 0da7 d33b d325 283e
000000e0: 682b 913d fc23 90bc 1fa8 223c a9fd be3c
000000f0: 167f 0abe 7662 3dbb b333 c6bd cfb4 e1bd
00000100: d4be 6dbe 2c1b f13c bbef a7bd 3555 1d3d
00000110: 9a63 26be d355 383e 5197 323e a6b3 3d3e
00000120: 4d2d 9fbd 3dd1 1dbe 9a92 34bd 51b6 49bd
00000130: 60e3 78be 84ff 78bd 90ee 103e 4154 30bd
00000140: fc69 b0bd 83e6 5f3e 6bae ce3c a34c 2f3e
00000150: 606f 023e ecf0 c6bd f0b6 383d 5666 0abc
00000160: ff49 563b 9d60 f43d ae6f 823d b522 54bd
00000170: 425a 2bbe 61ed 693d e060 8d3d e5b3 f83c
00000180: ea36 4b3e 50d3 f6bd 9a5d e73c 7d7e 20be
00000190: 9776 df3c ccf2 0f3d dd37 343e 70e8 08be
000001a0: c5f6 f4bd f180 8d3d 023b f4bc deb5 803e
000001b0: 3687 993a 6a43 ac3d b309 a4bb d533 1cbe
000001c0: 6947 ccbd 0af1 083e ca99 83bd f778 25bd
000001d0: 31fc 0ebe c7cd 43bd 7b83 95bd e584 963d
000001e0: f5d4 a7be 743c eebe b35d d5bd 1b79 89be
000001f0: 73c3 793e 39ed bcbd 4e16 ed3d 3fb5 d0bc
00000200: b5a9 9c3c 87ac 7ebe 6c74 74be 2fe3 e4bd
00000210: a86e 8fbc 5273 e43d 545f c8bd de67 c93c
00000220: 23e1 41bd 22ac 8dbc 4b07 d7bd fa0b 5bbd
00000230: 1f6f b33d 5478 44bd e1ab a1bd f095 3bbe
00000240: da7a a7be df54 30be fec0 a2be 185c 8a3d
00000250: c811 0a3d ae77 b93d 5a04 8fbd de11 cfbd
00000260: f515 efbd f51e eebd 14dc 9bbe d630 6cbe
00000270: f40f 253d a4fd 7c3d 769f 1a3e ad27 223d
00000280: c845 14be 5b35 2ebe 5d0e 1d3e dd26 263e
00000290: 8cb5 9d3d 0e2c 1a3d b57a 803d 4cac f43c
000002a0: 7378 86bd 1418 e9bc a086 243e 3b29 6ebb
000002b0: e3ed ca3c 8ee1 dcbd 9f41 ff3c 2cd8 0d3e
000002c0: ace8 7fbc a564 b73d c7ed f7bd 9164 6c3d
000002d0: 8a78 c33d 2bd2 253c c761 2c3e 6f1e 033d
000002e0: d6c5 a8bb 36c5 52be cdb5 d73d b5c5 0a3e
000002f0: 064f d2bd a097 6abd c663 3dbe a904 0e3c
00000300: 9d3e e43c ab53 7d3e f90f 3abd af45 d9bd
00000310: 4676 a6bd ef41 523e 07bb 71bd 0d5d 063d
00000320: 2362 bbbb da29 5dbd da01 dcbb 1eaf 613d
00000330: 56f1 04be b89d 133c 3a11 d6bd 167c b1bd
00000340: 22c5 d3bd 5050 42bd fc7a d33d 1853 123d
00000350: 2fe5 7a3c bc52 d73d 9f49 e53b da72 8d3d
00000360: 21fb 3fbe 8e05 e0bd 3833 fd3d 6d21 a8bd
00000370: 1e90 20be 2c33 3dbe 49fe 06bd 1aab 40bc
00000380: 8f48 bfbd 5f4f 5e3d b85b 70bd 07eb abbd
00000390: ae06 103e 61ce d33c bd47 61bd e638 04be
000003a0: 5352 793d 8f8f 4f3d 9752 ddbd 1106 54bd
000003b0: a5b4 ad3d 813c 33bc 0563 69be 8b46 903d
000003c0: 5fdf 8dbd 883c 56bd fc63 2d3d db60 ebbd
000003d0: 45bc d23d 2f02 b2bc 8f08 7abd 7605 903c
000003e0: de67 fcbd e121 1dbe bdbc 373d 23be 413d
000003f0: 44d5 a6bc 2b9a ffbd 8964 70be 1b8e e33d

bias f4 [32]
-0.0022699444 -0.21149631 -0.09476193 0.04031429 0.0016124226 0.009938547 -0.06432319 0.074427254
-0.07409338 -0.06138054 -0.068834856 -0.15429716 -0.063052714 -0.21309207 -0.21114141 -0.07118758
-0.112296805 -0.13570121 -0.29389867 -0.073042475 -0.07748569 -0.14020754 -0.14722669 -0.03876167
-0.09463153 -0.16254872 -0.079357095 -0.13199323 -0.19364808 -0.12520057 -0.14886348 -0.16968852
00000000: 59c3 14bb 7d92 58be 8b12 c2bd 9920 253d
00000010: ed57 d33a 4ad5 223c e0bb 83bd 516d 983d
00000020: 45be 97bd 296a 7bbd 4af9 8cbd 1300 1ebe
00000030: c821 81bd cf34 5abe 7435 58be cbca 91bd
00000040: defb e5bd 42f5 0abe e379 96be 4b97 95bd
00000050: d1b0 9ebd 9192 0fbe 98c2 16be 8fc4 1ebd
00000060: 2dce c1bd 2c73 26be f985 a2bd 3c29 07be
00000070: af4b 46be 9434 00be ab6f 18be d4c2 2dbe

weight f4 [32]
1.0653021 1.1022657 0.9989013 0.88899416 0.9047278 0.8527104 0.98305917 1.067262
0.9247461 0.88715154 0.9272736 1.0089513 1.0349481 1.0086601 1.0672427 1.0310488
1.0509872 0.8984868 1.0850005 0.99102485 0.9760235 0.9195643 1.1306257 1.0369184
0.9975665 0.9233516 0.9518718 1.097243 0.9983606 0.92079234 0.9945495 0.9786538
00000000: d25b 883f 0b17 8d3f ffb7 7f3f 1f95 633f
00000010: 3e9c 673f 3b4b 5a3f c4a9 7b3f 0b9c 883f
00000020: 29bc 6c3f 5d1c 633f cd61 6d3f 5125 813f
00000030: 2e79 843f c61b 813f 699b 883f 68f9 833f
00000040: c086 863f 3b03 663f 4ce1 8a3f ceb3 7d3f
00000050: addc 793f 9168 6b3f 58b8 903f beb9 843f
00000060: 8560 7f3f c560 6c3f dfad 733f 7572 8c3f
00000070: 8f94 7f3f 0cb9 6b3f cc9a 7e3f 0e89 7a3f

bias f4 [32]
0.13326018 0.11544817 0.0024749744 0.11397204 0.17822719 0.03504689 0.1167578 0.050040312
0.19800083 0.002738615 -0.23605761 0.19469126 -0.04265749 0.048897624 -0.0049187345 -0.05412435
-0.03353392 0.04328877 -0.0009664409 -0.094251 -0.06187334 0.091001995 0.072348826 -0.17637295
0.11716628 0.049087513 0.07088863 -0.09863882 0.107588395 0.10082923 0.088917114 -0.095074445
00000000: 5b75 083e 1770 ec3d 2e33 223b 2c6a e93d
00000010: 3081 363e 548d 0f3d b71e ef3d 12f7 4c3d
00000020: bbc0 4a3e 567a 333b 16b9 71be 255d 473e
00000030: 9fb9 2ebd e048 483d 562d a1bb 7fb1 5dbd
00000040: dd5a 09bd 914f 313d c058 7dba ab06 c1bd
00000050: e66e 7dbd 415f ba3d 9f2b 943d 1c9b 34be
00000060: e0f4 ef3d fd0f 493d 0f2e 913d 2603 cabd
00000070: 4e57 dc3d 8e7f ce3d 2d1a b63d 64b6 c2bd

running_mean f4 [32]
0.8305186 0.38960418 0.6708014 1.352309 0.6729834 0.93755335 0.4639126 0.66091365
0.42460966 0.615246 0.4829473 0.5000253 0.70694655 0.28277296 0.23983702 0.8169665
0.29918677 0.5412859 0.4767824 0.48230627 0.47100738 0.58692646 0.3305607 0.46859187
0.5231746 0.3411786 0.64490694 0.3418098 0.4826595 0.39698285 0.6782523 0.32278487
00000000: de9c 543f 337a c73e a4b9 2b3f 7618 ad3f
00000010: a448 2c3f 7f03 703f f485 ed3e a331 293f
00000020: 7066 d93e c380 1d3f de44 f73e a801 003f
00000030: 73fa 343f 9ec7 903e d697 753e b724 513f
00000040: 022f 993e b691 0a3f d31c f43e d9f0 f63e
00000050: e127 f13e d040 163f 413f a93e 46eb ef3e
00000060: c5ee 053f f6ae ae3e 9f18 253f b201 af3e
00000070: 251f f73e 5641 cb3e f1a1 2d3f 0f44 a53e

running_var f4 [32]
1.1278572 0.61797696 1.903625 2.5796902 0.8093128 1.0407722 0.8632142 0.98883677
0.7895626 1.0300086 1.0409114 1.374488 1.1444693 0.5389832 0.38426358 1.0814812
0.3829644 1.0613172 0.7684491 0.6373603 0.7429339 1.0844619 0.4417263 0.48276314
0.9796607 0.4624296 0.9237443 0.40222713 0.59676117 0.6068554 0.92620164 0.42171082
00000000: a05d 903f bd33 1e3f fca9 f33f a519 2540
00000010: 202f 4f3f 0638 853f 9bfb 5c3f 6824 7d3f
00000020: c620 4a3f 52d7 833f 963c 853f 39ef af3f
00000030: f87d 923f cefa 093f 32be c43e fa6d 8a3f
00000040: e913 c43e 3ed9 873f 15b9 443f 0b2a 233f
00000050: eb30 3e3f a6cf 8a3f f329 e23e bb2c f73e
00000060: 0bcb 7a3f 93c3 ec3e 827a 6c3f b7f0 cd3e
00000070: 57c5 183f e05a 1b3f 8d1b 6d3f 7bea d73e

weight f4 [64, 32, 3, 3]
0.059273362 0.02011612 0.008419988 -0.26477793 -0.13459134 -0.14008278 0.0013577014 0.083465405
0.069369525 0.020811861 0.14839357 0.020400995 0.13893183 -0.055959176 0.16182803 0.015809441
-0.006765777 0.17329164 -0.041874986 -0.040514678 0.019209078 -0.046519935 -0.08122701 -0.07537007
-0.2025627 -0.10409902 0.11097619 0.051516388 0.013028309 -0.0053015556 -0.21482448 -0.11176206
-0.14937632 -0.21014223 0.027672796 -0.058700237 0.046325117 0.13532339 -0.006935063 -0.07449583
-0.027427193 -0.106281966 0.06472702 -0.08425581 -0.051739052 -0.07609149 -0.01512242 0.10827366
-0.068622604 -0.02018092 0.13443346 0.0007072422 0.0015687518 0.06188412 -0.08661186 -0.016844759
-0.106158115 0.07321971 0.058109377 0.0054022046 -0.10281636 -0.0037180067 0.03454047 -0.112889916
-0.1459367 -0.011883143 0.047774907 0.07778754 0.09723403 -0.052334666 -0.035847686 -0.09536825
-0.025440486 -0.0042097056 0.032082066 0.010152091 0.054421593 -0.005263678 0.014017039 -0.054009274
0.01066068 -0.058341898 -0.07907691 -0.048655923 0.16382876 0.061123163 0.08592033 -0.10770943
-0.08529306 0.077076375 -0.045969322 -0.06961142 0.050354928 0.00079845224 -0.026912669 0.19809736
-0.05481409 0.15391168 0.119689405 0.013565694 0.080793686 -0.10544258 0.024084542 0.015931562
-0.008668447 0.082451336 0.058208633 0.09311045 0.05734432 -0.0050792666 -0.2013835 -0.09094516
-0.16101664 -0.048378207 -0.00974988 0.012736901 -0.00048909686 -0.029466342 -0.045826 0.0090826005
-0.043758772 0.044312652 0.018176612 0.08850805 0.07634006 -0.19314621 0.046230283 -0.037665427
-0.06908504 -0.020355906 -0.13408954 -0.09426498 0.087317005 0.123835646 -0.0400476 -0.08695945
-0.09132479 -0.1585941 -0.07064366 0.019413546 0.030949377 -0.09994495 -0.08956361 0.0023685966
0.034899637 -0.051495418 -0.006652111 0.13412827 0.12830408 0.12532243 0.034204114 -0.0061675566
-0.006766909 0.04485117 0.09882067 -0.11256351 -0.07363863 -0.112064034 -0.09919849 0.025992855
-0.045362685 -0.121248044 -0.124070846 0.13377845 -0.01782696 -0.19183959 0.019558553 0.020995224
-0.010243258 -0.01787485 -0.112081714 0.012696106 -0.015740773 0.10464232 -0.0704724 0.042057518
-0.10906978 0.07596056 0.06594728 -0.039389465 -0.075066105 0.056131214 0.044949915 0.08236288
0.029738577 0.0476354 -0.07113254 0.030762024 -0.024499439 0.04149983 0.0034436479 0.12769803
0.0030431792 -0.010793636 -0.0052035796 -0.19658823 -0.08071912 -0.09487697 0.12915385 0.03175526
0.165884 -0.2682057 -0.3396927 -0.22448574 0.047166277 0.07453068 0.08457836 -0.023806708
0.039253347 0.027410993 -0.09516805 0.031806093 -0.03547159 0.060785357 -0.017293915 -0.018570662
-0.055402633 -0.04942789 -0.03284447 0.059235983 -0.1516811 0.038131434 -0.08860096 -0.1641652
0.03485358 0.06816704 0.022576371 0.06125425 0.034102917 0.12004313 -0.03053795 0.22298108
0.10936678 0.16085258 0.1326085 -0.01131809 0.09861588 -0.0042452896 0.07233687 0.02034476
0.05508495 -0.040412962 0.08370199 0.04153002 0.071492486 -0.058331244 0.035549037 0.049430314
-0.03362834 -0.0018388699 -0.11816542 -0.08355745 -0.07637715 -0.07742517 -0.046196554 -0.023427388
00000000: a0c8 723d 90ca a43c fdf3 093c f990 87be
00000010: 50d2 09be dc71 0fbe e6f4 b13a e9ef aa3d
00000020: 9c11 8e3d a37d aa3c 7cf4 173e fd1f a73c
00000030: 2544 0e3e 7335 65bd 3fb6 253e cd82 813c
00000040: 73b3 ddbb 5d73 313e 1b85 2bbd b8f2 25bd
00000050: 5b5c 9d3c b08b 3ebd 595a a6bd a05b 9abd
00000060: 996c 4fbe de31 d5bd 7c47 e33d d902 533d
00000070: b074 553c acb8 adbb f3fa 5bbe 82e3 e4bd
00000080: 1bf6 18be 862f 57be 0fb2 e23c a96f 70bd
00000090: 68bf 3d3d 3792 0a3e 863f e3bb 4591 98bd
000000a0: feae e0bc 5caa d9bd 9a8f 843d 4f8e acbd
000000b0: 54ec 53bd dbd5 9bbd 07c4 77bc 95be dd3d
000000c0: 028a 8cbd 7552 a5bc eda8 093e 3866 393a
000000d0: 939e cd3a 347a 7d3d 8f61 b1bd 05fe 89bc
000000e0: 6d69 d9bd 37f4 953d 1904 6e3d fa04 b13b
000000f0: 6291 d2bd cda9 73bb 4f7a 0d3d d432 e7bd
00000100: 6e70 15be 84b1 42bc 9faf 433d 134f 9f3d
00000110: a322 c73d e05c 56bd 06d5 12bd 6e50 c3bd
00000120: 9168 d0bc 92f1 89bb 7c68 033d f554 263c
00000130: 2de9 5e3d ee7a acbb b9a7 653c d438 5dbd
00000140: 22aa 2e3c eaf7 6ebd 13f3 a1bd 6f4b 47bd
00000150: bac2 273e 485c 7a3d fff6 af3d c396 dcbd
00000160: 21ae aebd 38da 9d3d 544a 3cbd 6f90 8ebd
00000170: f840 4e3d 394f 513a f577 dcbc 09da 4a3e
00000180: bd84 60bd 069b 1d3e b81f f53d a542 5e3c
00000190: 2977 a53d 48f2 d7bd f24c c53c e882 823c
000001a0: 1a06 0ebc 3fdc a83d 2d6c 6e3d b1b0 be3d
000001b0: e1e1 6a3d fa6f a6bb 7a37 4ebe 7541 babd
000001c0: 8ce1 24be 3a28 46bd f6bd 1fbc 6fae 503c
000001d0: bc36 00ba 6663 f1bc 0bb4 3bbd 30cf 143c
000001e0: 663c 33bd 2f81 353d 1ee7 943c b543 b53d
000001f0: 2d58 9c3d 1fc8 45be f75b 3d3d 1047 1abd
00000200: 757c 8dbd 6ec1 a6bc c54e 09be ff0d c1bd
00000210: 42d3 b23d 8b9d fd3d f408 24bd cc17 b2bd
00000220: 7e08 bbbd 7e66 22be a0ad 90bd 2809 9f3c
00000230: 8c89 fd3c f0af ccbd 206d b7bd 753a 1b3b
00000240: ecf2 0e3d dcec 52bd f4f9 d9bb ec58 093e
00000250: 2562 033e 8654 003e 9d19 0c3d 3719 cabb
00000260: f2bc ddbb dcb5 373d 7e62 ca3d b387 e6bd
00000270: dacf 96bd d481 e5bd 9428 cbbd f8ee d43c
00000280: 39ce 39bd e550 f8bd db18 febd 38fd 083e
00000290: d809 92bc 9971 44be 4239 a03c 2dfe ab3c
000002a0: 57d3 27bc 476e 92bc 198b e5bd 5403 503c
000002b0: cbf2 80bc b64e d63d d553 90bd 8144 2c3d
000002c0: fa5f dfbd 3691 9b3d 5e0f 873d d956 21bd
000002d0: 42bc 99bd d8e9 653d 671d 383d dfad a83d
000002e0: 519e f33c 561d 433d f0ad 91bd a400 fc3c
000002f0: 0cb3 c8bc bafb 293d d3ae 613b 46c3 023e
00000300: 1370 473b cad7 30bc ca82 aabb 6d4e 49be
00000310: 1150 a5bd db4e c2bd e840 043e ce11 023d
00000320: 7fdd 293e 4252 89be 34ec adbe 97df 65be
00000330: 6d31 413d 8ba3 983d 6b37 ad3d 4906 c3bc
00000340: 1ec8 203d 058d e03c 77e7 c2bd 1b47 023d
00000350: a84a 11bd 11fa 783d f8ab 8dbc 8021 98bc
00000360: dfed 62bd e674 4abd ec87 06bd 6ea1 723d
00000370: 4a52 1bbe b52f 1c3d 6c74 b5bd ec1a 28be
00000380: a1c2 0e3d 299b 8b3d 15f2 b83c bde5 7a3d
00000390: 80af 0b3d 2cd9 f53d b92a fabc 2755 643e
000003a0: b1fb df3d 8ab6 243e 86ca 073e 836f 39bc
000003b0: 1ff7 c93d 121c 8bbb 5a25 943d 0eaa a63c
000003c0: c2a0 613d 1088 25bd f36b ab3d 621b 2a3d
000003d0: a76a 923d beec 6ebd de9b 113d 7177 4a3d
000003e0: dfbd 09bd 3c06 f1ba b600 f2bd 2b20 abbd
000003f0: a06b 9cbd 1691 9ebd 9938 3dbd cbea bfbc

bias f4 [64]
-0.031351727 -0.06047552 0.013872746 -0.17660981 0.10496663 -0.18343605 -0.09173323 0.12699914
-0.06218669 0.03246728 0.062349852 -0.17499225 0.08195327 -0.0045753396 -0.04147206 0.22224772
-0.12628515 -0.045846473 -0.1866166 -0.04633782 -0.123235315 0.105265155 -0.19460069 -0.056949
0.20334515 0.059670776 -0.10548448 0.13255417 -0.016011484 0.23891993 -0.26502353 -0.082848355
-0.188394 0.08665884 0.09255606 0.1251302 -0.07511407 -0.3053429 -0.021885665 -0.005097295
0.07768597 0.039567623 -0.16221158 -0.16967389 0.08910138 -0.121515766 -0.078029856 0.096107304
-0.17303917 -0.043584745 -0.06474449 0.109874934 0.015499623 0.06685918 -0.023271542 0.06952839
-0.09211073 -0.1834727 0.006260438 0.03198089 -0.08035231 -0.020139568 -0.008830567 -0.05359995
00000000: ab6a 00bd 2eb5 77bd 844a 633c 34d9 34be
00000010: bff8 d63d a9d6 3bbe a2de bbbd 100c 023e
00000020: 78b7 7ebd 69fc 043d 8f62 7f3d 2b31 33be
00000030: 1ed7 a73d bbec 95bb 9bde 29bd e894 633e
00000040: e550 01be 83c9 3bbd 6c18 3fbe bacc 3dbd
00000050: cc62 fcbd 4295 d73d 6745 47be 5b43 69bd
00000060: b639 503e 5869 743d 3f08 d8bd 48bc 073e
00000070: 842a 83bc 6da7 743e 2ab1 87be 66ac a9bd
00000080: 5bea 40be 317a b13d 088e bd3d 2222 003e
00000090: 68d5 99bd e855 9cbe 9149 b3bc 3607 a7bb
000000a0: d219 9f3d a911 223d cb1a 26be febe 2dbe
000000b0: c97a b63d 42dd f8bd 1ece 9fbd e8d3 c43d
000000c0: 2e31 31be eb85 32bd c298 84bd 1c06 e13d
000000d0: 21f2 7d3c 77ed 883d f6a3 bebc e764 8e3d
000000e0: 8da4 bcbd 44e0 3bbe 5c24 cd3b 65fe 023d
000000f0: c08f a4bd bcfb a4bc 15ae 10bc 9f8b 5bbd

weight f4 [64]
1.5878732 1.489077 1.3577867 1.5457567 1.5315913 1.5551895 1.5878596 1.6216108
1.644251 1.4510292 1.4508624 1.591506 1.585219 1.6185176 1.569418 1.5862099
1.6629051 1.4862213 1.5406433 1.6740351 1.5172602 1.6338352 1.4858948 1.7169973
1.4754863 1.4914923 1.4398657 1.7180488 1.5017471 1.6810826 1.6723228 1.5212456
1.4464017 1.4926881 1.4748055 1.4707245 1.6693854 1.6947036 1.6152698 1.3441666
1.5308087 1.4066666 1.670058 1.5941815 1.6222601 1.6808791 1.5136935 1.5798419
1.5554467 1.7076012 1.5702585 1.4690872 1.5514045 1.5046976 1.5929707 1.4969957
1.620153 1.6202989 1.5564239 1.5171385 1.4797307 1.7374287 1.8538033 1.5694854
00000000: 6e3f cb3f 139a be3f f4cb ad3f 5bdb c53f
00000010: 2f0b c43f 7310 c73f fc3e cb3f f190 cf3f
00000020: d176 d23f 53bb b93f dcb5 b93f 78b6 cb3f
00000030: 75e8 ca3f 962b cf3f b0e2 c83f ed08 cb3f
00000040: 13da d43f 803c be3f cd33 c53f c846 d63f
00000050: 9535 c23f 8321 d13f cd31 be3f 91c6 db3f
00000060: bcdc bc3f 38e9 be3f 854d b83f 06e9 db3f
00000070: 4039 c03f b72d d73f ac0e d63f 2db8 c23f
00000080: b123 b93f 6710 bf3f 6dc6 bc3f b340 bc3f
00000090: 6cae d53f 0cec d83f 29c1 ce3f a70d ac3f
000000a0: 8af1 c33f a70d b43f 76c4 d53f 240e cc3f
000000b0: 38a6 cf3f 0c27 d73f b5c0 c13f 4238 ca3f
000000c0: e118 c73f ad92 da3f 3bfe c83f 0d0b bc3f
000000d0: 6c94 c63f ee99 c03f 77e6 cb3f 8e9d bf3f
000000e0: 2c61 cf3f f465 cf3f e638 c73f 9831 c23f
000000f0: d167 bd3f 1064 de3f 6d49 ed3f e6e4 c83f

bias f4 [64]
-0.08384056 0.010451534 -0.1788276 -0.03759207 0.03204119 -0.044035375 -0.098764904 -0.013034493
0.0018415429 0.04691685 -0.045969237 0.053905297 0.08318354 -0.067046925 -0.11329671 0.12478451
0.059715502 -0.09427135 0.17486247 -0.10305985 -0.04862449 0.14856067 -0.08020415 -0.08245784
0.0930629 -0.1687327 -0.14498493 0.11967353 -0.13033006 0.14971642 0.118994676 -0.017337617
-0.05410458 -0.07267986 -0.08263689 -0.20018998 0.14710721 -0.14824982 0.07785946 0.022940764
0.098302945 0.06508531 -0.10414992 -0.05855081 -0.09099132 -0.09477846 -0.0084448755 0.091242425
0.07274591 0.09867102 -0.03113791 -0.16425739 -0.049913727 -0.12850578 0.08945404 0.03873971
0.030054973 -0.009636447 0.031004833 -0.0676299 0.018631587 0.021395909 -0.12101137 0.1630902
00000000: 99b4 abbd e93c 2b3c 951e 37be 24fa 19bd
00000010: 9f3d 033d 705e 34bd 4145 cabd a08e 55bc
00000020: ed5f f13a e22b 403d 3d4a 3cbd cdcb 5c3d
00000030: 225c aa3d e64f 89bd 1b08 e8bd 058f ff3d
00000040: 3e98 743d 5611 c1bd 260f 333e 0b11 d3bd
00000050: 792a 47bd 4a20 183e 1342 a4bd a8df a8bd
00000060: c397 be3d 44c8 2cbe ee76 14be 6517 f53d
00000070: 3e75 05be 434f 193e 7bb3 f33d 9e07 8ebc
00000080: c49c 5dbd 2ed9 94bd 883d a9bd 9afe 4cbe
00000090: 46a3 163e cdce 17be c874 9f3d 45ee bb3c
000000a0: 0e53 c93d 724b 853d 8e4c d5bd f9d2 6fbd
000000b0: a859 babd 361b c2bd 605c 0abc 4fdd ba3d
000000c0: cffb 943d 0814 ca3d ee14 ffbc 1733 28be
000000d0: 5672 4cbd 0597 03be ae33 b73d 88ad 1e3d
000000e0: d935 f63c 30e2 1dbc d9fd fd3c 8c81 8abd
000000f0: 45a1 983c 7946 af3c cfd4 f7bd 1e01 273e

running_mean f4 [64]
0.540669 0.6289777 0.507954 0.49777582 0.9733787 0.52601004 0.41200614 0.51952237
0.52801275 0.42952982 0.9906488 0.2950549 0.70271236 0.47483543 0.40334344 1.1934173
0.5571523 0.78472346 0.38229147 0.66351604 0.34686527 0.9114107 0.1415637 0.40591472
1.1418352 0.44934946 0.32710555 1.016345 0.4975252 1.1526983 0.36833256 0.49435964
0.34391925 0.615646 0.8656785 0.7030634 0.90053254 0.3261779 0.5110639 0.96005917
1.0207152 0.59811425 0.4417064 0.28537178 0.63531077 0.30156332 0.5206291 0.6569959
0.7271416 0.5255401 0.45808306 0.76430106 0.567424 0.55349916 0.5884019 0.7783976
0.71036905 0.41397148 0.63352907 0.47320372 0.47556606 0.42688018 0.3349005 0.71897525
00000000: 4969 0a3f af04 213f 4609 023f 79dc fe3e
00000010: 592f 793f 98a8 063f 78f2 d23e 6bff 043f
00000020: d82b 073f 55eb db3e 299b 7d3f 7011 973e
00000030: f5e4 333f a11d f33e 0883 ce3e e6c1 983f
00000040: 88a1 0e3f a3e3 483f b5bb c33e 30dc 293f
00000050: 5398 b13e 3652 693f 13f6 103e 0ed4 cf3e
00000060: a827 923f 2211 e63e 617a a73e 9817 823f
00000070: 9fbb fe3e 9e8b 933f 1696 bc3e b51c fd3e
00000080: 2f16 b03e fa9a 1d3f 1b9d 5d3f f7fb 333f
00000090: 4d89 663f ca00 a73e 15d5 023f 70c6 753f
000000a0: cca6 823f 041e 193f 5727 e23e 401c 923e
000000b0: baa3 223f 8266 9a3e f347 053f e230 283f
000000c0: f425 3a3f cc89 063f dd89 ea3e 3ca9 433f
000000d0: b342 113f 1fb2 0d3f 82a1 163f 1145 473f
000000e0: bfda 353f 12f4 d33e f62e 223f c247 f23e
000000f0: 657d f33e 0a90 da3e 1478 ab3e c30e 383f

running_var f4 [64]
0.78768075 1.2000501 0.95441526 1.3660069 1.3680611 0.92570305 0.99148154 0.6562649
0.85070693 0.5775068 1.2422599 0.52834827 1.1319888 0.6066729 0.61114025 1.1020033
0.86836773 2.321696 0.5205535 0.94599503 0.53217137 0.8986215 0.22697113 0.64396423
1.2891488 0.8527533 0.5796321 1.4816859 0.8531158 1.3981285 0.5500991 0.6486299
0.6008695 0.85918146 0.96771276 1.6289418 0.8889601 0.60032237 0.7655071 1.7331405
0.93275857 0.92946094 0.65423644 0.3304533 1.3435996 0.49324664 0.8106055 0.93769145
0.96031517 0.8593412 0.8040035 1.7358764 1.3306679 1.0683715 1.0625516 0.8805991
0.8963817 0.808371 0.7024408 0.7441692 0.72074175 0.5122609 0.55122644 0.90654784
00000000: 72a5 493f 3e9b 993f 8f54 743f 50d9 ae3f
00000010: a01c af3f e0fa 6c3f bcd1 7d3f fa00 283f
00000020: eec7 593f 7cd7 133f 5f02 9f3f d541 073f
00000030: 02e5 903f ea4e 1b3f b073 1c3f 720e 8d3f
00000040: 594d 5e3f ab96 1440 ff42 053f bb2c 723f
00000050: 623c 083f 0f0c 663f 1f6b 683e d7da 243f
00000060: d402 a53f 0a4e 5a3f c562 143f e2a7 bd3f
00000070: cc65 5a3f e0f5 b23f 4bd3 0c3f 9c0c 263f
00000080: 95d2 193f 51f3 5b3f 06bc 773f 2a81 d03f
00000090: e492 633f baae 193f 46f8 433f 8cd7 dd3f
000000a0: 44c9 6e3f 27f1 6d3f 0a7c 273f 2d31 a93e
000000b0: 12fb ab3f d38a fc3e d883 4f3f 8c0c 703f
000000c0: 37d7 753f c9fd 5b3f 2cd3 4d3f 3331 de3f
000000d0: 5353 aa3f 66c0 883f b101 883f f16e 613f
000000e0: 4579 653f 67f1 4e3f 29d3 333f df81 3e3f
000000f0: 8882 383f 8823 033f 2d1d 0d3f 8513 683f

weight f4 [9, 64]
-0.07516837 0.012031359 -0.178388 -0.34834734 -0.22900248 0.18143943 -0.3213295 -0.18693359
0.3276278 0.34134328 -0.19935073 -0.28470382 0.149487 -0.25237358 0.3764464 0.16616318
-0.2842576 -0.12084476 0.27831873 -0.08075105 0.0061578886 -0.044608 -0.16385199 -0.21485831
-0.38026312 -0.2616544 -0.23600008 -0.15663101 -0.17971434 -0.31913674 0.43208188 -0.07711916
0.061150916 0.0011947509 -0.21898654 -0.020351075 0.16113414 -0.040823434 -0.1699152 0.0061898646
0.1484869 -0.1781909 0.2981639 -0.27496192 0.17635587 0.23701017 0.23259403 -0.02566741
0.25409657 -0.09927112 0.4011921 0.112235144 0.28830636 0.28546953 0.34796223 -0.2775099
-0.13768981 -0.13346916 -0.2179961 0.3699865 -0.38018253 -0.30452198 0.016455662 -0.17520902
0.29984707 0.26237306 -0.32109854 -0.042481516 -0.27423105 -0.2749849 0.29348382 -0.38265398
0.18362959 -0.00022020336 -0.25316584 0.09701215 0.2102584 0.42628425 0.06993557 0.18923442
0.32738838 -0.17288828 0.26835722 0.3470702 -0.19580044 -0.4427053 -0.28331965 0.40359148
0.111061364 0.00040365825 -0.16748734 -0.4872525 0.28078946 0.29621768 -0.006181549 -0.40890962
-0.01561173 0.090055496 -0.35294348 0.020741962 0.0502792 -0.14638989 0.37985876 -0.23627473
-0.10775998 -0.12058843 -0.26473707 -0.11028082 -0.048750885 0.21763547 -0.21127346 0.2875168
0.2842657 0.37563074 0.09366199 -0.2572313 -0.0913097 -0.13744348 0.09400276 -0.1974399
-0.45949706 0.35336173 0.08275081 -0.28016502 0.26369995 -0.23498307 -0.2404763 0.03569484
-0.36906162 -0.121754944 -0.00982798 -0.09922459 0.00950433 0.25580353 -0.24635734 -0.06022736
-0.2580916 -0.24888563 0.24508658 0.3586241 -0.2884963 -0.23119836 0.11770359 0.06978155
0.12965211 -0.17976704 -0.18192375 -0.12868634 0.3371704 0.19823454 0.37817305 -0.2760022
0.10091165 -0.030995041 -0.15137714 0.28325912 -0.102467924 -0.13833718 0.27410895 0.052442797
0.02140838 -0.00063759135 0.240246 -0.26192576 0.29568648 -0.045294523 -0.5083511 -0.2544378
-0.25146285 0.16650285 0.1639627 0.2877902 -0.20359838 -0.41204354 -0.5184741 -0.328652
0.029719595 0.10929583 -0.25934377 -0.046133023 -0.23648115 -0.27968407 -0.32325226 -0.055659093
0.122875005 -0.082086265 -0.23568432 -0.044558473 0.20987189 -0.3560226 0.034240194 -0.06930759
-0.16255546 -0.15773863 -0.07899488 -0.2066237 0.17028923 -0.06166223 -0.057763726 0.20954083
-0.40325058 -0.021052303 0.05393424 -0.3858931 -0.032092527 -0.18018006 -0.39973912 0.25946534
-0.15094733 -0.30245975 0.2417909 0.18090928 0.10686773 0.35819903 -0.056112893 -0.27217564
-0.02078436 0.05350076 -0.21904787 0.322815 -0.15774572 0.19083478 -0.22885224 0.20381875
0.3137572 -0.27887645 0.08908849 -0.19976667 -0.07597605 0.0052580293 0.15535909 -0.165492
0.40527746 -0.27791077 -0.24415445 0.05066037 -0.09968897 -0.45884895 0.0455643 -0.20671274
-0.11126662 -0.13267966 -0.18007495 -0.25182736 -0.23251502 -0.15280403 -0.031370845 0.12593384
0.35423803 0.056717187 0.19022098 -0.30979767 -0.2455537 0.3788308 -0.38803828 0.16887021
00000000: e0f1 99bd 2d1f 453c 58ab 36be 955a b2be
00000010: a07f 6abe 42cb 393e 4d85 a4be 856b 3fbe
00000020: d5be a73e 8cc4 ae3e 9922 4cbe b3c4 91be
00000030: 1f13 193e 1c37 81be 95bd c03e ae26 2a3e
00000040: 368a 91be 757d f7bd cb7f 8e3e ce60 a5bd
00000050: 1dc8 c93b e1b6 36bd d1c8 27be d103 5cbe
00000060: d9b1 c2be 91f7 85be 01aa 71be e163 20be
00000070: 0907 38be e465 a3be d639 dd3e a6f0 9dbd
00000080: 6279 7a3d 3099 9c3a 023e 60be 4cb7 a6bc
00000090: 5900 253e 7936 27bd 40fe 2dbe 59d4 ca3b
000000a0: f30c 183e ad77 36be f0a8 983e cfc7 8cbe
000000b0: a296 343e cbb2 723e 212d 6e3e 7644 d2bc
000000c0: f218 823e a84e cbbd 0d69 cd3e 8adb e53d
000000d0: e49c 933e 1029 923e 1b28 b23e c715 8ebe
000000e0: 8ffe 0cbe 24ac 08be 5f3a 5fbe df6e bd3e
000000f0: 49a7 c2be 4eea 9bbe 06ce 863c fe69 33be
00000100: 8e85 993e c355 863e 0767 a4be 1901 2ebd
00000110: 0368 8cbe d2ca 8cbe 8343 963e 39eb c3be
00000120: 6509 3c3e 64e6 66b9 f49e 81be 4eae c63d
00000130: fa4d 573e ee41 da3e 613a 8f3d abc6 413e
00000140: 739f a73e a009 31be 1e66 893e 2fb3 b13e
00000150: e97f 48be 45aa e2be 460f 91be 8ba3 ce3e
00000160: 2474 e33d 18a2 d339 cd81 2bbe 2979 f9be
00000170: a3c3 8f3e d8a9 973e 978e cabb 9a5c d1be
00000180: 57c8 7fbc 046f b83d 02b5 b4be 0ceb a93c
00000190: 90f1 4d3d 3be7 15be d97c c23e 01f2 71be
000001a0: 44b1 dcbd 11f7 f6bd 9e8b 87be e9da e1bd
000001b0: 02af 47bd d5db 5e3e 1258 58be 6735 933e
000001c0: 468b 913e ac52 c03e dbd1 bf3d d2b3 83be
000001d0: 9400 bbbd fcbd 0cbe 8584 c03d af2d 4abe
000001e0: 3343 ebbe d4eb b43e 4279 a93d ca71 8fbe
000001f0: ae03 873e 679f 70be 6b3f 76be c134 123d
00000200: a5f5 bcbe a85a f9bd 8905 21bc 4336 cbbd
00000210: 0db8 1b3c aef8 823e 1945 7cbe f7b0 76bd
00000220: 9524 84be e0db 7ebe faf7 7a3e 949d b73e
00000230: c9b5 93be 43bf 6cbe 940e f13d a1e9 8e3d
00000240: 86c3 043e da14 38be 384a 3abe 5ac6 03be
00000250: 99a1 ac3e fffd 4a3e e69f c13e 2950 8dbe
00000260: c4aa ce3d 50e9 fdbc 9c02 1bbe 5707 913e
00000270: b4da d1bd 43a8 0dbe 0258 8c3e 42ce 563d
00000280: a060 af3c 0824 27ba 0c03 763e 221b 86be
00000290: 3864 973e c086 39bd 4c23 02bf ac45 82be
000002a0: bdbf 80be b97f 2a3e d7e5 273e 3d59 933e
000002b0: 187c 50be 5ff7 d2be b8ba 04bf 1345 a8be
000002c0: 8276 f33c 7ed6 df3d b5c8 84be fbf5 3cbd
000002d0: 1d28 72be c032 8fbe 5281 a5be cafa 63bd
000002e0: e4a5 fb3d d81c a8bd 3b57 71be f282 36bd
000002f0: a8e8 563e 9848 b6be 723f 0c3d 23f1 8dbd
00000300: f074 26be 3c86 21be 11c8 a1bd 2a95 53be
00000310: 4d60 2e3e 8991 7cbd a899 6cbd df91 563e
00000320: dc76 cebe e175 acbc 26ea 5c3d c893 c5be
00000330: 7473 03bd 1f81 38be 9baa ccbe a4d8 843e
00000340: f091 1abe 01dc 9abe 0998 773e 4840 393e
00000350: 78dd da3d dd65 b73e a2d6 65bd 9b5a 8bbe
00000360: f643 aabc 9d23 5b3d 164e 60be 0248 a53e
00000370: 1888 21be 316a 433e 3e58 6abe ddb5 503e
00000380: c9a4 a03e e5c8 8ebe 0774 b63d a28f 4cbe
00000390: 5599 9bbd 8c4b ac3b 7416 1f3e bc76 29be
000003a0: 8780 cf3e 524a 8ebe a003 7abe 4081 4f3d
000003b0: bb29 ccbd 40ee eabe a2a1 3a3d 81ac 53be
000003c0: c1df e3bd 2ddd 07be 9165 38be 84ef 80be
000003d0: 6b18 6ebe a978 1cbe b77e 00bd cdf4 003e
000003e0: b05e b53e 4850 683d 4ac9 423e cd9d 9ebe
000003f0: 6e72 7bbe 1cf6 c13e f4ac c6be 50ec 2c3e

bias f4 [9]
0.04576621 0.0053645177 0.10693093 -0.02567608 0.026235577 -0.1300035 -0.042873107 -0.21453546
0.005581385
00000000: 5975 3b3d d6c8 af3b 9afe da3d a456 d2bc
00000010: feeb d63c a31f 05be b69b 2fbd 2faf 5bbe
00000020: 0de4 b63b
