Models/cloud_new.pt (torch, 115275 bytes, 26 tensors)

weight f4 [8, 2, 5, 5]
0	0x3e190e38	0.1494683
1	0xbe149530	-0.14510036
2	0x3d99f305	0.075170554
3	0x3e04e299	0.12977065
4	0xbe14e875	-0.145418
5	0x3d80446a	0.06263049
6	0xbea85b30	-0.3288207
7	0x3ea01a79	0.31270197
8	0xbc6204df	-0.013795107
9	0xbc8d3234	-0.017235853
10	0xbe29a037	-0.16565023
11	0xbe196a4a	-0.14981952
12	0x3df14c4e	0.11782132
13	0x3eb43fed	0.35205022
14	0x3e7fc372	0.249769
15	0x3e4f089f	0.20218132
16	0xbe64dd71	-0.22350098
17	0xbdbbf2d0	-0.09177172
18	0x3dfcdf4c	0.12347278
19	0x3d1f55a0	0.038900018
20	0xbe29ac82	-0.16569713
21	0x3d8fa606	0.07014088
22	0xbd37b735	-0.044852454
23	0xbd204860	-0.039131522
24	0xbc817b98	-0.015806004
25	0xbe8883db	-0.26663098
26	0x3e27f6dc	0.16402763
27	0xbcb64b69	-0.022252755
28	0xbecff188	-0.4061396
29	0xbbaf6da3	-0.005353646
30	0x3d92a7b0	0.0716089
31	0xbc302e5f	-0.010753243
32	0xbe2c6d1d	-0.16838498
33	0x3db425e0	0.087962866
34	0x3d2bc35f	0.041934367
35	0xbe9860a4	-0.2976123
36	0xbedb5462	-0.42837816
37	0xbeca3b95	-0.39498582
38	0xbe47f753	-0.1952794
39	0xbe76148a	-0.24031273
40	0x3d7fb200	0.062425613
41	0xbd454f88	-0.04817155
42	0xbec6cdeb	-0.38828978
43	0xbea640bc	-0.32471263
44	0xbeb25e68	-0.3483765
45	0x3e523504	0.20528036
46	0x3b832014	0.0040016267
47	0xbe188414	-0.14894134
48	0xbe8dda8d	-0.27705804
49	0xbe07bf78	-0.13256633
50	0x3f15d9a2	0.58535206
51	0x3d95f756	0.07322566
52	0x3e844549	0.2583411
53	0x3ebcd5c8	0.36881852
54	0x3e94ef4d	0.29088822
55	0x3e0e14b8	0.13875091
56	0x3cf94dc1	0.030432584
57	0xbd3e066f	-0.046392854
58	0xbe576731	-0.21035458
59	0x3daf3f3e	0.08556984
60	0xbe8547bf	-0.260313
61	0x3e0716c2	0.13192275
62	0x3e65e53c	0.22450727
63	0x3e2b4283	0.16724591
64	0xbd54b85e	-0.05193364
65	0x3ce3377e	0.027736422
66	0xbe2d84e1	-0.1694522
67	0xbea5b935	-0.32367864
68	0x3c84dc5d	0.016218359
69	0xbe75676f	-0.23965238
70	0xbdb2edfa	-0.08736797
71	0xbe42ad0f	-0.19011329
72	0x3e93e6d4	0.28887045
73	0xbdf7d8f6	-0.12101929
74	0xbe5c224f	-0.21497463
75	0x3f0094f6	0.50227296
76	0x3d73affb	0.059494
77	0xbd7cdba2	-0.061732896
78	0x3d9d2ff0	0.07675159
79	0x3dcd5ffa	0.10028072
80	0xbe2e90bf	-0.17047404
81	0x3e8abc5e	0.27096838
82	0xbdbbe534	-0.091745764
83	0x3d119cf7	0.035550084
84	0xbcdf9f14	-0.027297534
85	0xbd28537c	-0.041095242
86	0xbeee170d	-0.4650196
87	0xbe43644d	-0.1908123
88	0xbe0812d1	-0.13288428
89	0xbdab4c4e	-0.08364163
90	0xbd3d8ff5	-0.046279866
91	0xbc01fa10	-0.007933155
92	0x3e95afd3	0.29235706
93	0xbe68fee3	-0.22753482
94	0xbdb29fee	-0.087219104
95	0xbd888346	-0.066656634
96	0xbeafcbe3	-0.3433524
97	0x3df1a48c	0.11798963
98	0x3d5b4a44	0.053537622
99	0x3e38e1b2	0.18054846
100	0xbd8f0f3b	-0.06985327
101	0x3e60af94	0.21941978
102	0xbd6bc356	-0.057559334
103	0xbde5f889	-0.11229045
104	0xbc90e57d	-0.017687554
105	0x3dd8adbd	0.10580013
106	0xbdb4550b	-0.08805283
107	0x3e428315	0.18995316
108	0xbc93a6db	-0.018023899
109	0x3ea4a0d9	0.32153967
110	0x3e6bcfe3	0.23028521
111	0x3e327f51	0.1743138
112	0xbe1bea13	-0.15226011
113	0xbd8d9fca	-0.06915243
114	0xbb742d74	-0.0037258537
115	0x3d843fcf	0.06457483
116	0x3dfbd2ba	0.12296052
117	0x3ec3a8f1	0.3821483
118	0x3b090d06	0.0020912304
119	0x3defa831	0.11702002
120	0x3cb1e2f3	0.021714663
121	0x3b831612	0.0040004337
122	0x3e2f9680	0.17147255
123	0x3c1d731b	0.009609963
124	0x3cda2c83	0.026632553
125	0x3d12b495	0.035816748
126	0xbeabd01b	-0.3355721
127	0xbe4b3a3f	-0.19846438
128	0xbe70e2e2	-0.23524049
129	0xbcfb7f55	-0.030700365
130	0xbeb25992	-0.34833962
131	0x3dfa6d3a	0.122278646
132	0xbe3a9788	-0.18221867
133	0xbe03959e	-0.12850043
134	0xbef14d05	-0.47129074
135	0xbe8215a7	-0.25407144
136	0xbe4cc9e3	-0.19998889
137	0xbdbd14b0	-0.092324615
138	0x3ea1ddfa	0.31614667
139	0xbd1b7a29	-0.037958298
140	0xbd1cd897	-0.038292494
141	0xbd324a24	-0.043527737
142	0x3db66923	0.08906772
143	0xbe107544	-0.14107233
144	0x3e21f8f5	0.15817626
145	0x3dca0018	0.09863299
146	0xbd91b6ae	-0.071149215
147	0xbe54e43f	-0.20790194
148	0x3d4cc5d8	0.049993366
149	0xbc2f06c7	-0.010682768
150	0xbd935889	-0.07194621
151	0xbe45c5d3	-0.19313745
152	0xbe47471e	-0.19460723
153	0x3e42ef20	0.19036531
154	0xbd6d65f9	-0.057958577
155	0xbe0cf627	-0.13765775
156	0x3ea59777	0.3234212
157	0xbed1a408	-0.40945458
158	0x3d7d5293	0.061846327
159	0x3e61252e	0.21986839
160	0xbea7e8cc	-0.32794797
161	0x3e73a68f	0.23794006
162	0x3e7667b3	0.24062996
163	0x3ddfc6d3	0.109265946
164	0xbe53c772	-0.20681551
165	0x3df1f92b	0.11815103
166	0x3edb64f0	0.42850447
167	0x3dc1683f	0.094437115
168	0x3e85a3c9	0.2610152
169	0x3ead9a50	0.33906794
170	0x3da5d0eb	0.080964886
171	0x3f0d0260	0.5508175
172	0x3ebdf5c5	0.3710157
173	0x3d90545f	0.070473425
174	0x3e761d3e	0.24034593
175	0x3e6bf773	0.23043613
176	0x3cf26ab1	0.02959189
177	0xbdf4e2c7	-0.11957317
178	0xbea3cc0d	-0.31991616
179	0xbe7ac992	-0.24490955
180	0xbe1e802a	-0.15478578
181	0xbe87c271	-0.26515535
182	0x3ea901ef	0.33009288
183	0xbe8e7fce	-0.27831882
184	0xbde9411c	-0.11389372
185	0x3e018eb8	0.12652099
186	0x3e9ddce2	0.30832583
187	0xbc347a1c	-0.011015441
188	0xbd20b591	-0.039235655
189	0xbeb43f6e	-0.35204643
190	0x3d01ae70	0.031660497
191	0xbe914143	-0.28370103
192	0x3dfebc26	0.1243823
193	0x3ebdcebc	0.37071788
194	0x3d475970	0.04866928
195	0x3ea12793	0.31475505
196	0x3eaacd5b	0.333598
197	0x3e4bd0f3	0.19903927
198	0x3d817545	0.063211955
199	0x3c3c64a6	0.011498606
200	0x3e043235	0.12909777
201	0x3d3edb29	0.046595726
202	0x3e84d6f6	0.25945252
203	0x3d811b37	0.06304019
204	0xbebd35a8	-0.36955
205	0xbdd83d15	-0.105585255
206	0x3e05baa9	0.13059486
207	0x3d053fd4	0.032531574
208	0xbdbde2f9	-0.09271807
209	0xbe3463b4	-0.17616159
210	0xbebc6c43	-0.36801347
211	0x3e0d8f18	0.13824117
212	0xbd78f14d	-0.060776997
213	0xbed3a005	-0.41333023
214	0x3e237476	0.15962395
215	0xbe4aa372	-0.19788912
216	0xbe66177a	-0.22469893
217	0x3d13f390	0.03612095
218	0xbee33348	-0.44375062
219	0xbe445645	-0.19173534
220	0xbe589343	-0.21149926
221	0xbec54600	-0.38529968
222	0xbee19e3a	-0.4406603
223	0xbdfc7ee8	-0.12328893
224	0xbe4fa40d	-0.20277424
225	0x3d69d691	0.057089392
226	0x3a9d633d	0.0012007725
227	0xbe4d25c6	-0.2003394
228	0xbd1f249f	-0.038853284
229	0x3e61b728	0.22042525
230	0xbdf1662e	-0.11787067
231	0xbeec9b2c	-0.46212137
232	0x3c134f63	0.008991095
233	0x3e1b9be2	0.15196183
234	0x3e67cf02	0.22637561
235	0xbc1e99b5	-0.009680201
236	0xbbd20527	-0.0064093056
237	0x3e8dd2cc	0.27699888
238	0xbe3f7fc5	-0.18701084
239	0x3d26369c	0.040579423
240	0x3e7a1f84	0.24426085
241	0x3ea474e4	0.3212043
242	0x3de8f407	0.113746695
243	0x3e005306	0.12531671
244	0x3f08bd33	0.53413695
245	0x3e309989	0.17246069
246	0x3e160e15	0.1465381
247	0x3d41f5e2	0.047353633
248	0x3e13588e	0.1438925
249	0xbd2797ab	-0.040916126
250	0x3ea064fd	0.31327048
251	0xbc22aa7f	-0.009928345
252	0xbe347f61	-0.17626716
253	0xbdd363d5	-0.10321776
254	0x3ca6fc1f	0.020383893
255	0xbd404eb8	-0.046950072

bias f4 [8]
0	0xbd8b414f	-0.06799566
1	0x3e06134f	0.13093303
2	0x3e5a1d8b	0.21300332
3	0x3c83cbd5	0.016088406
4	0x3d96ee20	0.073696375
5	0x3d87634b	0.066107355
6	0xbcbea39a	-0.02327137
7	0x3e180781	0.14846613

weight f4 [8]
0	0x3f86f817	1.0544461
1	0x3f844dbe	1.0336225
2	0x3f828f21	1.019993
3	0x3f7577cd	0.95885926
4	0x3f838668	1.0275393
5	0x3f6a1004	0.9143069
6	0x3f7702f9	0.9648891
7	0x3f5e5aa4	0.86857057

bias f4 [8]
0	0xbdbf646f	-0.09345328
1	0xbdccb3e6	-0.099952504
2	0x3dd94f76	0.10610859
3	0xbd1a2fe1	-0.037643317
4	0xbddf9a49	-0.109180994
5	0x3c1aa065	0.009437655
6	0x3dac4033	0.084106825
7	0xbd011b6b	-0.03152029

running_mean f4 [8]
0	0x4296a102	75.31447
1	0x40a1cb15	5.0560403
2	0x415ad258	13.676353
3	0x409ccf91	4.9003377
4	0x41eeffbe	29.874874
5	0x409626b1	4.692223
6	0x4086021e	4.1877584
7	0x4095d580	4.682312

running_var f4 [8]
0	0x451915f6	2449.3726
1	0x4319f18a	153.94351
2	0x42db1fe7	109.56231
3	0x439559f1	298.70267
4	0x43c09eef	385.24167
5	0x433e67fc	190.40619
6	0x432a81c0	170.50684
7	0x432a2ffa	170.18741

weight f4 [16, 8, 3, 3]
0	0xbddf73d1	-0.10910762
1	0xbe3ed85d	-0.18637224
2	0xbddfa801	-0.10920716
3	0xbbae6037	-0.0053215283
4	0x3dda03c4	0.106452495
5	0xbe92d972	-0.28681523
6	0x3e28465b	0.16433088
7	0xbe446e40	-0.19182682
8	0x3be45e81	0.0069692736
9	0xbe10ccdd	-0.14140649
10	0x3e1f3a72	0.15549639
11	0x3d86ac0e	0.065757856
12	0x3c0e358b	0.008679758
13	0xbcc83a00	-0.024441719
14	0xba2d943f	-0.00066215167
15	0x3d30a3b0	0.043124855
16	0x3d7ea033	0.062164497
17	0xbea14799	-0.31499937
18	0xbdc5d2d0	-0.0965935
19	0x3e1bcf49	0.15215792
20	0x3e4baf81	0.19891168
21	0x3e035bc7	0.12827979
22	0x3e5e1a46	0.2168971
23	0x3e9de730	0.30840445
24	0x3c8c464f	0.01712337
25	0x3e69eeeb	0.22845046
26	0x3e7ee529	0.24892105
27	0x3a2c6eaa	0.00065777695
28	0xbe2142b3	-0.157481
29	0xbe1e41a0	-0.15454721
30	0x3d954be4	0.072898656
31	0xbe6cd78a	-0.23129097
32	0x3e39e554	0.18153888
33	0xbd0ac115	-0.033875544
34	0x3e139d94	0.1441558
35	0xbe53c98b	-0.20682351
36	0xbdfbfa3b	-0.12303587
37	0x3d93a266	0.072087094
38	0xbdc6fafb	-0.097158395
39	0x3e30a179	0.17249097
40	0xbe7cc82e	-0.24685737
41	0xbe1da654	-0.1539548
42	0xbe911686	-0.28337497
43	0xbe0441f2	-0.12915781
44	0xbd985c4c	-0.07439479
45	0xbb217975	-0.0024639044
46	0xbe8c85dd	-0.2744588
47	0xbd9fc46e	-0.07801138
48	0xbed97a4c	-0.42476118
49	0xbb946991	-0.004529186
50	0x3e1fdf9c	0.15612644
51	0xbdf23ecc	-0.11828384
52	0x3ad05f58	0.0015897555
53	0x3e3382c7	0.17530356
54	0x3def5271	0.11685646
55	0xbe75ebf0	-0.24015784
56	0xbd8a94c2	-0.067666546
57	0x3c8c8fbc	0.017158382
58	0xbe8a9697	-0.27068016
59	0xbde16e3f	-0.11007356
60	0xbd876739	-0.06611485
61	0xbeb70619	-0.3574684
62	0xbcd5f6d8	-0.02611868
63	0xbd62ca62	-0.05536879
64	0xbdb9a7be	-0.090651974
65	0x3d528667	0.051397707
66	0xbd9e0127	-0.077150635
67	0xbe1e0333	-0.15430908
68	0xbe309c5e	-0.1724715
69	0xbe318fc6	-0.17340001
70	0xbe072c9e	-0.13200614
71	0x3ce1e320	0.027574122
72	0xbd925194	-0.07144466
73	0xbdfbcd6a	-0.12295039
74	0x3e45f3de	0.19331309
75	0xbead0d52	-0.33799225
76	0x3c2a7e68	0.010406114
77	0xbeaf3939	-0.34223345
78	0xbdd2c5bd	-0.10291622
79	0xbe3ea3fb	-0.18617241
80	0x3e82262c	0.25419748
81	0xbd40d767	-0.047080424
82	0x3ee7766a	0.4520753
83	0x3e8461ef	0.25855967
84	0x3dc36b12	0.095419064
85	0xbd3e19dd	-0.046411384
86	0x3d3e12c7	0.046404626
87	0x3e157f17	0.14599262
88	0x3e65cccc	0.22441405
89	0x3bec06ce	0.0072029596
90	0xbd269430	-0.040668666
91	0x3e92ff35	0.28710333
92	0x3d2eede1	0.042707328
93	0xbeb615be	-0.35563463
94	0x3e2323dc	0.15931648
95	0x3e4a98b9	0.19784822
96	0x3e5cb89e	0.21554801
97	0x3d1cde97	0.038298216
98	0xbde7ca02	-0.11317827
99	0xbe19d117	-0.15021168
100	0xbe4567f2	-0.19277933
101	0x3b21c104	0.0024681697
102	0x3e141bf7	0.14463793
103	0xbe8f44bc	-0.27982128
104	0x3dbc71b3	0.09201374
105	0x3c0dff7e	0.008666871
106	0xbe2ea4ca	-0.1705505
107	0x3e552357	0.20814262
108	0x3ebbb683	0.36662683
109	0x3deb3f75	0.11486713
110	0x3b9f119d	0.0048543946
111	0xbdbedd0d	-0.09319506
112	0xbde4606e	-0.11151205
113	0xbe9061c7	-0.28199598
114	0xbe658bbe	-0.22416589
115	0x3dc8c7e1	0.09803749
116	0xbe39f749	-0.18160738
117	0xbcbef3d4	-0.023309626
118	0xbb56685b	-0.003271601
119	0xbce817d0	-0.028331667
120	0x3d65a8ef	0.05606931
121	0x3e5d5e59	0.21618022
122	0xbd34bc9b	-0.04412518
123	0xbc9edd38	-0.019392595
124	0x3e116d85	0.14201935
125	0xbe087c75	-0.13328727
126	0xbd393bc6	-0.04522302
127	0xbd9ce634	-0.07661095
128	0x3e10d5cc	0.14144057
129	0xbe271573	-0.16316776
130	0x3e3aa8b3	0.18228416
131	0x3d9587ff	0.0730133
132	0x3e4a8125	0.19775827
133	0xbdcf9a64	-0.101368695
134	0xbd3086f9	-0.04309747
135	0x3e8561a6	0.26051062
136	0xbd45d702	-0.04830075
137	0xbda8d04c	-0.082428545
138	0x3c656b0b	0.014002572
139	0xbca5dfdf	-0.020248352
140	0x3e713841	0.23556615
141	0x3ec862f7	0.39138004
142	0xbda53de1	-0.08068443
143	0x3e75f6d6	0.24019942
144	0xbe58c7bd	-0.21169944
145	0xbd41ed1c	-0.047345266
146	0x3e85813c	0.2607516
147	0x3e21d3d3	0.15803461
148	0xbddb465d	-0.1070678
149	0x3d91fdea	0.071285084
150	0xbe6dd9e4	-0.2322765
151	0xbe1dec7e	-0.15422246
152	0x3e0de013	0.13855009
153	0xbe9b8809	-0.30377224
154	0xbe805496	-0.25064534
155	0xbecbe207	-0.39820883
156	0x3c6a1320	0.014286786
157	0xbd3b8d84	-0.045789257
158	0xbcdea01a	-0.027175952
159	0xbe008149	-0.12549318
160	0x3e3c0832	0.18362501
161	0xbd381cfc	-0.044949517
162	0xbe2d5027	-0.16925107
163	0xbe55a976	-0.20865425
164	0xbe6a884e	-0.22903559
165	0xbdc9931c	-0.09842512
166	0xbdb619f7	-0.08891671
167	0xbebaa00a	-0.36450225
168	0x3e569c57	0.20958076
169	0x3dfb52ad	0.122716285
170	0x3ec4928a	0.3839305
171	0x3c30389f	0.010755687
172	0x3e47bb2a	0.19504991
173	0x3c081ceb	0.008307676
174	0xbec02019	-0.3752449
175	0x3e78ed93	0.24309377
176	0xbe787158	-0.24261987
177	0xbd896011	-0.06707776
178	0xbe6c9940	-0.23105335
179	0x3e7f7b1b	0.24949305
180	0x3e007776	0.1254557
181	0x3d88ba00	0.06676102
182	0xbd8d0951	-0.068865426
183	0xbe03cf00	-0.12871933
184	0xbe57968a	-0.2105352
185	0xbe494dea	-0.19658628
186	0xbd880eac	-0.066434234
187	0x3aa70251	0.0012741779
188	0x3ca16066	0.019699287
189	0x3e2d4a79	0.1692294
190	0x3e089f41	0.13342
191	0xbda48901	-0.08033944
192	0xbe180e49	-0.148492
193	0x3e408730	0.1880157
194	0xbe02c7d9	-0.12771548
195	0xbe132dea	-0.14372984
196	0x3df04b0a	0.117330626
197	0xbe666672	-0.22500017
198	0xbdc5b409	-0.096534796
199	0xbe909414	-0.28237975
200	0x3e1e7e7b	0.15477936
201	0xbed7ab19	-0.42122725
202	0xbc9bbb09	-0.019010084
203	0xbea5988a	-0.3234294
204	0x3ea04955	0.31305948
205	0x3c5d9f2f	0.013526722
206	0xbd29a2f1	-0.04141516
207	0x3e5461d9	0.20740451
208	0xbe6a9774	-0.22909337
209	0xbebf74fe	-0.37393945
210	0x3e8eec26	0.27914542
211	0x3ecdb24c	0.40175092
212	0x3e502f32	0.20330504
213	0x3ce860b2	0.02836642
214	0xbdc35192	-0.09537043
215	0x3e94eb24	0.29085648
216	0xbcc752a0	-0.02433139
217	0xbd7254a3	-0.059162747
218	0x3c6d1425	0.014470135
219	0x3e94ae89	0.2903941
220	0x3ead6cb8	0.33872008
221	0x3b8702b2	0.0041201944
222	0x3e66b5c5	0.22530277
223	0x3e3202ec	0.17383927
224	0x3e7a0f52	0.24419907
225	0x3e82d96a	0.255565
226	0x3dea13f6	0.114295885
227	0x3dd258ab	0.10270818
228	0x3e38dbb7	0.18052565
229	0xbe47dcd5	-0.19517834
230	0x3e51fbe2	0.20506242
231	0x3e1371db	0.14398901
232	0x3d6a21dc	0.057161197
233	0xbe1be8ea	-0.15225568
234	0x3d92d864	0.071701795
235	0xbd0ecefe	-0.034865372
236	0xbefe96a8	-0.49724317
237	0x3cc92a57	0.024556322
238	0xbe8da18a	-0.27662307
239	0xbd96332e	-0.073339805
240	0xbdea2604	-0.11433032
241	0xbe61e84e	-0.22061273
242	0xbcc93f8d	-0.024566436
243	0x3eaa9f33	0.33324584
244	0xbde5c45a	-0.11219092
245	0xbd034ad6	-0.03205379
246	0xbd07ca98	-0.033152193
247	0x3e2c3d32	0.16820219
248	0x3bc9a776	0.006153996
249	0x3e7d7982	0.24753383
250	0xbd1ae0de	-0.037812106
251	0xbe5ac28f	-0.2136328
252	0xbc573718	-0.013135694
253	0x3e1fc17e	0.15601155
254	0x3e16be7c	0.14721102
255	0x3e8bb77b	0.27288422

bias f4 [16]
0	0xbc4c76f1	-0.01247953
1	0xbd1bc4e0	-0.03802955
2	0xbbe28a41	-0.006913454
3	0xbde549bf	-0.111957066
4	0x3d6a7152	0.057236977
5	0xbc6e7664	-0.014554594
6	0xbc5c8f0b	-0.0134618385
7	0x3d96e048	0.07366997
8	0x3d9da2d9	0.07697076
9	0xbe5ba9b6	-0.21451458
10	0xbba57d84	-0.005050363
11	0xbe3e6fb9	-0.18597306
12	0xbd94c6b8	-0.07264465
13	0xbda97b42	-0.08275463
14	0xbe0567db	-0.13027899
15	0xbcb246a6	-0.021762203

weight f4 [16]
0	0x3f73e754	0.95274854
1	0x3f6c9ff4	0.9243157
2	0x3f7e6e0d	0.99386674
3	0x3f88acda	1.067775
4	0x3f83deb8	1.0302343
5	0x3f6f1f4f	0.9340715
6	0x3f865544	1.0494771
7	0x3f80c364	1.0059628
8	0x3f73eded	0.9528492
9	0x3f8016d7	1.000697
10	0x3f7d3208	0.98904467
11	0x3f865801	1.0495607
12	0x3f85b1f3	1.0444931
13	0x3f6504de	0.8946055
14	0x3f7fb04f	0.998784
15	0x3f812ce1	1.0091821

bias f4 [16]
0	0x3df1d436	0.11808054
1	0x3da7a114	0.0818502
2	0x3db33e24	0.08752087
3	0x3db6b527	0.08921271
4	0xbac16d61	-0.0014757329
5	0x3dbe1fb2	0.09283389
6	0xbd77033b	-0.060305815
7	0x3e63dc8e	0.22252104
8	0x3df924f6	0.12165253
9	0xbc8f7069	-0.017509656
10	0x3ddb79fb	0.10716625
11	0x3d355d7a	0.0442786
12	0xbe1c51cb	-0.15265577
13	0xbdadcc5f	-0.08486246
14	0x3c17bf29	0.009261885
15	0xbd8cc56a	-0.06873591

running_mean f4 [16]
0	0x3f527ec7	0.82224697
1	0x3f3db84d	0.74109346
2	0x3f07a0cb	0.52979726
3	0x3ea5a7cc	0.3235458
4	0x3ef8142b	0.48452887
5	0x3f98d7d4	1.1940866
6	0x3eb071f0	0.34461927
7	0x3eee7c32	0.46579129
8	0x3f8a162f	1.078802
9	0x3ed938c1	0.42426112
10	0x3efdc972	0.49567753
11	0x3f1e3574	0.61800313
12	0x3ed834d0	0.42227793
13	0x3ec40b8d	0.38290063
14	0x3ed587f2	0.4170528
15	0x3f3b08b6	0.73060167

running_var f4 [16]
0	0x3ed05efa	0.4069746
1	0x4023dba3	2.5602806
2	0x3f1563a4	0.58355165
3	0x3ee65438	0.4498613
4	0x3fda6610	1.7062397
5	0x40836322	4.105851
6	0x3e598cf4	0.21245176
7	0x3fa78a26	1.3089035
8	0x4020b614	2.5111132
9	0x3f0778eb	0.5291888
10	0x3f812041	1.0087968
11	0x404ed7dc	3.231925
12	0x3eadc684	0.33940518
13	0x3e2432cc	0.16035002
14	0x3f585c66	0.8451599
15	0x3f834649	1.0255824

weight f4 [32, 16, 3, 3]
0	0x3e4db69a	0.20089188
1	0xbdea2bd6	-0.11434142
2	0xbe3986e4	-0.18117863
3	0x3cd3d25c	0.025857143
4	0x3c754203	0.014969352
5	0x3d40fff8	0.04711911
6	0xbdff01cf	-0.12451517
7	0x3aa9119b	0.0012898924
8	0xbd662d87	-0.056195762
9	0x3da43b15	0.080190815
10	0x3dd99ec7	0.106259875
11	0x3dfd4ae9	0.123678036
12	0x3e01dca4	0.12681824
13	0x3dcc7aff	0.09984397
14	0x3d1e86a5	0.038702626
15	0x3d12ff99	0.03588829
16	0xbe7b8f91	-0.24566485
17	0xbdd37200	-0.10324478
18	0xbdb7e918	-0.08980006
19	0x3d5c0164	0.053712264
20	0x3db753cd	0.089515306
21	0x3cee3435	0.029077629
22	0xbe227615	-0.15865357
23	0x3a146219	0.00056603696
24	0x3d0b1f52	0.033965416
25	0xbdc8e863	-0.09809949
26	0xbd8b4e33	-0.06802025
27	0x3d953f27	0.07287436
28	0x3e7e97b7	0.24862562
29	0x3d8bbae8	0.06822759
30	0x3d179345	0.03700568
31	0x3e3f8bd6	0.18705687
32	0x3df5c2d7	0.120000534
33	0x3e660798	0.22463834
34	0x3e41a3e3	0.18910174
35	0xbd654ffe	-0.05598449
36	0x3d40dd33	0.047085952
37	0xbe5c814f	-0.21533702
38	0x3e7d211e	0.24719664
39	0x3d250e26	0.040296696
40	0x3e26903f	0.16265963
41	0xbe41197e	-0.18857381
42	0x3e5a44ba	0.2131528
43	0xbe4ea3bd	-0.20179649
44	0xbd45ebba	-0.04832051
45	0x3dbae287	0.09125238
46	0xbd98d3d8	-0.07462281
47	0x3ba99a18	0.00517584
48	0xbd11d461	-0.03560293
49	0xbd34d84d	-0.044151593
50	0x3ba6199b	0.0050689704
51	0xbe1c41ac	-0.15259427
52	0xbca0576c	-0.019572936
53	0xbcf7421d	-0.030182892
54	0xbcf5bfc6	-0.029998671
55	0x3e596fb6	0.2123402
56	0x3e1d3558	0.1535238
57	0x3b606024	0.0034236992
58	0x3d6c667b	0.05771492
59	0x3d8650c9	0.06558377
60	0x3d77a002	0.06045533
61	0x3cbbe46f	0.022936074
62	0xbc1cbc63	-0.009566399
63	0xbe493174	-0.19647771
64	0x3e87704c	0.26452863
65	0xbccc8524	-0.02496583
66	0xbcfdd68d	-0.030986095
67	0x3d888342	0.066656604
68	0x3de8de8d	0.11370573
69	0xbe6b9a5f	-0.23008107
70	0x3e433119	0.19061698
71	0xbe638d22	-0.22221807
72	0xbda34c8d	-0.07973585
73	0xbcb5b042	-0.022178773
74	0xbdb42971	-0.08796967
75	0xbd8e782b	-0.06956514
76	0x3e1af228	0.15131438
77	0x3d41b178	0.047288388
78	0xbe2fa2de	-0.17151973
79	0xbe3e19d0	-0.18564534
80	0x3b4ddbac	0.0031411452
81	0xbdc579ec	-0.096423954
82	0xbd541edf	-0.051787253
83	0x3d877c2a	0.06615479
84	0xbc95f413	-0.01830486
85	0xbd4c74f6	-0.04991623
86	0xbca40659	-0.020022558
87	0x3e302c95	0.17204507
88	0xbcb71a0d	-0.02235129
89	0x3dd59b2c	0.10429987
90	0xbdef819e	-0.116946444
91	0x3e797df0	0.24364448
92	0x3dab0a40	0.083515644
93	0x3e44f1a1	0.19232799
94	0x3daa5ed6	0.0831887
95	0x3ddfcf7e	0.10928248
96	0xbd742fe0	-0.05961597
97	0x3e58019f	0.21094368
98	0xbd984cbf	-0.07436513
99	0x3dd7d2ed	0.10538278
100	0xbb196e16	-0.0023411564
101	0xbd47cf25	-0.048781533
102	0x3dd9b2b7	0.1062979
103	0x3e7f8de6	0.24956474
104	0x3db80720	0.08985734
105	0x3cbfa8a2	0.02339584
106	0x3dc062f9	0.093938775
107	0x3e1892ce	0.14899752
108	0x3e173230	0.14765239
109	0xbe159737	-0.14608465
110	0xbd99349b	-0.07480737
111	0x3ba05fc6	0.0048942296
112	0x3d63b47b	0.05559204
113	0x3e24aff3	0.16082744
114	0x3e475d27	0.19469129
115	0x3e3827a5	0.17983873
116	0x3e9f9a84	0.31172574
117	0x3dc4cec2	0.096097484
118	0xbd502573	-0.050816964
119	0x3de2d2a6	0.11075334
120	0x3b1ffacb	0.002441096
121	0x3d9d905f	0.07693552
122	0x3d8484e3	0.06470659
123	0x3e468743	0.19387536
124	0x3e18b1d4	0.14911586
125	0x3d13ba56	0.036066376
126	0xbc30915a	-0.010776842
127	0x3d95526c	0.07291111
128	0xbd7731bc	-0.060350165
129	0xbd83d935	-0.06437913
130	0x3dd60faa	0.104522064
131	0x3d4b33dc	0.049610004
132	0x3e5d0d44	0.21587092
133	0x3e7f8404	0.24952704
134	0x3e02696b	0.12735526
135	0x3c3e80bb	0.011627371
136	0xbc9a662f	-0.018847553
137	0x3e276129	0.16345657
138	0x3e0282fb	0.12745278
139	0x3c9369d2	0.017994795
140	0x3c845380	0.016153097
141	0xbe042b2c	-0.12907094
142	0x3e031281	0.12800027
143	0x3e125e0c	0.14293689
144	0xbe7c5f0c	-0.24645633
145	0xbe19c2b5	-0.15015681
146	0xbcc1003a	-0.023559678
147	0xbd9cbef8	-0.07653612
148	0xbdef1271	-0.11673439
149	0xbec4b697	-0.38420555
150	0xbdf84ee0	-0.12124419
151	0x3da74027	0.08166533
152	0xbde428f7	-0.11140626
153	0x3d4dfc7a	0.05028961
154	0x3d737b9f	0.059444066
155	0xbca50ed6	-0.020148676
156	0x3c549165	0.012974118
157	0x3cf13339	0.02944337
158	0x3e313125	0.17303903
159	0x3e2f2b6c	0.17106408
160	0xbbe22483	-0.006901325
161	0xbe277cad	-0.16356154
162	0xbd13bfb7	-0.036071505
163	0xbd895c80	-0.06707096
164	0xbe094574	-0.134054
165	0xbe8d44d4	-0.27591574
166	0xbcb9b096	-0.02266721
167	0xbc4979a6	-0.01229707
168	0x3d01091a	0.03150282
169	0x3e186dd0	0.1488564
170	0xbd86573b	-0.06559607
171	0xbdd3d9c2	-0.103442684
172	0x3dbf257b	0.09333321
173	0x3e02aaae	0.12760422
174	0x3d9dc091	0.07702745
175	0xbdef5f00	-0.11688042
176	0xbb00287a	-0.0019555376
177	0x3e1dfcd8	0.15428483
178	0x3e4c5205	0.19953163
179	0xbdea9da7	-0.11455851
180	0xbde68556	-0.112559006
181	0xbe4aa196	-0.19788203
182	0x3c866946	0.01640762
183	0x3d66b31c	0.056323156
184	0xbc421031	-0.011844681
185	0xbe11e038	-0.14245689
186	0xbdf29b65	-0.118460454
187	0xbd7a2dcb	-0.061078828
188	0x3c7aefd5	0.0153159695
189	0x3d418b0e	0.047251754
190	0xbdb596ec	-0.08866677
191	0xbc87cc10	-0.016576797
192	0xbddcdbaa	-0.10784085
193	0x3dbca8c9	0.09211881
194	0xbd2bb424	-0.041919842
195	0xbe25385e	-0.16134784
196	0x3d21dd8d	0.039517928
197	0xbe00c945	-0.12576778
198	0xbd87641a	-0.0661089
199	0x3cc3ec72	0.023916457
200	0xbe224a71	-0.1584871
201	0x3dc07e1d	0.09399054
202	0x3e22b68d	0.1588995
203	0x3e2dd3dc	0.16975349
204	0x3df8c773	0.12147417
205	0x3e8aa2b7	0.27077267
206	0x3dd54289	0.10413081
207	0x3d591a59	0.053003643
208	0xbd63ee51	-0.055647198
209	0xbe430cc4	-0.19047838
210	0x3d4e93a0	0.050433755
211	0xbd1f15be	-0.038839094
212	0x3dd95bba	0.106131986
213	0xbd1a37cd	-0.037650872
214	0x3c9e4f75	0.019324997
215	0x3d43c792	0.047797747
216	0xbbab2c95	-0.0052238205
217	0xbdcd87b9	-0.10035653
218	0xbe319593	-0.17342214
219	0xbdc13dea	-0.09435637
220	0xbe67c217	-0.22632633
221	0xbd1f9d09	-0.03896812
222	0x3d829bf0	0.06377399
223	0x3d1a612d	0.03769033
224	0xbd57b16c	-0.052659437
225	0xbdd58116	-0.10425012
226	0xbba53af8	-0.00504243
227	0x3b3dce71	0.002896216
228	0x3de6e6c8	0.11274487
229	0xbe5fdcfe	-0.21861646
230	0xbcfbd825	-0.030742714
231	0x3e428c92	0.18998936
232	0x3d88bc48	0.06676537
233	0x3e2318e1	0.1592746
234	0xbcb26d68	-0.021780685
235	0x3d457ba7	0.048213627
236	0x3e691338	0.22761238
237	0x3d85ddbc	0.06536433
238	0xbdfcccea	-0.12343772
239	0x3cf0a321	0.02937466
240	0xbd5ef4f4	-0.054432824
241	0xbd5339e3	-0.051568877
242	0x3cf12bb5	0.029439786
243	0xbd593050	-0.05302459
244	0xbda338ba	-0.07969804
245	0xbda133b0	-0.07871187
246	0xbdd4f9cd	-0.10399208
247	0xbe10f8fd	-0.14157481
248	0xbdbf09c1	-0.09328032
249	0x3e239ce1	0.15977813
250	0x3d971739	0.07377476
251	0x3d231777	0.0398173
252	0xbc19b730	-0.009382054
253	0xbd892945	-0.06697325
254	0x3e362dc3	0.17790894
255	0x3dada8f9	0.084794946

bias f4 [32]
0	0xbdce21aa	-0.10065015
1	0xbd6d5d37	-0.057950225
2	0xbc62fb93	-0.013853925
3	0xbde0acbb	-0.10970446
4	0xbdadadc5	-0.084804095
5	0x3c851b9a	0.016248513
6	0xbd6a99d9	-0.057275627
7	0xbded8cde	-0.11599134
8	0xbdae44a2	-0.085091844
9	0xbdb16f8f	-0.08663856
10	0xbd8faf23	-0.070158266
11	0xbdc5a49d	-0.09650538
12	0xbe43555f	-0.19075535
13	0x3d142a76	0.036173306
14	0xbd141e2e	-0.036161594
15	0xbdf4cb6e	-0.11952864
16	0xbd8d4719	-0.068983264
17	0x3ca5c93a	0.020237554
18	0x3b280c07	0.0025641934
19	0x3d23db49	0.04000405
20	0xbda1f936	-0.07908861
21	0xbd42c9bd	-0.047555674
22	0xbd777301	-0.06041241
23	0xbe8f25c9	-0.27958515
24	0xbe1eb853	-0.15500002
25	0xbe67dac9	-0.22642054
26	0xbdc06a26	-0.09395246
27	0xbbd53a5f	-0.0065072025
28	0x3d152413	0.036411356
29	0xbd1f2be8	-0.03886023
30	0xbd0edbc7	-0.034877565
31	0xbd50fe6d	-0.05102389

weight f4 [32]
0	0x3f81f6d1	1.0153447
1	0x3f7dc662	0.99130833
2	0x3f838d65	1.0277525
3	0x3f7b443a	0.9815098
4	0x3f728fd5	0.9475072
5	0x3f80a7f1	1.0051252
6	0x3f65ba9a	0.89737856
7	0x3f84bf37	1.0370854
8	0x3f818a3b	1.012031
9	0x3f6d815b	0.92775506
10	0x3f6c94c3	0.9241449
11	0x3f823f9d	1.0175663
12	0x3f806198	1.0029783
13	0x3f803703	1.0016788
14	0x3f789b19	0.9711166
15	0x3f84e308	1.0381784
16	0x3f687e81	0.9081803
17	0x3f79f804	0.97644067
18	0x3f70168c	0.93784404
19	0x3f85f2f7	1.0464772
20	0x3f81eb32	1.0149901
21	0x3f839238	1.0278997
22	0x3f754dbb	0.9582173
23	0x3f83d34a	1.0298855
24	0x3f7874cb	0.9705321
25	0x3f8aaf75	1.0834795
26	0x3f826ad1	1.0188848
27	0x3f85c935	1.0452029
28	0x3f6cafb4	0.924556
29	0x3f84ca98	1.0374327
30	0x3f80b10b	1.0054029
31	0x3f80ca98	1.0061827

bias f4 [32]
0	0x3e85d71b	0.26140675
1	0x3de6b449	0.112648554
2	0x3e9862ee	0.29762977
3	0xbe688b3e	-0.22709367
4	0x3e161fb0	0.14660525
5	0x3bc5b3ec	0.0060334112
6	0xbe3d7939	-0.18503274
7	0x3e686ae8	0.22697031
8	0xbd5693d5	-0.052387077
9	0x3c10d96d	0.008840901
10	0xbe16c0a1	-0.1472192
11	0x3e52f534	0.2060135
12	0x3e604953	0.21902971
13	0x3e37f730	0.17965388
14	0x3e2a3567	0.16621934
15	0x3d82f7e2	0.06394936
16	0x3db17995	0.08665768
17	0xbd9de997	-0.07710569
18	0x3df5cce3	0.1200197
19	0x3df8113a	0.12112661
20	0x3bebbe54	0.0071943197
21	0xbb0d039e	-0.0021517049
22	0xbca8586c	-0.020549975
23	0xbde3fd74	-0.11132327
24	0x3e386b29	0.18009628
25	0x3e0b056a	0.13576284
26	0x3cbf8740	0.023379922
27	0xbcd6df76	-0.026229601
28	0x3c95de66	0.018294524
29	0x3d192fb4	0.03739901
30	0x3c4efc04	0.012633327
31	0x3ce2071b	0.027591279

running_mean f4 [32]
0	0x3f1a66b4	0.6031296
1	0x3ea2776c	0.31731737
2	0x3eff078f	0.49810454
3	0x3f213293	0.62967795
4	0x3eed3d97	0.46336052
5	0x3f29c5ac	0.6631725
6	0x3f1784c2	0.5918695
7	0x3efb15c9	0.49040058
8	0x3f3c153b	0.73469895
9	0x3f1d63dd	0.61480504
10	0x3f062ac8	0.5240903
11	0x3ef34af8	0.47518134
12	0x3ec573c7	0.38564894
13	0x3f49d163	0.78835124
14	0x3f039bd7	0.5140967
15	0x3ed0a437	0.40750286
16	0x3f8fd0f3	1.1235641
17	0x3f27c1ed	0.6553028
18	0x3ec46f06	0.38365954
19	0x3f40cb95	0.7531064
20	0x3f038b30	0.5138426
21	0x3f37fa32	0.7186614
22	0x3ed3b23e	0.41346925
23	0x3ecd36cc	0.4008087
24	0x3f6718be	0.9027213
25	0x3ec0c74d	0.37652054
26	0x3f18067e	0.59384906
27	0x3f2ffffb	0.6874997
28	0x3efff1af	0.49989077
29	0x3effd570	0.49967527
30	0x3ec65f75	0.38744703
31	0x3f182370	0.59429073

running_var f4 [32]
0	0x3fe2f806	1.7731941
1	0x3ef22557	0.47294113
2	0x3f235f23	0.6381704
3	0x3ebd1dfb	0.36936936
4	0x3eb0501b	0.34436116
5	0x403f6283	2.9903877
6	0x3ea25ff6	0.31713837
7	0x3f7074d5	0.9392827
8	0x3f656178	0.8960185
9	0x3f11de96	0.56980264
10	0x3eb7090c	0.3574909
11	0x3f35a511	0.70954996
12	0x3f1fb2bf	0.6238212
13	0x3f8f53d5	1.1197459
14	0x3edfdffd	0.43725577
15	0x3f0901a9	0.5351816
16	0x3f844c8c	1.033586
17	0x3f906ca5	1.1283156
18	0x3f40b9e4	0.75283647
19	0x3f480a22	0.7814046
20	0x3ef0f38c	0.47060812
21	0x3f2ae6a2	0.6675817
22	0x3ec424fc	0.38309467
23	0x3f362d63	0.71163005
24	0x40571805	3.360841
25	0x3f23ed57	0.64034027
26	0x3eb25a12	0.34834343
27	0x3f13dbe0	0.5775738
28	0x3f1bf837	0.6092562
29	0x3f0df100	0.5544586
30	0x3eea66b0	0.4578147
31	0x3f2a405b	0.6650445

weight f4 [64, 32, 3, 3]
0	0x3db73dbf	0.08947324
1	0x3d501488	0.05080083
2	0x3d3b69de	0.04575526
3	0xbe2659c1	-0.16245176
4	0xbe3ac700	-0.18239975
5	0xbec0c947	-0.37653562
6	0x3decf41e	0.11569999
7	0xbcf1e520	-0.0295282
8	0x3d32a004	0.043609634
9	0xbe03b9ae	-0.128638
10	0xbe34fa36	-0.17673573
11	0xbce1e2b6	-0.027573925
12	0xbe0144e5	-0.12623937
13	0xbd64cb6a	-0.055858053
14	0x3bcaa042	0.006183655
15	0xbd1313a7	-0.035907414
16	0xbdbb1607	-0.09135061
17	0xbe455330	-0.19270015
18	0xbe973cbc	-0.29538524
19	0xbe7d8e80	-0.2476139
20	0xbe0ac9a8	-0.13553488
21	0xbde27be8	-0.110587895
22	0xbdf95111	-0.12173665
23	0x3dbbe9c8	0.091754496
24	0xbe1000ac	-0.14062756
25	0xbd01b9aa	-0.031671204
26	0xbe147257	-0.14496742
27	0xbdd72b37	-0.105062895
28	0xbd5c0eaa	-0.053724922
29	0x3d0387ea	0.03211204
30	0x3d67fd5f	0.056638118
31	0x3c91ab64	0.01778192
32	0x3d8356bb	0.06413027
33	0x3c5e830d	0.01358105
34	0x3d64d50e	0.055867247
35	0x3e17e740	0.14834309
36	0xbdb2263d	-0.086986996
37	0xbe35a172	-0.17737368
38	0xbe209571	-0.15682007
39	0x3d7aaa69	0.061197672
40	0x3d2eec3b	0.042705756
41	0x3c6b6af1	0.014368759
42	0x3d288f93	0.041152548
43	0x3d33faae	0.04394024
44	0xbd131275	-0.035906274
45	0xbba49487	-0.0050225887
46	0xbc947b0b	-0.018125078
47	0x3d9c91e9	0.07645018
48	0x3d43ec06	0.04783251
49	0xbd9e2dc5	-0.077235736
50	0x3d561c17	0.052272882
51	0xbbc174f8	-0.0059038363
52	0xbc3c330c	-0.01148678
53	0xbda4a83f	-0.08039903
54	0x3dc9136e	0.09818159
55	0x3d007ee6	0.03137102
56	0xbc184dd7	-0.009295902
57	0x3d9d6a36	0.07686274
58	0x3dd4bfb2	0.103881255
59	0xbe4111c0	-0.18854427
60	0x3d87d2c0	0.06631994
61	0xbd489f6b	-0.048980158
62	0xbc213fb2	-0.009841846
63	0x3d3bff33	0.045897674
64	0xbce77125	-0.028252194
65	0x3cf25501	0.029581549
66	0xbdba9dc5	-0.091121234
67	0xbd787ec4	-0.060667768
68	0xbe83ab8b	-0.25716814
69	0x3d9a3f31	0.07531584
70	0xbe62601a	-0.22106972
71	0x3d93e542	0.07221462
72	0x3d6847b1	0.056708995
73	0xbd722e9a	-0.059126474
74	0xbdf288fd	-0.11842535
75	0x3d31e638	0.043432444
76	0x3e038f38	0.12847602
77	0xbd14d40a	-0.03633503
78	0x3d20f166	0.039292715
79	0x3c61f866	0.013792133
80	0x3c998bc8	0.01874341
81	0xbd293422	-0.041309483
82	0xbcd80ee1	-0.026374282
83	0xbe2b8d35	-0.16753085
84	0xbdbbdbf8	-0.09172815
85	0xbd3b152d	-0.04567449
86	0xbd456547	-0.04819229
87	0x3c37ae5d	0.011211005
88	0xbdcd5494	-0.100258976
89	0xbe1b4c00	-0.1516571
90	0xbbd99f06	-0.0066412715
91	0xbe0cfe50	-0.13768888
92	0x3dab52f8	0.083654344
93	0x3dd73685	0.10508446
94	0x3da5d7f8	0.080978334
95	0x3db18970	0.08668792
96	0x3d8f9efb	0.07012745
97	0x3d0bef6f	0.03416389
98	0x3dcdb94b	0.100451075
99	0xbe556462	-0.20839074
100	0xbd65077d	-0.055915345
101	0xbd41e580	-0.04733801
102	0xbe487be1	-0.19578506
103	0xbd07ef87	-0.033187415
104	0xbe437efc	-0.1909141
105	0x3aa4e774	0.0012581185
106	0x3d96b703	0.073591255
107	0xbc62c808	-0.0138416365
108	0xbe8f2da2	-0.27964503
109	0xbe172445	-0.1475993
110	0xbe25e4fe	-0.16200635
111	0xbe23eba6	-0.16007861
112	0xbe01f08a	-0.12689415
113	0xbe27eff4	-0.16400129
114	0xbe0e30e9	-0.13885845
115	0xbd549d32	-0.051907726
116	0xbdc3d830	-0.09562719
117	0xbba291aa	-0.004961212
118	0xbccf8fa2	-0.025337044
119	0x3cf37f1b	0.029723695
120	0xbe8034fa	-0.25040418
121	0xbe8c071c	-0.27349174
122	0xbdd56a15	-0.10420624
123	0xbd516ed6	-0.051131092
124	0xbcda9aad	-0.026685083
125	0x3dd225b5	0.10261098
126	0x3d84b63d	0.06480072
127	0x3c910eec	0.01770731
128	0xbd9399e3	-0.07207086
129	0x3d83d651	0.06437362
130	0x3dbfbfa3	0.09362724
131	0x3dac0298	0.08398932
132	0xbe045a55	-0.12925084
133	0x3941c565	0.0001847945
134	0xbd1c946c	-0.038227484
135	0xbde7fda4	-0.11327675
136	0xbe4d0c7b	-0.20024292
137	0xbe056480	-0.13026619
138	0x3d954097	0.0728771
139	0xbe0373a4	-0.12837082
140	0x3ae25eae	0.0017270648
141	0xbda47249	-0.08029611
142	0xbdf7f1d9	-0.12106676
143	0xbe40fd1c	-0.18846554
144	0xbc88557d	-0.016642326
145	0xbc13725a	-0.0089994315
146	0xbdb71a43	-0.08940556
147	0xbba8941e	-0.00514461
148	0xbcf14c12	-0.029455218
149	0xbb2b6c69	-0.0026157147
150	0x3d883e9d	0.066525675
151	0xbad69271	-0.0016370547
152	0xbda7b77c	-0.08189294
153	0x3ca0983e	0.019603845
154	0xbd809b73	-0.062796496
155	0xbb5bf629	-0.003356347
156	0xbd952287	-0.07281976
157	0x3d1b0210	0.037843764
158	0x3d6165cb	0.055028718
159	0x3dc637b7	0.096785955
160	0xba759219	-0.00093677785
161	0x3b7b7b6e	0.003837313
162	0x3d436c23	0.04771055
163	0xbd238300	-0.039919853
164	0xbd339a0f	-0.043848094
165	0xbd3fe691	-0.046850745
166	0xbdbebd3f	-0.093134396
167	0xbe52b06d	-0.20575114
168	0x3e1ff532	0.15620878
169	0xbbf949fe	-0.0076076975
170	0x3dabd4aa	0.08390172
171	0x3d151652	0.03639824
172	0xbe15a714	-0.14614516
173	0xbe00e3cd	-0.12586899
174	0xbc840485	-0.016115436
175	0xbda89c7f	-0.08232974
176	0x3e1638e2	0.14670137
177	0xbe097206	-0.13422403
178	0xbd753bef	-0.05987161
179	0x3d0506a2	0.03247703
180	0x3d3ae4f6	0.04562851
181	0x3ca1d873	0.019756531
182	0x3d71a3f9	0.058994267
183	0x3cde0778	0.02710317
184	0xbe181c72	-0.14854601
185	0xbda9fe26	-0.08300428
186	0x3b2d135c	0.0026409244
187	0x3ba68218	0.0050814264
188	0x3db40399	0.08789749
189	0xbcacb40d	-0.021081949
190	0x3d3d5419	0.04622278
191	0x3d90832e	0.070562705
192	0x3cca8fb9	0.024726735
193	0xbc60de68	-0.013724901
194	0xbe20349a	-0.15645066
195	0x3c4f0bcc	0.01263709
196	0x3d911a98	0.070851505
197	0xbd389664	-0.0450653
198	0x3df864c0	0.121285915
199	0x3da290ba	0.07937761
200	0x3d860a25	0.06544904
201	0xbda8d2a4	-0.082433015
202	0x3c0e2f93	0.008678335
203	0x3b403ffb	0.002933501
204	0x3d8e3a3e	0.069447026
205	0x3b8dcc77	0.0043273526
206	0x3d9fe586	0.0780745
207	0x3d6ea66c	0.05826418
208	0x3ba199d4	0.004931668
209	0x3b8b4593	0.0042502373
210	0x3d453997	0.048150625
211	0x3d12f75a	0.035880424
212	0xbcf225fd	-0.02955913
213	0x3d275570	0.040852964
214	0xbd0544f1	-0.03253645
215	0x3d7fe1e7	0.062471297
216	0xbe09358a	-0.1339933
217	0xbda553a3	-0.08072593
218	0x3cead153	0.028664267
219	0xbd419eae	-0.04727047
220	0x3dd1fa2e	0.10252796
221	0x3dece21a	0.11566563
222	0xbe180e84	-0.14849287
223	0xbe3a1788	-0.18173039
224	0xbd961804	-0.07328799
225	0xbd4856d6	-0.04891094
226	0xbbd4a64c	-0.0064895507
227	0xbd59593a	-0.05306361
228	0xbe2e17b2	-0.17001227
229	0xbe5b7c6e	-0.21434185
230	0xbe3f59a7	-0.18686543
231	0xbd8e65d6	-0.069530174
232	0xbc9d2ed5	-0.01918737
233	0x3bcda258	0.0062754564
234	0x3da0fe07	0.07860952
235	0x3e28c5da	0.16481724
236	0x3e1f09fc	0.15531152
237	0xbc9cb01f	-0.01912695
238	0x3d139f8f	0.03604084
239	0xbca20d46	-0.01978172
240	0xbddcddc6	-0.107844874
241	0xbdd73f8d	-0.10510168
242	0x3c8817f7	0.01661299
243	0xbbf4964b	-0.0074642054
244	0x3d0f56e4	0.034994975
245	0x3d2aefd1	0.041732613
246	0x3d6ef176	0.058335744
247	0xbe0ac3e1	-0.13551284
248	0x3d0ef7f0	0.03490442
249	0x3e1fdd1c	0.1561169
250	0x3c7cc497	0.01542773
251	0x3c2723f6	0.010201445
252	0x3d8baf69	0.06820566
253	0xbdc44601	-0.09583665
254	0xbd37c35b	-0.04486404
255	0x3d591273	0.05299611

bias f4 [64]
0	0xbe589f69	-0.2115456
1	0x3dcf9abe	0.101369366
2	0x3cff8e39	0.031195747
3	0xbb89f418	-0.0042100064
4	0x3da987ce	0.08277856
5	0xbc5f5805	-0.013631825
6	0x3e599703	0.21249013
7	0xbe856b0d	-0.26058236
8	0x3dacfc76	0.084465906
9	0xbdd3010d	-0.10302935
10	0xbcaf5367	-0.021402074
11	0x3d76f1d1	0.060289208
12	0xbdbbf32f	-0.09177243
13	0x3dab1c0e	0.083549604
14	0xbd4bde87	-0.049772765
15	0x3d424710	0.04743105
16	0xbe18f5cc	-0.14937514
17	0xbc873a1b	-0.016507199
18	0xbd56729c	-0.052355394
19	0x3e311e2f	0.1729667
20	0xbd69e3fb	-0.057102185
21	0x3d232a27	0.03983512
22	0xbe0b1ada	-0.13584462
23	0x3d9ad946	0.07560973
24	0x3dbd9dc4	0.09258607
25	0xbd85704b	-0.06515559
26	0xbd5f634f	-0.054538067
27	0x3e4194e4	0.18904454
28	0x3cd56316	0.026048224
29	0x3deadb5e	0.11467622
30	0xbac548ba	-0.0015051581
31	0xbc27d577	-0.010243765
32	0xbe050887	-0.12991534
33	0xbe2d506d	-0.16925211
34	0xbd8edbb4	-0.06975499
35	0x3d2700bf	0.040772196
36	0xbd56051e	-0.052250974
37	0xbd10821f	-0.035280343
38	0xbd82a0d5	-0.063783325
39	0xbb83986b	-0.0040159724
40	0x3d050195	0.032472212
41	0xbe4e8cf5	-0.20170958
42	0xbd8dba5d	-0.069203116
43	0xbc1cedbc	-0.009578165
44	0xbd2b9a8f	-0.041895445
45	0x3ccdac41	0.025106551
46	0xbdc926d2	-0.098218575
47	0xbe0df66d	-0.13863535
48	0x3d3242c6	0.04352071
49	0xbd69889a	-0.05701504
50	0xbc807485	-0.01568056
51	0xbda0fc28	-0.07860595
52	0xbdafa845	-0.08577017
53	0x3d132d06	0.03593161
54	0xbcf32c71	-0.029684277
55	0x3a2bd4bc	0.0006554832
56	0xbdd44bc1	-0.103660114
57	0xbe5c205d	-0.2149672
58	0xbdbf4323	-0.09338977
59	0x3bf5e826	0.007504481
60	0xbc8b34e3	-0.016992992
61	0x3ba559c6	0.005046102
62	0xbe11c077	-0.14233576
63	0xbe0d0bd5	-0.13774045

weight f4 [64]
0	0x3fe4cd57	1.7875165
1	0x3fc5cf2f	1.5453852
2	0x3fd41c44	1.6571126
3	0x3fc3a348	1.5284204
4	0x3fb808d6	1.4377697
5	0x3fc87570	1.5660839
6	0x3fbf12e0	1.4927635
7	0x3fc6a929	1.5520374
8	0x3fd4979a	1.6608765
9	0x3fd72d55	1.6810709
10	0x3fe614ba	1.7975075
11	0x3fbe43c1	1.4864427
12	0x3fd8135a	1.6880906
13	0x3fbdde29	1.4833423
14	0x3fce2941	1.610634
15	0x3fd334e1	1.6500512
16	0x3fbf4f65	1.4946104
17	0x3fc7d688	1.5612345
18	0x3fceb8a0	1.6150093
19	0x3fc76e14	1.5580468
20	0x3fca0d19	1.5785247
21	0x3fc242d7	1.5176648
22	0x3fcf4a4d	1.619455
23	0x3fbe72d4	1.4878793
24	0x3fd0d6bb	1.631553
25	0x3fd40fc2	1.6567309
26	0x3fbdaf3c	1.4819102
27	0x3fc12f80	1.5092621
28	0x3fbb4d01	1.4632875
29	0x3fbe7139	1.4878303
30	0x3fc03adc	1.5017962
31	0x3fac2304	1.3448186
32	0x3fcee2a9	1.6162921
33	0x3fd03228	1.6265306
34	0x3fe2644f	1.7686862
35	0x3fbb7b5b	1.464702
36	0x3fba4aa1	1.4554025
37	0x3ffacf44	1.9594502
38	0x3fc62fc3	1.5483326
39	0x3fd6ce49	1.6781703
40	0x3fc6cb77	1.5530843
41	0x3fd5a815	1.669192
42	0x3fce70e6	1.6128204
43	0x3fdbf3a2	1.7183726
44	0x3fd05f21	1.6279031
45	0x3fb4533d	1.4087902
46	0x3fc64c24	1.5491986
47	0x3fd86ec8	1.6908808
48	0x3fcddec2	1.6083605
49	0x3fcdcd86	1.6078346
50	0x3fc564f7	1.5421437
51	0x3fd9c3b6	1.7012851
52	0x3fc969ed	1.5735451
53	0x3fbd775c	1.480205
54	0x3fbf3168	1.4936953
55	0x3fbbd466	1.4674194
56	0x3fbb5453	1.4635109
57	0x3fc3f0d9	1.5307876
58	0x3fc4cb9a	1.5374634
59	0x3fcb627e	1.5889432
60	0x3fd64649	1.6740199
61	0x3fcb1dd6	1.586848
62	0x3fd53b9e	1.6658819
63	0x3fce7cf6	1.6131885

bias f4 [64]
0	0xbd3134e1	-0.04326332
1	0xbdc2ab80	-0.09505367
2	0xbdfb8b8a	-0.12282474
3	0xbd1da58f	-0.038487967
4	0xbd441498	-0.047871202
5	0xbc83ac5a	-0.016073395
6	0x3e2eef79	0.17083539
7	0xbd5303e8	-0.051517397
8	0x3cc8ec15	0.024526635
9	0x3d8d681d	0.06904624
10	0x3e15604f	0.1458752
11	0xbe57e36d	-0.2108285
12	0xbb0944b3	-0.002094549
13	0x3c143482	0.009045722
14	0xbc69ac14	-0.014262218
15	0xbe15184e	-0.14560053
16	0x3d645db8	0.05575344
17	0xbe3a624f	-0.18201564
18	0xbe149847	-0.14511214
19	0x3e335c28	0.17515624
20	0xbb03e83a	-0.0020127431
21	0x3d0b6f1a	0.0340415
22	0xbc6d06c5	-0.014466946
23	0x3ddeee22	0.10885264
24	0x3daf7849	0.085678644
25	0x3ba5863e	0.0050514033
26	0xbc43e37c	-0.011956092
27	0x3dd50b73	0.104025744
28	0xbda8e42c	-0.08246645
29	0x3b259ff0	0.0025272332
30	0xbdad895b	-0.08473464
31	0xbe62097f	-0.22073935
32	0xbb1a91da	-0.002358547
33	0x3df6af46	0.120451495
34	0x3df9f1bd	0.12204311
35	0xbe4d24a1	-0.20033504
36	0xbe47bab8	-0.19504821
37	0xbdce4265	-0.100712575
38	0xbe132ac0	-0.14371777
39	0x3d8e0324	0.06934193
40	0x3e08b574	0.13350469
41	0x3de5f968	0.11229211
42	0xbcd033c7	-0.025415314
43	0xbe650de5	-0.22368582
44	0x3d568622	0.052374013
45	0xbd8a75c2	-0.06760742
46	0x3c1e4c32	0.009661721
47	0xbd9ffc5e	-0.07811807
48	0x3d139782	0.03603316
49	0x3d983342	0.07431652
50	0xbd614133	-0.05499382
51	0xbe26b755	-0.16280873
52	0x3dbbb806	0.09165959
53	0x3e353720	0.1769681
54	0x3d64f6c3	0.055899393
55	0x3dcea886	0.10090737
56	0xbe7afee1	-0.24511291
57	0xbcbfb7b8	-0.023403034
58	0x3d95d710	0.073164105
59	0xbd510db2	-0.05103845
60	0x3de13abb	0.1099753
61	0x3d6ee755	0.058326084
62	0x3c89b816	0.016811412
63	0xbe10ac63	-0.1412826

running_mean f4 [64]
0	0x3e2cd5cd	0.16878434
1	0x3f94fb68	1.1639223
2	0x3f0358ef	0.51307577
3	0x3f3f4cb6	0.74726427
4	0x3f5453a4	0.82940125
5	0x3ed41239	0.41420153
6	0x3f53a846	0.8267864
7	0x3e55c950	0.20877576
8	0x3f106cb7	0.56415886
9	0x3f4370b5	0.7634385
10	0x3f7d6d79	0.98995167
11	0x3eb54b3f	0.3540897
12	0x3e4d954a	0.2007648
13	0x3f5c8061	0.8613339
14	0x3ed6f104	0.41980755
15	0x3eeb9edc	0.46019638
16	0x3f606e41	0.87668234
17	0x3f051feb	0.5200183
18	0x3eba6030	0.3640151
19	0x3f5275df	0.82211107
20	0x3f58b019	0.84643704
21	0x3f7fc96c	0.9991672
22	0x3ef19fa3	0.47192106
23	0x3f10c993	0.5655758
24	0x3ed75300	0.4205551
25	0x3e2faa36	0.17154774
26	0x3f0cbb0d	0.54972917
27	0x3f3877b0	0.7205763
28	0x3f6e985f	0.9320125
29	0x3f411a4e	0.7543076
30	0x3f0d4052	0.5517627
31	0x3f0bf10b	0.5466468
32	0x3ea9f8a2	0.33197504
33	0x3ee1735b	0.44033322
34	0x3f29d031	0.663333
35	0x3f0a3411	0.539857
36	0x3eef3df1	0.46726945
37	0x3eefc0ef	0.46826884
38	0x3f2530f8	0.64527845
39	0x3f160c57	0.5861258
40	0x3f4839a1	0.78212935
41	0x3ee53c90	0.44772768
42	0x3eccc750	0.39995813
43	0x3e7d6675	0.24746116
44	0x3eb51400	0.3536682
45	0x3f5abfa8	0.85448694
46	0x3edeeba4	0.43539155
47	0x3ecaf618	0.3964088
48	0x3f14466c	0.57919955
49	0x3f01fe3b	0.5077855
50	0x3f9c0a28	1.21906
51	0x3e96b72f	0.29436633
52	0x3eb65d94	0.3561827
53	0x3f0beac7	0.54655117
54	0x3f921bb7	1.1414708
55	0x3ee52cb0	0.44760656
56	0x3ec68329	0.38771942
57	0x3e3a12a9	0.18171181
58	0x3edfc196	0.43702382
59	0x3ea6d374	0.325832
60	0x3f0fdea7	0.56199116
61	0x3f6f38d1	0.9344607
62	0x3ef92b46	0.48665828
63	0x3ed24cbd	0.41074172

running_var f4 [64]
0	0x3e63f741	0.22262289
1	0x3fea82c4	1.8321157
2	0x3f5b1d45	0.85591537
3	0x3fc9d544	1.5768209
4	0x3f90f1f0	1.1323833
5	0x3f096eee	0.5368489
6	0x3f319872	0.6937324
7	0x3e8ede4d	0.27903977
8	0x3f1f9fcb	0.623532
9	0x3f820f9f	1.0161017
10	0x3fb85515	1.4400965
11	0x3f0e6d2a	0.5563532
12	0x3e8ab7f4	0.2709347
13	0x3fb480bd	1.4101788
14	0x3eef2038	0.46704268
15	0x3f38fded	0.7226246
16	0x3fc55f86	1.5419776
17	0x3f966e5e	1.1752431
18	0x3f2c7168	0.67360544
19	0x3f59cd34	0.8507874
20	0x3f9ff2bb	1.249595
21	0x3fd53984	1.6658177
22	0x3f43d3ed	0.7649525
23	0x3f1fd9a0	0.62441444
24	0x3f047add	0.51749974
25	0x3e2a30a4	0.16620117
26	0x3f1302c9	0.57426125
27	0x3f29a97d	0.66274244
28	0x3ffb71b1	1.9644071
29	0x3f5e7fd0	0.86913776
30	0x3f91808b	1.1367353
31	0x3f23d927	0.64003223
32	0x3ee15076	0.440067
33	0x3f2f03aa	0.68364966
34	0x3f6f1607	0.93392986
35	0x3f63eb24	0.8903067
36	0x3f42f1ca	0.7615019
37	0x3f28fb9b	0.6600892
38	0x3fc87cee	1.5663126
39	0x3f7e5928	0.9935479
40	0x3f4ed474	0.8079293
41	0x3f25d64c	0.64780116
42	0x3f169afd	0.58830243
43	0x3e9f5903	0.31122598
44	0x3ee865f2	0.45390278
45	0x3fcff9e7	1.6248139
46	0x3f1f04c6	0.6211666
47	0x3f243f64	0.64159226
48	0x3f37a793	0.7174007
49	0x3f06350f	0.5242471
50	0x401efe78	2.4842815
51	0x3f015996	0.5052732
52	0x3eeef65c	0.46672332
53	0x3f091441	0.5354653
54	0x40014c54	2.0202837
55	0x3ef54d6e	0.47910637
56	0x3f283f76	0.65721834
57	0x3e8c2397	0.27370903
58	0x3eefb6f2	0.46819264
59	0x3f124aaf	0.5714521
60	0x3f54f105	0.83180267
61	0x3fb4248e	1.4073656
62	0x3f546474	0.8296578
63	0x3f2200dd	0.6328257

weight f4 [10, 64]
0	0xbe9282db	-0.2861546
1	0xbeb31ffe	-0.34985346
2	0x3e50a82c	0.20376652
3	0xbe16b01d	-0.1471562
4	0x3cb1c8fc	0.021702282
5	0xbd1852a3	-0.037188184
6	0x3dd2a5aa	0.10285504
7	0x3ebac1c1	0.36475947
8	0x3ec15457	0.3775966
9	0x3eb5e926	0.3552944
10	0x3ed502c7	0.4160368
11	0xbe128ef4	-0.14312345
12	0xbe73473b	-0.23757641
13	0x3dcfa21f	0.10138344
14	0xbe66b7c9	-0.22531046
15	0xbea2b8b5	-0.31781545
16	0x3e685835	0.22689898
17	0xbe17a3a1	-0.14808513
18	0xbe9759f5	-0.2956082
19	0xbdd98f16	-0.106229946
20	0xbe485a3a	-0.19565669
21	0xbe873b1b	-0.2641228
22	0x3ea2bc88	0.31784463
23	0x3e1e3304	0.15449148
24	0xbe7a107a	-0.24420348
25	0xbe5a8944	-0.21341425
26	0x3ea0015c	0.31251037
27	0xbeb7c886	-0.35895175
28	0x3dc76434	0.09735909
29	0xbcbf6eb7	-0.023368223
30	0x3bbb625f	0.005718514
31	0xbe474d09	-0.1946298
32	0xbe654f93	-0.22393636
33	0xbe3a1c0e	-0.18174765
34	0xbd879d54	-0.06621805
35	0x3e369ee1	0.17834045
36	0xbe553940	-0.2082262
37	0xbeceeaad	-0.40413418
38	0xbe242a42	-0.16031745
39	0x3ece0723	0.4023982
40	0x3ec818c0	0.39081383
41	0x3ea1778a	0.31536514
42	0xbe42cc2d	-0.190232
43	0xbe56721f	-0.20941971
44	0x3eef6d55	0.467631
45	0x3deb8d27	0.11501532
46	0xbe6a5baf	-0.22886537
47	0x3ebf23e2	0.37332064
48	0x3eca1e71	0.3947635
49	0xbe5b8d14	-0.21440536
50	0xbcdd4d12	-0.027014289
51	0xbdc9b099	-0.098481365
52	0xbe304c24	-0.17216545
53	0x3e4b9f2b	0.19884937
54	0x3d1bafbc	0.03800939
55	0x3d6910bc	0.056900725
56	0xbe38bef2	-0.1804159
57	0x3c152265	0.009102439
58	0xbe4a3f4f	-0.19750713
59	0x3e67c6dd	0.22634454
60	0x3ed4e59e	0.41581434
61	0xbe19fd05	-0.15037926
62	0x3e48ac70	0.1959703
63	0x3d4a6dd8	0.04942116
64	0x3edd79f8	0.43257117
65	0xbeafa860	-0.34308147
66	0x3e7c3844	0.24630839
67	0xbe88d967	-0.26728365
68	0x3cfa6f39	0.030570613
69	0xbf03fedb	-0.51560754
70	0xbd3e172e	-0.046408825
71	0xbf010d03	-0.5041048
72	0xbebe5f09	-0.3718188
73	0xbed12f99	-0.40856627
74	0xbee8eebe	-0.45494646
75	0xbe497896	-0.19674906
76	0x3e5511ed	0.2080762
77	0xbe5f9d14	-0.21837264
78	0xbeebbabd	-0.46040908
79	0x3c72b41e	0.014813451
80	0xbea60445	-0.32425132
81	0x3d5cb948	0.053887635
82	0xbebaea81	-0.36507037
83	0xbcaa0614	-0.020754851
84	0xbe6429dc	-0.22281593
85	0xbe86f545	-0.26359
86	0x3d257a24	0.040399686
87	0x3dd3ec2c	0.103477806
88	0x3eb6fbe5	0.35739055
89	0x3ec4c830	0.3843398
90	0xbe02c30f	-0.12769721
91	0x3d055f13	0.032561373
92	0xbe66584d	-0.22494622
93	0x3d90e0e5	0.07074145
94	0xbe69c5a7	-0.22829305
95	0xbe446d7e	-0.19182393
96	0x3e55e0b4	0.20886499
97	0x3eab6aff	0.3348007
98	0xbf03d9b0	-0.5150404
99	0xbe8c857e	-0.27445596
100	0xbe039c57	-0.12852608
101	0x3efbaf25	0.49157062
102	0xbd1888cd	-0.03723984
103	0x3e9ec8ce	0.31012577
104	0x3db218c4	0.0869613
105	0x3e2a21b3	0.16614418
106	0x3ea876b0	0.3290305
107	0x3d7f1415	0.06227501
108	0xbeba806b	-0.364261
109	0x3d87a13b	0.06622549
110	0xbe2623c8	-0.16224587
111	0xbd29d016	-0.04145821
112	0x3e914e55	0.28380075
113	0xbeb48b22	-0.352624
114	0xbe3c579c	-0.18392795
115	0xbb6273fa	-0.003455399
116	0x3e9597f7	0.29217502
117	0x3e05fda6	0.1308504
118	0xbdddb3e1	-0.10825325
119	0xbb25c4fc	-0.0025294414
120	0xbdff1279	-0.12454695
121	0xbe975041	-0.29553416
122	0xbe28848f	-0.16456817
123	0x3dfb857b	0.12281319
124	0x3e6b4534	0.22975618
125	0xbee631a5	-0.4495975
126	0x3df15ade	0.1178491
127	0xbd56a872	-0.052406736
128	0x3ec3b276	0.38222092
129	0x3e9b5dfc	0.30345142
130	0xbe2a9519	-0.16658439
131	0xbc68c6e9	-0.01420758
132	0x3d5bb34b	0.053637784
133	0x3e71ab60	0.2360053
134	0x3db03753	0.08604302
135	0xbcbce82d	-0.023059929
136	0xbe5f5b2c	-0.21812123
137	0xbdb6e640	-0.089306355
138	0xbe96b208	-0.29432702
139	0xbdb4fff6	-0.08837883
140	0x3dd82bfb	0.105552636
141	0xbe30b52c	-0.17256612
142	0x3e49390e	0.19650671
143	0x3ded6c6d	0.11592946
144	0xbdb1e9a3	-0.08687141
145	0xbdfcdbe3	-0.123466276
146	0x3ea54617	0.32280037
147	0x3dfc4801	0.12318421
148	0xbe84ce93	-0.25938854
149	0x3e3801ca	0.17969432
150	0xbc693e87	-0.014236099
151	0x3e44f0bb	0.19232456
152	0x3da89295	0.08231083
153	0xbcd60a78	-0.026128039
154	0x3e7c9c6d	0.24669047
155	0x3d8353f0	0.06412494
156	0xbe08f425	-0.13374384
157	0x3e1d4bc9	0.15360941
158	0xbe24e141	-0.16101553
159	0xbcecce6e	-0.028907027
160	0x3ed452c3	0.41469392
161	0xbe4a27ed	-0.19741793
162	0xbcbc2dfe	-0.02297115
163	0xbc3135e6	-0.010816073
164	0xbe3ec453	-0.18629579
165	0x3edfb8e9	0.43695763
166	0xbe2bf693	-0.1679328
167	0xbe976892	-0.29571968
168	0x3e736dd8	0.23772371
169	0xbed96f5c	-0.42467773
170	0xbe98d9fb	-0.29853806
171	0x3ea9643e	0.3308429
172	0xbe187e46	-0.1489192
173	0xbe7b1153	-0.24518327
174	0x3e9f98c7	0.31171247
175	0xbd49a798	-0.049232095
176	0xbe96a3e5	-0.29421917
177	0xbeacf390	-0.33779573
178	0xbd8b64df	-0.06806349
179	0xbd86067a	-0.06544204
180	0xbe8f925a	-0.28041345
181	0xbc84bed5	-0.016204277
182	0xbdc073b0	-0.09397066
183	0x3eac945e	0.33706945
184	0xbd318aef	-0.043345388
185	0xbc843f16	-0.016143363
186	0xbdb936e3	-0.09043672
187	0xbe25ea01	-0.16202547
188	0xbe641152	-0.22272232
189	0x3e3ed910	0.1863749
190	0xbc939ac1	-0.018018128
191	0x3eda1bdf	0.4259939
192	0xbe341fbf	-0.17590235
193	0x3ee57908	0.44818902
194	0xbeb25bfd	-0.34835806
195	0x3ea0c33a	0.31398946
196	0x3e974f87	0.29552862
197	0xbe910407	-0.28323385
198	0xbe2bc1e9	-0.1677319
199	0xbe8dc1cc	-0.27686918
200	0xbe14dd62	-0.14537576
201	0x3e8af9f1	0.27143815
202	0x3e668688	0.22512257
203	0x3dc22b3f	0.09480905
204	0xbe55edc3	-0.2089148
205	0x3e1dd934	0.15414888
206	0xbe6cef0d	-0.23138066
207	0x3e6370dc	0.22211021
208	0x3e70a164	0.23499066
209	0x3e8211c2	0.25404173
210	0xbd19b9cc	-0.037530705
211	0xbe42d973	-0.19028263
212	0x3e4d901c	0.20074505
213	0x3e63adf7	0.22234331
214	0x3e7885b2	0.2426975
215	0xbe94ba6d	-0.29048482
216	0xbe527309	-0.20551695
217	0xbe8f5ced	-0.28000584
218	0xbe87e5e3	-0.26542577
219	0xbe49ae05	-0.1969529
220	0x3e8cfd30	0.27536917
221	0xbe63b55a	-0.22237149
222	0x3e3911ba	0.18073168
223	0x3e913297	0.2835891
224	0xbe3fdda6	-0.18736896
225	0x3eae6737	0.34063122
226	0xbcd1ea05	-0.025624285
227	0x3deffcb4	0.11718121
228	0x3e06d26b	0.13166206
229	0xbe72b310	-0.2370112
230	0x3e19ee86	0.15032396
231	0xbed66f13	-0.41881618
232	0xbe4a2b1c	-0.19743007
233	0xbe97a641	-0.2961903
234	0x3e211183	0.15729336
235	0xbd4789c9	-0.048715387
236	0xbd96b303	-0.073583625
237	0x3e2ef8a2	0.17087033
238	0xbe93c991	-0.2886472
239	0xbc04b443	-0.008099618
240	0xbea705b5	-0.32621542
241	0xbdba9075	-0.09109584
242	0x3e3807cf	0.17971729
243	0xbeb3f943	-0.3515111
244	0xbe235b08	-0.15952694
245	0xbe4d1683	-0.20028119
246	0x3e9e9b72	0.3097797
247	0xbd987ed4	-0.074460655
248	0x3db45a63	0.088063024
249	0xbe25b670	-0.16182876
250	0xbe4566c7	-0.19277488
251	0x3de705f9	0.11280436
252	0xbea4be01	-0.3217621
253	0x3e8b51f9	0.27210978
254	0xbd297ca3	-0.04137863
255	0x3e27d2dd	0.16389032

bias f4 [10]
0	0x3e2870a4	0.16449219
1	0x3d8852f7	0.06656449
2	0xbd2fff26	-0.042967938
3	0xbd98b3dc	-0.074561805
4	0x3deedbf1	0.11663044
5	0x3d984919	0.07435817
6	0x3e1b64a7	0.15175115
7	0x3ddcb55b	0.10776778
8	0xbe694299	-0.22779311
9	0xbd42f309	-0.047595058
