Models/cloud_no_electric.pt (torch, 115019 bytes, 26 tensors)

weight f4 [8, 2, 5, 5]
000000 e9 9f e2 bd fd 4f c3 3c 4e 7b ee 3d 2e 7f 37 3e
       -0.11065657 0.023841852 0.11644612 0.17919609
000010 ae e2 b9 be ba d9 9a be 03 92 61 3b ed 68 6c be
       -0.36305755 -0.30244237 0.0034419305 -0.23086901
000020 31 35 37 be 94 59 29 be 40 3c 3b be c0 6c 03 3e
       -0.17891385 -0.16538078 -0.18284702 0.12834454
000030 46 41 08 3d b0 a4 72 3e d3 55 19 3d e8 7a 51 be
       0.033265375 0.23695636 0.037435364 -0.20457041
000040 7e b8 5f be 1c ce 76 be e0 ca ca bb ae 7f c0 bc
       -0.21847722 -0.24102062 -0.0061887354 -0.023498382
000050 1f bf 2c be b9 c0 09 be 0d 84 27 3e 4f a2 c0 be
       -0.16869782 -0.13452424 0.16358967 -0.37623832
000060 74 87 71 bd a4 86 e7 3d 15 0c c3 bd 65 7f ad 3d
       -0.05896707 0.113049775 -0.09523789 0.08471564
000070 e1 59 33 be 37 25 47 be dd 9c 26 3d 9d 38 b1 3c
       -0.17514755 -0.1944779 0.04067694 0.02163344
000080 e1 f5 dc be e4 ea ef bd f5 cb b8 be 52 b2 e0 bc
       -0.4315634 -0.11714724 -0.36093107 -0.02742878
000090 89 5b 0d 3e 97 04 ce be 4f d8 78 bd b9 ca 52 bd
       0.13804449 -0.40237877 -0.060753163 -0.051462863
0000a0 9d e3 27 bd 46 a0 f1 be 13 f2 39 3e 9e 56 18 3e
       -0.040988553 -0.4719259 0.1815875 0.14876792
0000b0 17 d6 1d bc 77 0d 5a be 16 e3 00 3e 34 02 51 3e
       -0.0096335625 -0.21294199 0.12586626 0.20410997
0000c0 48 cc 5c 3c 7a da d5 3c 1a a5 63 3e 90 d3 ec ba
       0.013476439 0.026105154 0.2223095 -0.0018068422
0000d0 7c 7c 92 be e4 00 af 3c 60 29 97 3d a8 a9 0f 3e
       -0.286106 0.02136273 0.073809385 0.14029562
0000e0 a6 1e 10 3c 24 ea d9 bc 71 89 a2 be 52 e8 b3 3e
       0.00879637 -0.026600905 -0.31745484 0.35138184
0000f0 44 3a 58 3e c7 2b 11 3e fc b5 64 be 11 3e 58 3e
       0.21115977 0.14176856 -0.22335047 0.21117426
000100 d7 7a 6f 3e d0 60 26 3f aa 1b 62 3d 34 62 49 3e
       0.23386703 0.64991474 0.055202164 0.19666368
000110 49 f6 15 be 6e 43 b1 3d 28 f9 7f 3e b1 0a a5 3e
       -0.14644732 0.08655439 0.2499739 0.3223472
000120 47 fc ad 3e 2e e8 c8 3e 45 83 3d 3e b2 b4 28 be
       0.33981535 0.3923964 0.18507107 -0.1647518
000130 e6 e5 35 3e a2 ae 8e 3e 1e 15 d2 be c8 cf a9 bd
       0.1776348 0.2786761 -0.41031736 -0.08291584
000140 85 dd 51 be be 32 c9 be b4 ff d3 3b df 90 20 3e
       -0.20494659 -0.39296526 0.006469691 0.15680264
000150 f7 0d 6f 3e f8 bd 2b be 5c 98 67 bd 51 30 e7 3c
       0.23345171 -0.16771686 -0.056541786 0.028221281
000160 66 03 58 bd e5 10 f4 bd 04 6e 8a be 7f cb cf bd
       -0.052737616 -0.11917285 -0.2703706 -0.10146236
000170 b4 18 71 be 11 04 47 3d e9 e5 57 be 88 97 cd 3d
       -0.2354458 0.048587862 -0.21083798 0.10038668
000180 ba be 17 3e c0 6b 8e 3e ef c6 12 3e 4a 26 c7 3d
       0.1481885 0.27816582 0.143337 0.097241
000190 a1 e3 99 bc 0f 21 31 bd 1d 4d c0 bd 6e 21 80 be
       -0.0187853 -0.043244418 -0.09389708 -0.25025505
0001a0 bc aa ac 3c f4 03 3d 3c 94 e0 9b 3e 53 9f d0 3e
       0.021077506 0.011536587 0.30444777 0.40746555
0001b0 cb fc 07 3e 01 de a3 3e 19 8f ea 3d ab ec 9b 3d
       0.13280027 0.32005313 0.11453075 0.076135
0001c0 68 e4 b4 3e 1c 62 6a 3e 3b 5c 97 be 02 d7 04 3e
       0.3533051 0.22888988 -0.29562554 0.12972644
0001d0 6e 7f 12 3e 06 7e bb bd c1 2f 16 3f 77 8e 82 3e
       0.14306423 -0.091548964 0.58666617 0.25499317
0001e0 6f d6 b2 3d f2 e4 1d bd de b6 67 3e 3b a0 44 bd
       0.08732306 -0.038548417 0.22628352 -0.04800437
0001f0 ca 00 d2 bc bf b5 14 bd 34 0f 26 bd 36 d3 ed 3c
       -0.025635142 -0.03630614 -0.040541843 0.029031377
000200 e2 17 12 bd 53 51 0f 3d 91 c6 9e bd 87 9b 70 be
       -0.035667308 0.034989666 -0.07752717 -0.23496829
000210 4b bf 08 be 25 5c 79 be f0 c1 53 be 03 e5 46 be
       -0.13354222 -0.24351557 -0.2067945 -0.19423299
000220 21 79 65 bd 4b 62 ae be 8c 1d ee bd 36 3e 32 be
       -0.05602372 -0.34059367 -0.11626729 -0.17406544
000230 2d e5 14 be 9a b3 5c be 94 c3 c0 be e4 5a 74 3d
       -0.14540549 -0.21552888 -0.37649214 0.059656993
000240 de 87 12 be 7d 29 50 bd b2 8a 8a bc ca 5f fb bd
       -0.14309642 -0.050820816 -0.016911838 -0.1227413
000250 95 be 09 be 7c c5 b3 bc d9 c7 a9 3d 3f bc c9 3e
       -0.13451608 -0.021944754 0.08290071 0.39401433
000260 4f 5a 10 3d 70 f3 b1 bd be 47 44 3e f4 66 1a 3e
       0.035242375 -0.0868901 0.19167992 0.15078336
000270 83 da 8f bd 0d 73 57 3d c1 73 f9 3c 7f 34 55 bd
       -0.070241 0.052599955 0.030450704 -0.052052017
000280 24 b9 04 bd c1 29 46 3e ac f8 ba bd 20 21 1f 3e
       -0.032403126 0.19351865 -0.09129462 0.1553998
000290 e7 ac a1 3d 08 ac 1f be fd 63 82 be 50 22 a2 bc
       0.07894307 -0.15592968 -0.2546691 -0.019791752
0002a0 a9 08 b8 3d e3 46 1c 3e 4c 75 19 3d 2a 23 f7 bc
       0.08986027 0.15261416 0.03746538 -0.030168135
0002b0 5d ca 58 be 2e fe ac be 8e df c8 3d 7d 9a 95 3e
       -0.21170945 -0.33787674 0.09808265 0.29219428
0002c0 64 9e 81 3e 84 23 eb 3e d5 5f f5 3c 45 8e fc bd
       0.25316155 0.45925534 0.029952923 -0.12331823
0002d0 f4 c8 8c be 81 c3 9c 3d 25 8e 8d bd 3f 54 f1 3d
       -0.27497065 0.07654477 -0.069118775 0.11783647
0002e0 0a d5 af 3b d5 64 3e bd 76 89 03 be 75 41 6f bd
       0.0053659724 -0.04648288 -0.12845406 -0.058412034
0002f0 5a ee 0e 3e 21 49 b4 3c 55 92 25 be a4 92 37 be
       0.13958111 0.022007527 -0.16169102 -0.17927033
000300 f0 cc 36 3c 2c 61 a1 be a3 0a 01 bc 24 bc 36 3e
       0.011157259 -0.3151945 -0.007876071 0.17845207
000310 78 e4 02 be 79 8c 8d bd db 16 04 bf 88 8d ac 3d
       -0.12782466 -0.06911559 -0.51597375 0.084254324
000320 e0 8c 14 3e 5a ca 75 3e 87 32 b0 bd c4 b1 e5 3d
       0.14506865 0.24002972 -0.08603387 0.11215547
000330 8c af 6c 3e c8 e3 cc bd d3 93 94 bd 6e ce bc bd
       0.23113841 -0.10004383 -0.07254758 -0.09219061
000340 64 ee 32 bd 2a 16 7d 3e c6 66 0a 3d 83 65 ca 3e
       -0.04368438 0.24715486 0.03378942 0.39530572
000350 3f ca 1f 3d a1 95 9b 3e e5 e3 07 3e 71 5b 07 3e
       0.039011236 0.30387595 0.13270529 0.13218476
000360 60 72 73 3e 38 14 94 be 00 0b 89 3d 23 b6 58 3e
       0.237741 -0.28921676 0.06691551 0.2116323
000370 4f 2f 84 3e 7a c4 22 bd 40 40 bd 3d e6 99 6a bd
       0.25817344 -0.039738156 0.0924077 -0.057275675
000380 75 c0 6a 3e 41 52 9f bc 29 39 ad be 9b d7 cd 3e
       0.22924979 -0.019448401 -0.33832672 0.40203556
000390 a4 b8 27 3e 33 2e 0b 3d 48 23 b5 be 85 05 c1 bd
       0.16379029 0.033979606 -0.3537848 -0.09424881
0003a0 4e b2 3e be 19 4e ab bd 90 49 b0 be b6 a0 e8 bd
       -0.18622705 -0.08364505 -0.34431124 -0.11358778
0003b0 d5 51 d6 be 7a 3c 59 3e 36 58 28 be 93 69 13 bf
       -0.41859308 0.21214476 -0.164399 -0.5758297
0003c0 7c 95 51 3d 01 81 93 3c 11 ca 97 be c7 35 b9 be
       0.05116795 0.01800585 -0.29646352 -0.3617384
0003d0 a1 c3 a7 be 5c 1a eb 3c 7d c3 e8 bd 8d b4 23 3d
       -0.3276644 0.028699093 -0.113654114 0.03996711
0003e0 e2 9d 8c 3d be 9f 76 bc 0b 9c 9d 3d ca dd cf 3d
       0.06866051 -0.015052734 0.076957785 0.10149725
0003f0 e0 f4 de 3d d6 71 00 3d b3 25 74 3d 3b 32 71 3e
       0.1088655 0.031358562 0.059606265 0.23554318

bias f4 [8]
000000 45 15 30 bd 6e cb c2 bd b7 ad ad 3e 2b 67 cb 3d
       -0.042989034 -0.095114574 0.33921596 0.09931787
000010 79 25 2d 3e 47 b0 96 3d 59 14 c4 bd 2c 75 51 bb
       0.16908826 0.07357841 -0.095741935 -0.003196071

weight f4 [8]
000000 39 b5 81 3f cc f2 8c 3f 41 46 73 3f e1 5b 84 3f
       1.013343 1.1011596 0.95029074 1.0340539
000010 55 88 63 3f 61 37 7c 3f 6e 43 67 3f 3a c7 8c 3f
       0.888799 0.98522 0.90337265 1.0998299

bias f4 [8]
000000 05 e8 56 3d ed 92 12 be 41 03 92 3d 60 c9 63 3d
       0.052467365 -0.1431386 0.07129527 0.055611968
000010 c7 de 2d 3e 77 52 ec 3b b9 ea ce bc 15 b6 68 3d
       0.16979514 0.007211979 -0.025258409 0.056814272

running_mean f4 [8]
000000 57 97 ae 42 6f c2 73 40 c9 53 45 41 34 8f c9 40
       87.295586 3.8087423 12.332955 6.298731
000010 2a c4 4b 41 bb 80 59 40 ed ed 55 40 d1 c0 25 40
       12.735392 3.398482 3.3426468 2.5898936

running_var f4 [8]
000000 fe 77 4e 45 f3 bc 24 43 b5 c6 8d 42 dd 25 ec 42
       3303.4995 164.73808 70.8881 118.07395
000010 dc eb c1 42 d4 77 8b 42 83 eb cd 42 44 b5 85 42
       96.96066 69.73404 102.959984 66.854034

weight f4 [16, 8, 3, 3]
000000 50 fb 15 3c 8b d4 65 bc 77 7a 5b 3e 0d 09 4e bd
       0.009154156 -0.014027725 0.21433435 -0.0503016
000010 fe 97 23 be 63 38 d0 bb ce 99 94 bd 72 7b ca bd
       -0.15975949 -0.006354378 -0.072558984 -0.098868266
000020 be 97 4f 3e df bd 45 3d 28 ba 45 3e bc 98 65 3e
       0.20272729 0.04827678 0.19309294 0.22421545
000030 1c 14 bc bc 74 17 67 bd 3a fc 0c bd f4 77 c3 bd
       -0.022958808 -0.05641885 -0.03442023 -0.095443636
000040 39 ce 07 be af 52 69 be 16 b4 61 bd 59 62 8f be
       -0.13262261 -0.22785448 -0.055103384 -0.2800472
000050 df bf b9 bd 50 71 37 3e 61 47 5d 3c 6e 7d 72 3e
       -0.090698 0.17914319 0.013505788 0.2368066
000060 89 4a 39 bd 7c 08 ef 3d 42 dc 00 be 09 fc 33 3e
       -0.045237098 0.1167154 -0.12584022 0.17576613
000070 4d f1 fc 3d de f2 05 3e 27 86 56 3e 89 e4 a0 3d
       0.12350712 0.13080928 0.20949613 0.078560896
000080 e6 39 97 3d 19 e9 02 3e ea 58 90 3d ac 11 67 3e
       0.0738409 0.12784232 0.07048209 0.22565335
000090 0c f7 ba bd 5d 0a 8c 3e fd 61 56 bd 81 51 19 bd
       -0.09129152 0.27351657 -0.052339543 -0.037431244
0000a0 83 0e 90 3d a8 e5 65 bd f5 e8 35 be a1 0b 3a bd
       0.07034018 -0.05612722 -0.17764647 -0.045421246
0000b0 60 91 9f 3d 3d fb 99 3d 48 bc 0a 3e e3 1b 47 3e
       0.077914 0.07518623 0.13548386 0.19444232
0000c0 b5 0e aa 3e 08 9c df 3d 3c ca 9f bc 6a c1 d4 bd
       0.33214346 0.109184325 -0.019505613 -0.10388453
0000d0 19 2a f7 3d 26 a3 f8 3d 85 bb 07 3e 5d 53 52 3d
       0.12068576 0.12140493 0.13255127 0.051349033
0000e0 73 43 9b bd 10 cc 9c bc 1d 1d 98 3c 29 1e a1 3d
       -0.07581224 -0.019140273 0.01856857 0.07867081
0000f0 42 ae fa bd d8 db d0 3c cc 72 98 ba 0a 79 12 be
       -0.12240268 0.025495455 -0.0011630892 -0.14303985
000100 66 45 9f be 7b f8 57 3e b6 ec df 3b 83 bf ec 3d
       -0.31107634 0.21090882 0.006833638 0.115599655
000110 00 dc a6 be ff d3 85 be 40 5f 8a be cd 96 f4 bd
       -0.32589722 -0.26138303 -0.27025795 -0.119428255
000120 3c 87 80 bd 75 73 85 bd 9d 46 63 3d 62 3e b5 bc
       -0.06275794 -0.06516162 0.055487264 -0.022124473
000130 f9 a6 ab bc 8b c5 2d 3e 09 6a 0f 3e cc ba 44 bd
       -0.020953642 0.16969888 0.14005293 -0.048029706
000140 ac 64 2c 3e 7d 0d 86 be 3e eb 6c 3d a9 68 49 be
       0.16835278 -0.26182166 0.057841532 -0.19668831
000150 59 7f 9b 3e e4 ff ac bb 4d 94 80 bd 55 51 36 3e
       0.30370596 -0.005279528 -0.06278286 0.17804463
000160 2f 6d 65 3b 16 8d 41 bc 58 6c 1f bb 41 18 72 bd
       0.0035007705 -0.011813423 -0.0024326053 -0.05910516
000170 5c 63 b2 3d ee 0d 00 be df 20 32 be 72 62 a6 3e
       0.087103575 -0.12505314 -0.17395352 0.32496983
000180 48 03 38 be 96 a4 38 3e 7b 32 b1 3e a8 59 96 3e
       -0.17970002 0.18031535 0.34608826 0.29365277
000190 3a 15 5e 3e e2 50 95 3d f9 c5 d4 3c 28 41 1b bd
       0.21687785 0.07290818 0.025973307 -0.037903935
0001a0 06 15 01 ba c3 dd 0b be be 7d 78 3d db a3 b8 bc
       -0.0004924092 -0.13658814 0.060666792 -0.02253907
0001b0 9b 41 81 3b 32 e8 c5 3d 26 16 88 3d ce 1e 51 bd
       0.0039445884 0.09663428 0.066448495 -0.05105477
0001c0 e3 9b 1a bc 18 4f 3b 3e cc 28 2c bd 85 13 35 be
       -0.00943658 0.1829189 -0.042031094 -0.17683227
0001d0 fe 0f 9a 3d 2d 46 1c 3e 3d 9c 8c bd 49 1f 80 3d
       0.075225815 0.15261145 -0.068657376 0.06255967
0001e0 87 26 cb 3d 73 04 44 3e 29 6b ba be 4b 12 2f 3d
       0.09919458 0.19142322 -0.36409882 0.042742055
0001f0 96 1b b0 bd 12 74 ac 3d 7a 35 59 3e 53 17 c3 3b
       -0.085990116 0.08420576 0.21211806 0.005953708
000200 1e f9 19 bc 75 db d6 bd d4 3f 28 be cc 7f 94 bc
       -0.009397773 -0.10491077 -0.16430598 -0.018127345
000210 f3 55 a2 3d e2 76 5a 3c 4f e7 36 bd 72 df fa 3d
       0.0792655 0.013334008 -0.044654187 0.1224965
000220 21 2e 05 3e ba 2c 01 bd de ad 91 be 38 2d ca bd
       0.13005878 -0.031536795 -0.28452963 -0.09871906
000230 8e e5 49 be 93 df b9 bd 60 2f 99 bd bc e4 bb 3d
       -0.19716474 -0.090758465 -0.07479739 0.09174487
000240 12 d1 55 bc 31 a6 82 3e 75 32 42 3e fb 5e 29 3e
       -0.0130503345 0.2551742 0.1896456 0.16540138
000250 b0 b6 05 3e 10 0e 3a be ab 98 13 3d 69 b3 73 3e
       0.13057971 -0.18169427 0.036034267 0.23798908
000260 52 2c fa 3c 88 23 96 3d fc 34 bd 3d d2 25 16 3e
       0.030538712 0.07330996 0.092386216 0.14662865
000270 93 37 00 be d6 2b 22 3d 70 66 09 bc 32 0c a8 3d
       -0.125212 0.039592586 -0.008386239 0.08205451
000280 5b 79 1d 3e 8d 12 32 3e 53 a0 a6 3d 1c 02 85 bd
       0.15378325 0.17389889 0.08136048 -0.06494543
000290 a5 c4 c4 3c 9b 6f 9b 3c c2 31 a3 bd b1 2d cd bd
       0.024019549 0.018974116 -0.07968475 -0.100184806
0002a0 1d 92 f7 bd 6e f2 40 bb 48 3a 1f bd 8f 88 95 3e
       -0.12088416 -0.0029441374 -0.03887394 0.29205748
0002b0 c0 c5 ce 3d 2e 7c 45 3e ae 5d 57 3c b9 38 c8 3d
       0.100963116 0.19285652 0.013144894 0.09776444
0002c0 82 a0 89 bd c7 0d a5 be 5d 4f cd be 57 92 9d be
       -0.067200676 -0.32237074 -0.40099612 -0.3077571
0002d0 f7 ad b6 be c3 6c b6 bd b9 25 e3 bd 80 86 35 3c
       -0.356796 -0.089074634 -0.110911794 0.011079431
0002e0 17 37 df bd 53 73 14 3e 66 2d 37 3d 16 e4 35 bc
       -0.108991794 0.14497118 0.04472103 -0.011101743
0002f0 5e ae 40 be fa 4b 7e be 68 2a 68 be ae 43 0c be
       -0.18816516 -0.2483367 -0.22672427 -0.13697693
000300 86 38 82 bd 0b 7e 32 bd 3d 98 1e be 33 f3 0b be
       -0.06358437 -0.043577235 -0.15487762 -0.13666992
000310 3a e1 f0 bd ce 7e 21 be 59 9e c0 3d 42 ae 48 be
       -0.117617086 -0.15771028 0.094052024 -0.19597724
000320 36 d3 26 3d 1d dd 6e 3c d1 fe de 3d 79 e7 05 be
       0.04072877 0.014579085 0.10888446 -0.13076581
000330 52 06 1f bc 78 c4 2c bc fe bf 8d be b3 07 2f 3e
       -0.009706097 -0.010544889 -0.2768554 0.17092781
000340 73 d2 8d 3e 75 84 a0 be f5 fa 5e bc 10 8f a6 3d
       0.27699623 -0.31351057 -0.0136096375 0.08132756
000350 98 bc 60 be 3c f6 56 be fa 94 27 be 03 30 9b 3c
       -0.21946943 -0.20992368 -0.16365424 0.018943792
000360 de a3 0f 3e a7 fe b7 3e 25 51 88 3e 95 c6 0c be
       0.14027354 0.35936472 0.26624408 -0.13747628
000370 66 ac 04 be e2 3f 88 3d 1b e7 ba 3d 24 9d ff bd
       -0.1295639 0.0665281 0.09126111 -0.12481144
000380 fb 35 a0 3d ee 76 a2 3e 4c 6b de bc b6 61 9d 3e
       0.07822796 0.3173136 -0.027150773 0.3073861
000390 09 c8 53 3e 76 a1 08 bd 06 2c 0a 3e 40 78 86 bd
       0.20681776 -0.033357106 0.13493356 -0.065659046
0003a0 e3 5a 51 3d 8e 0d a2 3e a2 ee db 3e 60 48 8f 3e
       0.051112067 0.31650966 0.429555 0.27984905
0003b0 dc 80 8a 3e fb 4f 70 3e 79 17 21 3e d8 3c 37 3e
       0.27051437 0.2346801 0.1573161 0.17894304
0003c0 11 6d 08 be b2 fd 4e 3e 8a 0c f0 3d 30 bf 15 3e
       -0.13322856 0.20213965 0.11721142 0.14623713
0003d0 01 b5 c7 3d 7a 60 86 3d 1f 81 e6 3d 66 50 25 3e
       0.09751321 0.0656137 0.11255097 0.16143951
0003e0 57 85 32 3d 1e 91 36 3d b8 6f 1f bc b5 16 d7 bd
       0.043584194 0.04457199 -0.009731226 -0.10502378
0003f0 3d ba 65 bd f2 d9 13 be bd 5c 53 3e c1 cc af 3b
       -0.056085814 -0.14438608 0.20640846 0.0053649847

bias f4 [16]
000000 18 94 46 3c f6 7a 87 bc 69 1d 2e bd d7 27 23 be
       0.012120269 -0.016538125 -0.042508516 -0.15933166
000010 c0 b8 eb 3d 38 18 a6 3d 9f 8b d9 3c b2 c9 c6 3d
       0.11509848 0.08110088 0.026555834 0.09706439
000020 83 4e 91 bc 72 e3 7c 3d 75 c7 00 3e e1 3a 0c bb
       -0.017737633 0.061740346 0.12576087 -0.00213974
000030 4a 05 35 be 7d 79 19 be fe e6 3a be 4d 38 c4 3c
       -0.17677799 -0.1498775 -0.18252179 0.023952628

weight f4 [16]
000000 93 08 8d 3f e2 41 57 3f ef 07 78 3f 5e b0 85 3f
       1.1018242 0.84084904 0.96887106 1.0444448
000010 48 19 82 3f 02 0b 76 3f 69 de 83 3f a7 71 7a 3f
       1.0163965 0.96110547 1.0302249 0.9782967
000020 5b 7f 74 3f 89 98 69 3f 4e dd 89 3f e7 fb 81 3f
       0.9550683 0.91248375 1.0770662 1.0155
000030 11 f9 77 3f 4e 7c 7a 3f c5 d2 82 3f 8f 19 76 3f
       0.9686442 0.97845924 1.0220572 0.9613275

bias f4 [16]
000000 3c 77 84 3e dd d3 1a 3e c8 e2 95 3d 1f 4f 9f bd
       0.2587222 0.15119882 0.07318646 -0.07778763
000010 80 77 cd bd c9 21 20 3d cf 66 70 3e 08 a3 53 3e
       -0.100325584 0.03909472 0.23476718 0.2066766
000020 47 9b a3 3c c0 80 c2 3d 97 e6 9b 3e 96 17 55 3e
       0.019971503 0.09497213 0.30449364 0.20809779
000030 30 e5 40 bd d8 e7 22 be ac bb cb 3d 01 e4 55 3e
       -0.04709357 -0.15908754 0.09947905 0.20887758

running_mean f4 [16]
000000 3e 8b 0e 3f f0 83 e9 3e c6 24 db 3e 4a 13 64 3f
       0.55681217 0.45608473 0.42801493 0.8909193
000010 5e 1d 00 3f a8 82 73 3f 2c 16 32 3f 15 bd af 3f
       0.5004481 0.9512124 0.6956508 1.3729578
000020 06 c8 7c 3f bd 6d 2a 3f 38 5c 5b 3f d0 11 44 3f
       0.9874271 0.665737 0.8568759 0.7658968
000030 f7 60 0f 3f fc b6 d9 3e 43 52 ff 3e cf 97 11 3f
       0.5600733 0.42522418 0.49867448 0.56872267

running_var f4 [16]
000000 cc 95 b1 3f 04 60 e6 3e 84 f1 45 3e a7 55 9d 3f
       1.3873839 0.4499513 0.19330412 1.2291764
000010 be 17 9b 3f 9e 5f 9a 3f ea b3 17 40 b7 eb df 3f
       1.211662 1.206043 2.370356 1.749381
000020 0f 3f 1a 40 f2 44 89 3e ee 08 fc 3e 92 0c 2a 40
       2.4100988 0.26810414 0.49225563 2.6570172
000030 dd a2 32 3f 24 8c 7e 3f 79 9a 40 3f 33 05 3b 3f
       0.6977976 0.9943259 0.75235707 0.7305481

weight f4 [32, 16, 3, 3]
000000 62 19 c8 3c bd a4 f6 3d 32 34 f7 bd c3 54 2d bd
       0.024426166 0.1204314 -0.12070502 -0.042317163
000010 76 17 31 be ec cc 1a bd 93 d8 71 be a4 ff 27 3e
       -0.17294106 -0.037793085 -0.23617773 0.16406113
000020 a2 d0 64 bd 8c 92 22 be 3d 7e d4 bd 1a 08 5f be
       -0.05586303 -0.15876216 -0.103756405 -0.21780434
000030 ee 77 04 be cb 14 be 3d 49 7a 41 3b 2e 0b 5c 3e
       -0.12936375 0.0928131 0.002952235 0.2148864
000040 e5 be 2f 3c 82 88 6c bc 6a 92 61 bc c1 8e 93 bd
       0.010726665 -0.014436843 -0.013767818 -0.072049625
000050 3c ff 06 be c8 4e c5 3d bf 01 1d 3e 88 50 c3 38
       -0.13183302 0.09634167 0.15332697 9.313325e-05
000060 e0 e5 65 3c 22 a0 bc 3d 1d fc 35 bd 64 ef 07 3e
       0.014031857 0.092102304 -0.044429887 0.13274914
000070 0d 6d 38 3d 2d 05 0a 3e 6a 7b a1 3d d0 62 90 bb
       0.045025874 0.13478537 0.078848675 -0.0044063106
000080 31 2d 99 bb 00 d8 4a 3d 94 c2 83 bc 9e 3c ec 3d
       -0.0046745767 0.0495224 -0.016083993 0.11534999
000090 ce b3 57 3e 64 4f 9c bd 35 53 5a bd 74 df 2e be
       0.21064684 -0.0763233 -0.05330201 -0.17077428
0000a0 d2 1e f3 3d 96 5a a0 bd 3d 0e 82 3d b3 42 95 be
       0.11871113 -0.07829778 0.06350372 -0.2915245
0000b0 2a b9 0f be cd ca 46 3c d6 54 30 bd 6b 71 04 be
       -0.14035478 0.012133312 -0.043049656 -0.1293389
0000c0 b6 e2 d0 bd 7b 91 36 3d 0b 6b f8 bd 88 44 bd 3d
       -0.10199492 0.044572335 -0.12129792 0.09241587
0000d0 9f da 48 3c 29 4e 0f 3e 14 97 69 be 2a 88 87 bd
       0.012259155 0.1399466 -0.22811538 -0.06617768
0000e0 b9 9e 8b bc d6 09 3d 3c fe d9 a9 bc 97 91 6e be
       -0.017043458 0.01153799 -0.02073383 -0.23297726
0000f0 20 15 8b ba 39 5b 92 bd a2 79 72 bd 52 28 ad bd
       -0.0010611154 -0.071463056 -0.05919803 -0.08454956
000100 7d 93 2d bd 1a 44 29 3b 4a cd 0c be 9a 20 07 bd
       -0.042376984 0.0025827945 -0.13750187 -0.032990076
000110 66 f2 d9 bc 21 23 c6 bd 41 61 0e 3d 7a 4d 07 be
       -0.026604842 -0.09674669 0.034760717 -0.13213149
000120 40 5e f9 bd 0d b5 10 3e ba e8 a1 bd 73 6c b4 3c
       -0.1217618 0.14131565 -0.07905717 0.022024369
000130 7f 7f 36 bd a8 87 d7 bd 63 5c e4 bc 46 37 99 bc
       -0.044555184 -0.10523921 -0.027876085 -0.018703114
000140 d0 b9 04 3e f7 d1 c6 3d eb 55 74 bd 45 ab 93 3c
       0.12961507 0.09708016 -0.05965225 0.018026004
000150 20 ed 0f be c7 72 e4 3c 29 07 62 bc 57 d8 a4 3d
       -0.140553 0.027886761 -0.013795652 0.08049076
000160 2c 45 1d 3e 00 7c 05 3e 53 b1 0d 3e ef cf 79 3c
       0.15358418 0.13035583 0.13837175 0.015247329
000170 b0 7a 2e 3e e3 23 21 3c 43 10 bf bc 71 ae 9b 3d
       0.17038989 0.009835216 -0.023323184 0.076016314
000180 3c 6a 12 3e 5c 13 ac 3c 54 97 49 3c c5 4a f4 bd
       0.14298338 0.021005325 0.012304146 -0.11928324
000190 bc 43 89 3c c6 af 07 be 1a cb 8f bc 20 4b c2 3d
       0.016755931 -0.13250646 -0.017552901 0.09486985
0001a0 8b 36 1a 3e 28 48 cd bc eb 04 88 3d 57 d6 a7 3d
       0.15059869 -0.02505882 0.06641563 0.08195179
0001b0 92 f9 b7 3d 54 44 e9 bd 12 20 56 3d 12 bc c8 bd
       0.08983149 -0.11389986 0.05227668 -0.098014966
0001c0 d3 2c 33 3d 48 4c 64 bd b1 79 fe 3a 28 64 c8 3c
       0.04374392 -0.05573681 0.0019414929 0.02446182
0001d0 ce ec 1d bb 01 64 f0 3d 01 f3 b2 bb 63 ae a1 3d
       -0.0024097445 0.11737824 -0.005461097 0.0789459
0001e0 9e d7 85 bd 11 7e 08 3e eb a1 90 bd 34 ca 37 3e
       -0.06535266 0.1332934 -0.070621334 0.17948228
0001f0 8c 71 d7 bc 87 d5 05 3e 1d 0d 57 3e 5f 97 00 3e
       -0.02629926 0.13069735 0.21001096 0.12557743
000200 02 a7 99 3d 8b 49 52 3e d0 4d 38 3e 61 61 73 3e
       0.07502557 0.20535867 0.17998433 0.23767616
000210 3c ad f4 3d a2 3f 5a 3e c3 47 2e 3e 95 4a c6 3d
       0.11947104 0.21313336 0.17019562 0.09682194
000220 3a ce 0c 3d 17 6c 99 3d da d5 25 bd 30 d7 a7 3d
       0.03437636 0.074913196 -0.040487148 0.08195341
000230 5a 96 d1 3c 55 49 0b bd 24 02 7d bc 34 73 0d 3d
       0.025584389 -0.03400548 -0.015442405 0.034533694
000240 e6 06 5b 3e 1c fb a3 3d 64 ca 51 3e 51 45 76 bd
       0.2138935 0.0800688 0.20487362 -0.0601247
000250 45 11 f9 bd 92 6b 93 3d 3d a4 63 be ba 21 84 be
       -0.12161497 0.07198252 -0.2223062 -0.2580698
000260 77 ca e7 bd 57 c3 8c bd 59 ac 5a be c0 0d 65 3d
       -0.11317914 -0.068731956 -0.21354808 0.055921316
000270 d5 6a 2d 3d 7d c5 09 be 28 b5 82 bd 97 0d 38 bd
       0.04233821 -0.13454242 -0.06382209 -0.044934835
000280 f6 ce 9b be a8 5d 67 3d 9f 25 94 bd e6 71 88 bd
       -0.30431336 0.056485802 -0.07233738 -0.066623494
000290 a0 b0 ed bd e9 be 91 bc cc c1 dc bd 14 46 a9 be
       -0.11605954 -0.017791228 -0.10779151 -0.33061278
0002a0 1e 44 a2 3d 14 da d7 3d 34 f2 4a be 22 bd 45 3d
       0.079231486 0.10539642 -0.19818956 0.048276074
0002b0 d7 3f 71 3d f2 41 42 3d 47 98 4a bc 52 41 8c bc
       0.058898773 0.04742617 -0.012365407 -0.01712099
0002c0 6b 3b cd bd 6f e8 b1 3c c5 3e 8e bd d8 2c 14 3c
       -0.10021099 0.021717278 -0.06945566 0.009043895
0002d0 98 3e d5 3c cd a5 65 3d 1e 50 3a 3d 8b e6 34 be
       0.026030824 0.056066323 0.045486562 -0.1766607
0002e0 d7 f0 ba bc a5 87 2e 3e 5e c1 79 3c 4c 4c 3a 3e
       -0.02281992 0.17043932 0.015243856 0.18193167
0002f0 7d cf c5 bb 3c 3f 8a bc 1b 7c 86 3d 34 77 c1 3d
       -0.0060366974 -0.016875856 0.0656664 0.09446564
000300 86 5a 32 bd 66 54 c3 3d d5 cf 0e 3d 2c 21 58 3c
       -0.04354336 0.09537582 0.034866173 0.013191503
000310 11 3d 47 be 83 42 26 3c b6 7b 50 bd 10 e9 9d 3d
       -0.19456889 0.010147694 -0.05089923 0.07710469
000320 7c ea f8 bd 5b ec 42 be 41 6c d3 bd cd 3b 92 bd
       -0.12154099 -0.19035475 -0.10323382 -0.07140312
000330 d6 23 57 3e ca 31 d7 3d 9c 71 8e bc fa d3 11 3e
       0.21009764 0.105075434 -0.017388158 0.14241019
000340 eb 69 08 be c7 36 b1 3d b0 d8 ed bd bd 94 44 be
       -0.13321654 0.08653026 -0.116135955 -0.19197364
000350 f1 0f 8f 3d 74 c6 ab 3d bb 0b 94 bd d9 c5 1a bd
       0.069854625 0.08387461 -0.072288 -0.03778634
000360 db 01 c9 3d b0 26 af bd 1d ba 26 3d 4c 0c 43 3e
       0.09814807 -0.08552301 0.040704835 0.1904766
000370 6d c9 6f 3d 2a f1 16 bb 8d 2e c8 bd ee e1 17 be
       0.058541704 -0.0023031929 -0.09774504 -0.14832279
000380 18 ef 3d bd d0 19 b3 3c 9b c6 8a 3d ef e4 83 3b
       -0.046370596 0.021862894 0.06776162 0.0040250937
000390 df a6 d4 3b ba 07 9a 3d ae fa 4c 3c 31 4a 33 bd
       0.006489619 0.07521005 0.012510939 -0.043771926
0003a0 7b 81 89 bd 74 85 1a be 0c d0 13 bd dc 53 7b bd
       -0.067141496 -0.15089971 -0.03608708 -0.06135927
0003b0 20 ef 6d 3d cc 45 07 be 79 10 b0 bd aa 64 57 bd
       0.058089375 -0.13210219 -0.08596892 -0.052586235
0003c0 2e 37 38 3d 7b d0 30 3e 74 8e 5b 3e 6d dd c8 3d
       0.0449745 0.17267029 0.2144106 0.098078586
0003d0 c7 b2 27 3d 4f f9 c3 3d d3 14 c7 3d 23 2a ae be
       0.04094198 0.09569036 0.09720769 -0.34016523
0003e0 ac 37 61 be d4 61 a4 bc a5 61 d0 3d 99 63 05 3c
       -0.21993893 -0.02006618 0.10174874 0.008141422
0003f0 ed fb 8c bb a1 28 06 be e4 54 39 be 80 ad f0 bc
       -0.004302493 -0.13101436 -0.1809879 -0.029379606

bias f4 [32]
000000 9f 20 16 be 1c 3d c6 bd cb 00 5a bd 7b 67 dd bd
       -0.14660881 -0.096796244 -0.053223412 -0.10810753
000010 9a 65 10 be b9 a4 7a 3c 0d 04 70 bd 43 64 05 be
       -0.14101258 0.015298062 -0.058597613 -0.13026528
000020 1b 46 bf bd 20 02 0f be ad 8f 7b be d2 9c 09 be
       -0.093395434 -0.13965654 -0.24566527 -0.13438728
000030 fb 06 8d bd 69 30 50 bc 60 a1 e8 bd 6a dc 4e bc
       -0.06886097 -0.012706854 -0.11358905 -0.012625793
000040 b0 0d 5b 3d 9a 8d 16 be 84 bc 54 bd 0e 3b 0a 3c
       0.05347985 -0.14702454 -0.051937595 0.008436931
000050 29 d2 a1 3c 65 75 bb bd b2 b6 b5 3d 56 a7 95 bd
       0.019753532 -0.091532506 0.08872737 -0.073073074
000060 d6 a4 34 bd 2f 3d 9d bd 9c bc df be a3 67 22 bd
       -0.044102512 -0.076776855 -0.43698585 -0.039649617
000070 30 4c 79 be 49 5f e8 bb f9 5b 0b be d8 44 0e be
       -0.2434547 -0.007091437 -0.13609304 -0.1389345

weight f4 [32]
000000 a8 69 80 3f 2e 2c 7a 3f 68 93 62 3f db be 81 3f
       1.0032244 0.9772366 0.88506174 1.013637
000010 2c f8 81 3f f6 da 68 3f 0b be 7b 3f c5 e5 79 3f
       1.0153861 0.9095911 0.9833686 0.97616225
000020 90 32 77 3f 87 ce 78 3f 71 d4 8c 3f 32 de 7c 3f
       0.9656153 0.97190136 1.1002332 0.98776543
000030 4c 62 6e 3f 2c a2 7e 3f f0 54 88 3f 7b 30 7c 3f
       0.9311874 0.99466205 1.0650921 0.98511475
000040 ec 7c 78 3f 75 18 86 3f eb f0 70 3f 22 80 86 3f
       0.97065616 1.0476214 0.9411761 1.0507853
000050 86 55 7b 3f 06 36 6d 3f 81 17 6a 3f 95 26 78 3f
       0.98177373 0.9266056 0.91442114 0.9693387
000060 64 43 5b 3f a5 8d 8b 3f 32 50 87 3f 2c ce 74 3f
       0.85649705 1.0902601 1.0571349 0.95627093
000070 1d ae 84 3f 46 4b 65 3f f2 1b 85 3f ae a8 95 3f
       1.0365635 0.89567983 1.0399153 1.1692102

bias f4 [32]
000000 aa c6 0b 3e 9c 57 bf bd 11 2e 75 3e 3c ae bc 3c
       0.13650003 -0.09342882 0.23943354 0.0230323
000010 6e 09 5d 3d a1 5d 34 3e 00 76 4a 3e e2 c3 39 3d
       0.05396407 0.17613842 0.19771576 0.045352824
000020 8e 9b 7a 3d ae ab d7 3e d5 b7 1c bd 84 a0 ba bb
       0.061183505 0.4212317 -0.038261253 -0.0056954045
000030 ad 15 cd bd 87 eb b7 3d 4e ec 08 3d c1 e6 f9 bd
       -0.100139 0.0898047 0.033428483 -0.12202216
000040 c3 24 75 bc bc 44 b6 3d 9f a2 b0 3c 68 70 51 3e
       -0.014962378 0.08899829 0.021561919 0.20453036
000050 0a 2e 60 3e 23 5c 3f bd ec a8 7e bd 14 8f d2 3d
       0.21892563 -0.046718728 -0.062172815 0.10281196
000060 bd 69 1b be 82 bd c3 3c 04 0a e8 bd 16 15 ca 3d
       -0.15177055 0.023894075 -0.11330035 0.09867303
000070 37 2c ed 3d 78 90 2b 3d 32 43 9e 3d d7 1b 50 3d
       0.11580699 0.041885823 0.0772766 0.0508078

running_mean f4 [32]
000000 ce 8a 00 3f e2 48 a1 3e 66 08 be 3e 2c c9 78 3e
       0.502118 0.31500918 0.37115782 0.24295491
000010 8b 13 82 3f c4 6e c7 3e f6 85 0e 3f 05 7c ff 3e
       1.0162214 0.38951695 0.5567316 0.49899307
000020 99 c8 ad 3e 2a 04 b4 3e 50 4a a5 3e 00 6a 82 3e
       0.33942106 0.35159427 0.32283258 0.25471497
000030 82 28 dd 3e c4 bd da 3e a8 cd 79 3e 83 49 dd 3e
       0.43194968 0.42722905 0.24394858 0.43220147
000040 d3 c0 92 3f f1 17 72 3e 43 a4 d1 3e 4b c5 5c 3f
       1.1465095 0.23641945 0.40945634 0.86238545
000050 4c 65 85 3f cf 5d 2e 3f 68 dd be 3f 07 9f 1a 3f
       1.0421538 0.6811189 1.4911318 0.60398906
000060 04 15 13 3f 3b 95 fa 3e f1 6e 9c 3e 3a 20 15 3f
       0.5745394 0.4894198 0.30553392 0.582523
000070 4f ed 68 3e 37 ef 15 3f 02 e1 3f 3e 40 7a a0 3e
       0.22746776 0.5856814 0.18738177 0.3134327

running_var f4 [32]
000000 fb f3 7b 3f 8a 3f 04 3f c0 35 15 3f 2a 10 9f 3e
       0.9841916 0.5165945 0.5828514 0.3106702
000010 90 01 1b 40 4d 0d a7 3e 18 90 4d 3f 8b d8 16 3f
       2.4219704 0.32627335 0.80297995 0.5892417
000020 db 3f 15 3f b0 a2 28 3f cc b2 c4 3e 60 bd 73 3e
       0.5830056 0.6587324 0.3841766 0.2380271
000030 9a 4b 15 3f 23 ee b3 3e 90 fe 97 3e 34 d6 07 3f
       0.58318484 0.3514262 0.29686403 0.53061223
000040 48 e2 0f 40 0f 9c 6d 3e b9 0a 19 3f 02 3c c7 3f
       2.248186 0.23204063 0.59781986 1.5565188
000050 d1 f3 a9 3f 02 ad 89 3f a2 57 f2 3f 2a f2 c4 3f
       1.3277532 1.0755923 1.8932993 1.5386403
000060 6c ce 2c 3f af 9f 39 3f e0 c3 d9 3e 9d cc b7 3f
       0.67502475 0.7250928 0.42532253 1.4359318
000070 33 ac b5 3e 3f 2b 87 3f a0 0b 56 3e ce 4c fe 3e
       0.3548294 1.0560073 0.20902872 0.49667972

weight f4 [64, 32, 3, 3]
000000 a2 45 b1 bd de 27 ae bd 1b d0 e9 bd 55 09 28 bc
       -0.086558595 -0.08503698 -0.11416646 -0.010256131
000010 91 86 b6 bd 78 3a ed bc 25 2d 5b 3d 4e d4 5c bd
       -0.08912385 -0.028958544 0.05350985 -0.053913407
000020 f4 ff f4 bc 1c 16 97 3d a7 58 11 3e bf 93 af 3d
       -0.029907204 0.07377264 0.14193974 0.08573102
000030 14 f6 a2 3d 57 e2 23 3c e8 42 b3 bc 4b a2 b3 3c
       0.07957092 0.010002694 -0.02188249 0.021927973
000040 f9 df 87 bd 82 a8 36 bd a4 38 00 be 96 c6 08 be
       -0.06634516 -0.044594295 -0.12521607 -0.13357005
000050 33 27 bc bd 3b 54 86 3d f6 0e ec bd 96 dd 58 be
       -0.09187164 0.065590344 -0.11526291 -0.21178278
000060 19 41 89 bd 44 ef e7 3c 0b 4e 3b 3d dd 06 e4 bd
       -0.067018695 0.028312333 0.045728724 -0.111341216
000070 7f 18 d4 bd 96 04 12 3d 77 4d cd 3d 83 0c 1f 3e
       -0.10356235 0.035648905 0.10024541 0.15532117
000080 d4 6b cc bc 57 1a 85 3d 23 77 f2 bd 0a 53 05 3d
       -0.02495376 0.064991646 -0.1183913 0.032549895
000090 14 4d 20 bc a5 94 22 3e df c6 2e 3e 9b 4e fa bd
       -0.009784002 0.15877016 0.17068051 -0.12222024
0000a0 5e f3 30 3d 3b fa 51 3d 59 21 da bc 0f 71 41 bd
       0.043200843 0.05126403 -0.02662723 -0.04722696
0000b0 5e 17 cc ba 41 3c ff bd 28 1b 66 bd ec 5f ae 3b
       -0.0015570929 -0.124626644 -0.056178242 0.0053214934
0000c0 82 12 ad 3d 64 8e 44 3b 4c c4 98 3c 79 ae 06 3c
       0.08450796 0.0029992098 0.01864829 0.008220308
0000d0 89 da a2 bc ea c3 71 bd 11 27 e4 bc 49 88 14 bd
       -0.019879596 -0.05902473 -0.02785066 -0.036262784
0000e0 7e 2b af 3d ce 88 03 be 31 99 ff 3d d4 15 d0 bd
       0.08553217 -0.12845156 0.12480391 -0.101604134
0000f0 5b 9e b4 bd 8e 46 cc 3c a5 cf 79 bc 6c 53 42 be
       -0.088192664 0.024935987 -0.01524726 -0.18977135
000100 03 bf e0 bd c4 0b d2 bd fc 56 07 bd 06 b7 25 3d
       -0.109739326 -0.1025615 -0.03304194 0.040457748
000110 43 e2 0b bc 75 06 a3 3d 97 e6 10 bd f1 40 51 3b
       -0.008537832 0.07960216 -0.035376158 0.0031929577
000120 a5 20 c9 bd 6c be 03 be 00 aa 84 bd 54 15 87 bd
       -0.098206796 -0.12865609 -0.064777374 -0.06595865
000130 7b 1a 01 be a4 9a 56 be 03 3a a3 3d a3 60 a2 3d
       -0.12607758 -0.20957428 0.07970049 0.07928588
000140 bb 23 13 bd ea 67 f4 ba 9d f7 3d bd 3a c8 f5 bc
       -0.035922747 -0.0018646691 -0.04637872 -0.030002702
000150 3f e8 11 3d 5f 70 62 be f1 65 3c be a6 cc 25 be
       0.035621878 -0.22113179 -0.18398263 -0.16191348
000160 a3 5e a0 3c 3d 79 df bd 4b 2c 75 be d0 e6 43 be
       0.019576376 -0.10911796 -0.23942678 -0.19131017
000170 3a 07 84 be f3 67 0e 3d d2 b1 91 bd d0 75 9b bd
       -0.25786763 0.034767102 -0.07113995 -0.0759083
000180 fb 0a f4 ba c1 02 83 3c 77 ea 40 bc 08 1f d1 bd
       -0.0018618995 0.015992524 -0.011774651 -0.10210997
000190 73 80 64 bd 5d bc 16 bd 33 59 96 3d 27 77 02 3d
       -0.05578656 -0.03680073 0.07341232 0.031851914
0001a0 a3 7f 61 bb aa f8 87 bc f6 89 8b bd b5 ba 04 bd
       -0.0034408353 -0.016598064 -0.06813423 -0.03240462
0001b0 69 35 77 3d 9a bc 02 be 92 10 00 bd 00 76 9b 3d
       0.06035367 -0.12767258 -0.031265803 0.07590866
0001c0 92 c4 92 bb f9 1b e9 3d 7e 03 33 3c c6 46 03 3a
       -0.0044789994 0.113822885 0.010926126 0.00050077995
0001d0 29 9d c0 3d d0 27 94 3c 8f a1 b8 bd 3b 6e ab bd
       0.09404976 0.01808539 -0.0901519 -0.08370634
0001e0 78 1f 28 bc ac 3c 13 bd b4 53 a5 bd 16 d7 03 3e
       -0.010261409 -0.035946533 -0.08072606 0.12875018
0001f0 fc d0 c1 3c c9 1c 0e 3e 83 5b 10 bc db 80 68 bd
       0.023659222 0.13878168 -0.008810881 -0.05676351
000200 f7 1f a6 3b 17 e0 2a 3e 3e f4 72 3d 3d 56 a6 3b
       0.0050697285 0.16687046 0.05931496 0.0050761984
000210 7c 2a 85 bd 3f 6a a1 3d 59 33 76 3c 6e b3 57 3e
       -0.06502244 0.07881593 0.015026891 0.2106454
000220 93 3d bf 3d 17 74 0a 3e 6f 11 1f 3d 7d 41 55 3d
       0.09337916 0.13520847 0.038834985 0.052064408
000230 6c 6c a9 3d e4 42 94 bd 0e 2a 4a bc 43 40 80 3d
       0.08272633 -0.07239321 -0.012339128 0.06262257
000240 65 68 73 bd d0 b8 81 3d ed 98 4b bb 71 40 ac 3c
       -0.05942573 0.06334078 -0.0031066493 0.021026822
000250 99 8d 2a bd 1e a2 84 3d 81 e8 03 be d5 a9 1b 3e
       -0.041638944 0.06476234 -0.12881662 0.15201505
000260 8d 01 e0 3c 81 a4 88 bb 16 9d 99 be 68 c0 56 bd
       0.02734449 -0.004170001 -0.3000266 -0.052429587
000270 e9 ce d0 bc 91 f9 ff bc f2 32 0b bd 22 7a 94 bd
       -0.025489287 -0.031246932 -0.033984132 -0.072498575
000280 02 c6 9b 3c bd 8a 9e 3d f8 57 88 3d 00 12 1c be
       0.019015316 0.07741306 0.06657404 -0.15241241
000290 04 0b 4f 3d 6f e4 a4 3d 74 0b 58 3d 8f 01 71 3e
       0.050547615 0.08051383 0.052745298 0.23535751
0002a0 35 5f a9 bd 75 4d 9b 3c 6a 1a a7 3d b7 a3 88 3d
       -0.082701124 0.018957833 0.08159335 0.06671851
0002b0 52 5e 5a be 5c a2 17 bc 18 9a 0a bd 63 8e 7b bd
       -0.21325043 -0.009255018 -0.03383836 -0.061415087
0002c0 c0 5d c6 3b 6c f8 fb 3a c1 7c f7 3d ff fa 84 bd
       0.0060536563 0.0019223816 0.12084342 -0.06493186
0002d0 61 78 47 bd e8 ad 26 b9 c1 69 04 bd 0f fc ca bd
       -0.048698787 -0.00015895779 -0.032327417 -0.099113576
0002e0 3b f1 7c 3c d2 d6 7e 3d f5 fe 00 bd 77 bc ba bd
       0.015438373 0.062216587 -0.031493146 -0.09117978
0002f0 11 e0 7d bd be 55 3d 3d 7a 60 a6 3c 82 8f 12 3e
       -0.061981265 0.04622435 0.020309675 0.14312556
000300 f3 d6 55 3d d7 e9 31 bc 21 a2 96 3b 94 cc c0 bd
       0.052206945 -0.010858974 0.004596964 -0.0941402
000310 ef f4 09 be a7 e3 8d 3d 7f 8c d1 3c 3e 1d 8f 3d
       -0.13472341 0.06928187 0.02557969 0.069879994
000320 49 c2 8e bd 1c ee a1 bd 70 6f d5 3d 3a f2 04 3d
       -0.06970651 -0.07906744 0.10421646 0.032457568
000330 d9 a8 98 3d bd b9 a5 3d 1b 70 d4 bd 4a dc df bd
       0.0745408 0.080920674 -0.10372945 -0.10930689
000340 f3 ae ff 3c bf 0e ab 3d 87 1a 4c 3d 0e b3 1b bd
       0.031211352 0.08352422 0.049829986 -0.038012557
000350 7e 58 45 3e 3e c4 94 3d fe 98 84 3d ff 54 96 3c
       0.19272038 0.07263993 0.064744934 0.018351076
000360 82 42 33 3e 3d 73 3c 3e 88 d5 db 3d ff 36 25 be
       0.1750584 0.18403335 0.10734087 -0.1613426
000370 65 71 b4 bd f9 46 01 bc d7 a8 52 bd 78 21 36 3d
       -0.08810691 -0.007890456 -0.05143055 0.044465512
000380 c0 d7 27 be a8 27 fc bd d1 35 9f bd ca 25 15 be
       -0.16390896 -0.12312251 -0.077739365 -0.14565197
000390 17 4b b4 3d e4 ae be 3d 23 ac 1d bd 44 b5 d2 3d
       0.08803385 0.093107015 -0.03849424 0.1028848
0003a0 d1 e6 70 3d 78 64 86 3d 37 97 7d 3d 3e 5e 2e b9
       0.058813874 0.06562132 0.061911788 -0.00016629041
0003b0 05 f3 9b bd 2a c9 cd 3d 89 ee 3c 3d aa 5b 96 3d
       -0.07614712 0.100481346 0.046125922 0.07341702
0003c0 8f ef ff bd 43 1d 9e bc 9a 3a 00 be 3c fe 9b 3d
       -0.12496864 -0.019301062 -0.12522355 0.07616851
0003d0 99 c5 f6 bd 2b a1 a4 bd 32 8c 95 bd 54 6f d2 3c
       -0.120494075 -0.08038553 -0.07302131 0.025687851
0003e0 e8 c9 15 bd da d6 11 3e ce 4f 6a 3c 34 02 58 3d
       -0.036569506 0.14242116 0.0143012535 0.052736476
0003f0 40 92 7b bc b8 01 b9 3d 40 af 52 3d 53 91 69 3d
       -0.015354693 0.09033531 0.051436663 0.057023358

bias f4 [64]
000000 ef 5d 32 be a5 23 d7 bd 18 78 30 be 37 80 dc 3c
       -0.17418645 -0.105048455 -0.17233312 0.026916606
000010 04 ad f8 3d b6 ab 65 bb 8a 14 81 bd 70 34 c1 3c
       0.12142375 -0.0035044975 -0.06302746 0.023584574
000020 58 aa 82 bd 2d 5f 1d bd 58 cb 0b bc 38 e3 9d 3d
       -0.06380147 -0.038420845 -0.008532368 0.07709354
000030 e2 95 63 3d 88 27 dc bb 1a 9a 25 3d 16 6e f1 bd
       0.05556286 -0.0067185797 0.040430166 -0.11788575
000040 00 e7 eb 3a 76 9e 89 3d c3 33 cc 3c 8c fb 40 bd
       0.001799792 0.06719677 0.024927026 -0.047114894
000050 03 cc 83 be a4 f1 2b 3e e8 f1 0b bd 73 ac ca 3c
       -0.25741586 0.16791397 -0.034166247 0.024740433
000060 b4 08 1f be 4c 97 1b be cf 47 37 3d 83 cf 40 3c
       -0.15530664 -0.15194434 0.044746216 0.011768225
000070 f5 66 41 bd dc 3c 8b 3d 84 fc 10 be 57 d6 0f be
       -0.047217328 0.067987174 -0.14158827 -0.14046608
000080 48 3f 45 3d 3e 89 25 bc 4b ff 2c bc ff eb 20 be
       0.048156053 -0.010103522 -0.010558913 -0.15715025
000090 f4 af d7 3c 94 48 f3 3d c9 27 c4 3d 79 a5 19 be
       0.026329018 0.118790776 0.09577901 -0.15004529
0000a0 b9 1f ca bd 6c a0 a1 3d 1f 61 b0 bd 9e 78 e1 bd
       -0.09869332 0.07891926 -0.086122744 -0.11009334
0000b0 4f fc 0e bd d3 e5 ae 3c 97 00 b6 bb c6 45 f8 bd
       -0.03490859 0.021349823 -0.0055542695 -0.12122683
0000c0 22 4b 0c 3e 9c 07 8b 3c 33 71 39 be 7d 9e a7 bc
       0.13700536 0.016971402 -0.18109588 -0.020461315
0000d0 20 d3 6f 3d b7 49 75 3c a2 64 b4 3d 5c 76 e7 bd
       0.058550954 0.014971188 0.08808257 -0.11301872
0000e0 c1 5e fe bd 99 cc 94 bc 81 97 8e be a8 1c 66 be
       -0.124204166 -0.018163966 -0.27849963 -0.22471869
0000f0 09 3b a7 3c 49 b6 a7 bd 11 6b a1 3d 9c 08 4c 3d
       0.020413892 -0.08189065 0.078817494 0.049812898

weight f4 [64]
000000 eb 2b bf 3f 1b 45 ba 3f c9 03 d0 3f 34 e4 be 3f
       1.4935278 1.4552339 1.6251155 1.4913392
000010 90 ad be 3f db 15 b8 3f bb 54 cf 3f f1 05 be 3f
       1.4896717 1.438167 1.6197733 1.4845563
000020 04 33 c6 3f 62 e3 b9 3f 14 eb da 3f f0 53 d9 3f
       1.5484319 1.4522517 1.710299 1.6978741
000030 ef ba db 3f 74 b2 c8 3f de 7c bd 3f 22 20 c9 3f
       1.7166423 1.567946 1.4803731 1.5712931
000040 21 98 c8 3f 54 1b d0 3f 6c d8 bd 3f fc c9 d3 3f
       1.5671426 1.625834 1.4831672 1.6546016
000050 75 9f c9 3f 7e 50 c1 3f d4 6d cc 3f 70 bd d0 3f
       1.5751787 1.5102689 1.5971017 1.6307812
000060 dd 93 a8 3f fe 83 d6 3f c9 34 cd 3f 56 bd c5 3f
       1.3170124 1.6759031 1.6031734 1.5448406
000070 de c6 d1 3f 59 6c bb 3f b6 13 cd 3f 73 44 cb 3f
       1.6388814 1.464244 1.602164 1.5880264
000080 9e b0 be 3f 24 25 b9 3f 38 fd b5 3f 0d 26 ca 3f
       1.4897649 1.446446 1.4217901 1.5792862
000090 8c 4e ac 3f 0a 9f bd 3f a8 10 ac 3f a3 89 d0 3f
       1.3461471 1.481416 1.3442583 1.6292003
0000a0 40 70 d4 3f 0a d7 dd 3f b1 e3 ce 3f 5e 0b c6 3f
       1.6596756 1.733125 1.6163236 1.5472219
0000b0 b5 c2 bb 3f 98 72 cc 3f 90 db b6 3f 8f 42 d1 3f
       1.4668795 1.5972471 1.4285755 1.6348437
0000c0 c3 b8 c9 3f f9 ec bf 3f f6 3e b9 3f 2a 29 c6 3f
       1.575951 1.4994193 1.4472339 1.5481312
0000d0 e8 01 cf 3f c7 62 c3 3f e0 94 ba 3f 61 48 d1 3f
       1.6172457 1.526452 1.4576683 1.6350213
0000e0 1f 4a c9 3f 04 9f d2 3f e0 b6 cd 3f 82 0b c4 3f
       1.5725745 1.6454778 1.6071434 1.5316012
0000f0 e7 cd b1 3f b1 d8 cf 3f 62 db ca 3f e9 31 bd 3f
       1.3890961 1.6238004 1.58482 1.4780856

bias f4 [64]
000000 e7 4e 22 be 58 d8 e5 bd 76 4c 75 3d 12 44 16 be
       -0.15850411 -0.11222905 0.059887372 -0.14674404
000010 db 39 13 3e 4d c0 08 be da 3b b9 bd a8 83 d3 bd
       0.14377539 -0.13354607 -0.09044619 -0.10327846
000020 2c 69 87 3d a9 f0 64 be 7f 4d dc 3d 7e 2f 68 3d
       0.06611857 -0.2235743 0.10756969 0.056685917
000030 61 44 fc bc a7 1d 1f be fa 66 28 3b f8 5f 15 be
       -0.030794324 -0.15538655 0.0025696144 -0.1458739
000040 ab 91 9a bd 6d 3c 7a bd f1 1e 1d be f7 37 e1 bd
       -0.07547315 -0.061092783 -0.15343834 -0.109970026
000050 48 31 25 bd 14 71 0d 3e 64 5c 75 bc f4 cb 5c be
       -0.0403302 0.13812667 -0.014975641 -0.21562177
000060 4d 84 b9 bc 88 62 ae 3c b5 dc 2c 3d fc 4e ce bd
       -0.022646094 0.021287218 0.04220267 -0.10073659
000070 e3 ee 04 be a2 b4 8c 3d 5f ad 2f 3e 6f 10 be bd
       -0.12981753 0.068703905 0.1715598 -0.09280478
000080 45 e0 32 bd 1a 3d 95 bd e9 97 30 bd 1c b0 56 bd
       -0.04367091 -0.07287045 -0.043113623 -0.052414045
000090 6d 83 19 bd 4d db 9d 3c 5f 99 85 bb 04 5b 10 bd
       -0.037478853 0.01926961 -0.004077121 -0.03524305
0000a0 5c dc e0 bc b7 6f 2a 3e 55 4b e5 3c 6f d2 c0 bd
       -0.027448826 0.16644178 0.027990023 -0.09415137
0000b0 b6 5d b9 3c 94 d7 51 3a b9 f3 c5 bd 06 c7 97 3d
       0.022627693 0.0008004841 -0.09665627 0.074110076
0000c0 7e 63 27 be 63 90 a5 3c dd bb 81 bc 72 56 82 bd
       -0.16346547 0.02021045 -0.01583665 -0.063641444
0000d0 a9 fb b8 3d b7 32 af 3d f8 cb 26 be c4 e8 ac bd
       0.09032375 0.08554595 -0.16288745 -0.08442834
0000e0 88 e9 a5 3d d6 e6 91 3d d6 77 fe bd cf e9 85 bd
       0.08101183 0.071241066 -0.12425201 -0.06538736
0000f0 47 a7 aa bd 48 c2 e7 3d 98 63 ff 3d e0 bc 81 bd
       -0.08332687 0.11316353 0.12470168 -0.06334853

running_mean f4 [64]
000000 1c cd 88 3e f0 3f 44 3f eb 2a b2 3e 64 a1 e6 3e
       0.26718986 0.7666006 0.3479837 0.45045006
000010 fb b5 76 3f f6 0b 23 3f ea 66 52 3f 6d e1 78 3f
       0.9637143 0.63690126 0.82188284 0.9721897
000020 de 90 c7 3e c3 19 01 3f 01 51 ec 3e 75 a0 36 3f
       0.38977712 0.50429934 0.4615555 0.7133859
000030 93 f0 70 3f 6f 86 f2 3e ff 6b 45 3f f5 c0 01 3f
       0.9411709 0.4736819 0.77117914 0.50685054
000040 7f 01 08 3f c6 51 49 3f d8 92 6b 3f 7e e7 27 3f
       0.5312728 0.786404 0.9202094 0.65587604
000050 76 ff 42 3e 05 48 26 3f 2e 98 5c 3f 60 86 1f 3f
       0.19042763 0.64953643 0.8616971 0.62314415
000060 db 98 d7 3e 13 f6 27 3f 18 4e 3e 3f e8 5b 1f 3f
       0.42108807 0.65609854 0.7433791 0.6224961
000070 a0 38 0e 3f c6 f3 e0 3e 3c b9 2c 3f 72 48 89 3e
       0.5555515 0.43935984 0.67470145 0.26813084
000080 2f 9a 69 3f 5c 51 e8 3e e3 f8 22 3f 1d 97 dd 3e
       0.9125089 0.45374572 0.6366102 0.43279353
000090 0f 4e 33 3f 0b b3 50 3f 66 ec 84 3f 47 37 c0 3e
       0.7004098 0.815232 1.0384643 0.37542173
0000a0 0e a2 d8 3e 66 5f 38 3f b8 6f be 3e 7a 4c e2 3e
       0.42311138 0.72020566 0.3719461 0.44198972
0000b0 64 f2 bc 3e 45 dc 00 3f bf 87 e4 3e 74 51 86 3e
       0.3690368 0.50336105 0.44634816 0.2623402
0000c0 57 63 a6 3f 38 61 42 3f 48 4f 9c 3e a6 89 2f 3f
       1.2999066 0.75929594 0.30529237 0.6856941
0000d0 00 f2 0b 3f 8f 46 39 3f d7 98 71 3f 6c 26 94 3e
       0.5466614 0.7237329 0.9437384 0.28935564
0000e0 62 44 bf 3e 00 ce 15 3f eb fa 92 3e 8d c2 ec 3e
       0.3735686 0.58517456 0.2870706 0.4624218
0000f0 58 28 2f 3f 42 21 0f 3f 4c db 1a 3f 11 4b 1b 3f
       0.68420935 0.5591012 0.6049087 0.6066142

running_var f4 [64]
000000 2f 97 00 3f 38 74 d9 3f a4 a9 df 3e e4 b9 47 3f
       0.5023069 1.6988592 0.43684113 0.7801802
000010 41 3b 84 3f 0e 90 af 3f dc 56 c8 3f 62 06 19 40
       1.0330583 1.3715837 1.5651507 2.3910146
000020 94 6d 03 3f b5 f9 77 3f a0 28 23 3f 6a fb 36 3f
       0.5133908 0.968654 0.63733864 0.7147738
000030 d9 57 a3 3f f4 ca 42 3f 39 ec 91 3f 3f 5d 67 3f
       1.2761184 0.7609093 1.1400214 0.9037666
000040 f7 5c 42 3f 28 3b b9 3f 53 6c ff 3f 94 96 b2 3f
       0.75923103 1.4471178 1.9954933 1.3952203
000050 59 7e 6b 3e 04 94 12 3f 69 13 c0 3f 60 8b 8b 3f
       0.22997417 0.57257104 1.5005924 1.0901909
000060 b8 fc 31 3f 98 2f 4b 3f 2c 75 49 3f d8 5c 4d 3f
       0.69526243 0.793695 0.78694415 0.80219793
000070 ce 3d 57 3f b0 ca 32 3f 34 76 61 3f 68 84 d0 3e
       0.8407868 0.69840527 0.8807099 0.40726018
000080 d9 df 8a 3f 48 20 3a 3f 0d 63 ba 3f 23 6c 53 3f
       1.0849563 0.7270551 1.4561478 0.8258688
000090 73 f0 80 3f 56 9c 7e 3f 6e f3 c3 3f b9 dc 12 3f
       1.0073379 0.994573 1.5308664 0.57368046
0000a0 3d 2d 07 3f 67 15 5a 3f 08 7b 03 3f 18 38 19 3f
       0.52803403 0.8518891 0.51359606 0.5985122
0000b0 88 64 f1 3e 3a 97 32 3f e3 47 3f 3f f9 91 ae 3e
       0.47147012 0.69762003 0.74719065 0.34095743
0000c0 96 fe 6b 40 f6 ef 66 3f 96 72 eb 3e 0f ff 86 3f
       3.6874137 0.902099 0.4598586 1.0546588
0000d0 80 e7 3c 3f f7 f0 5e 3f e5 d1 a2 3f af e0 b7 3e
       0.7379074 0.87086433 1.2720305 0.35913607
0000e0 d4 af 0f 3f a9 61 4e 3f e3 7a dd 3e 6c 68 32 3f
       0.5612767 0.8061777 0.43257818 0.69690585
0000f0 b9 88 b6 3f 2b f2 43 3f 93 06 59 3f 7c 8d 3b 3f
       1.4260474 0.76541394 0.84775656 0.73262763
