Models/cloud_with_electric.pt (torch, 115275 bytes, 26 tensors)

weight f4 [8, 2, 5, 5]
0.35640055 -0.13047941 -0.01302351 0.19957764 0.18471575 -0.26472005 -0.1683507 0.028551862
-0.055139422 -0.092314795 -0.16437244 -0.32676727 0.016930373 -0.066897236 -0.08169682 0.0947716
0.043026842 -0.3262549 -0.11567303 -0.0066824662 -0.13617623 -0.27647632 0.060553763 0.22364241
-0.13340043 0.5061263 0.30836043 0.5220828 0.66937536 0.2615404 -0.079800464 0.16963317
-0.18348612 -0.057592094 0.51944304 -0.16806534 -0.08475315 0.27375305 0.14725436 0.047932632
-0.027201274 0.11049709 0.04358188 0.2611976 0.037828688 0.075094275 -0.3832137 0.13655633
0.18804482 0.22531787 0.054955386 -0.10921818 0.0050323154 0.31411597 0.040438805 -0.20707256
0.032717843 -0.34456483 0.04285849 0.13584366 0.16632019 0.15588623 0.3730788 0.053862244
0.29904512 0.048665084 -0.035810437 -0.09865504 -0.18710938 0.0558638 -0.10517928 -0.18268529
-0.07403906 0.17063533 0.15003058 0.07217746 -0.18078029 -0.10634478 0.28276247 0.28627592
-0.028455118 -0.057630904 -0.2473042 0.34674406 -0.004960692 -0.022504162 0.3238301 0.36712283
0.100138344 -0.07820294 0.1683512 -0.26935092 0.22696275 -0.12193885 -0.15069965 0.10094065
0.08604519 0.07233977 -0.11378445 0.054262545 0.058083296 0.01416596 -0.02007162 0.23937878
-0.14715682 -0.45215008 0.021480424 -0.46392924 0.3592392 0.18492065 0.04177486 0.12531547
-0.21695064 0.055977914 -0.067481995 -0.022899453 0.19465052 0.018585758 0.3383543 -0.30913097
-0.035049707 -0.06500624 0.11650206 -0.035736628 0.050730094 -0.14363253 -0.06899125 -0.14652409
-0.49655443 -0.064408064 -0.14953953 0.36582342 -0.022892725 -0.025266333 -0.17546228 0.18504845
-0.057647888 0.093682535 -0.23974727 0.11010389 0.3273583 0.16195472 0.22873418 0.059658118
0.4821649 0.18415819 0.17299521 0.35736135 0.21426767 0.07315027 -0.35940686 0.0005966742
-0.06471701 -0.15274884 0.07504088 0.23687269 -0.20991488 -0.06267807 0.0031595835 -0.102914125
-0.34916133 -0.2515262 -0.30460826 0.05283332 0.017845847 -0.19271082 -0.165321 0.118672095
-0.36528984 -0.19988878 -0.011048042 -0.12559354 -0.2000649 -0.1148592 -0.2653213 0.31726864
0.101580456 -0.3398859 -0.060732197 0.07953892 -0.10901233 0.27716172 -0.049228642 0.012811251
-0.07122173 0.22259615 0.0903186 0.23711407 0.18890311 0.31827304 0.095104195 0.06502328
0.5320943 0.27571917 -0.20551153 -0.013747513 0.23491804 -0.112587176 0.12934703 0.34855744
-0.3417886 -0.15046644 -0.09521201 0.02086043 0.07836038 0.14555922 -0.0040537296 0.17291747
0.11365981 0.21563357 -0.22735517 -0.017332708 -0.074198246 -0.10815097 -0.14064349 -0.094074085
0.21156618 0.3475323 0.4801627 0.30846244 -0.1916761 -0.22667252 0.006403603 -0.123847686
-0.19906451 0.2506908 -0.1153989 0.1124418 0.19211017 -0.1346495 -0.4139961 -0.2060459
-0.004024278 -0.01865317 0.1344898 -0.18189071 0.25945795 0.27677765 -0.34942827 0.0332167
0.49530458 0.48885065 0.17641774 0.09455976 0.058707148 0.46584854 0.06832509 -0.22290836
0.21686713 0.15540466 -0.12534633 0.042505786 -0.0015275541 0.07463893 -0.109308034 -0.0853099
00000000: 227a b63e 659c 05be 8f60 55bc 155e 4c3e
00000010: 2026 3d3e 6389 87be 2064 2cbe 98e5 e93c
00000020: e0d9 61bd 8a0f bdbd 4051 28be 0a4e a7be
00000030: 91b1 8a3c 6b01 89bd aa50 a7bd 9d17 c23d
00000040: ea3c 303d e20a a7be fbe5 ecbd 97f8 dabb
00000050: c871 0bbe 4e8e 8dbe 3907 783d 8402 653e
00000060: 1f9a 08be 7e91 013f 6be1 9d3e 38a7 053f
00000070: 2f5c 2b3f a0e8 853e 6d6e a3bd 51b4 2d3e
00000080: c9e3 3bbe b0e5 6bbd 38fa 043f 5219 2cbe
00000090: 0f93 adbd 5c29 8c3e d9c9 163e 0255 443d
000000a0: 35d5 debc 4c4c e23d ea82 323d b1bb 853e
000000b0: 41f2 1a3d 07cb 993d 9634 c4be 6cd5 0b3e
000000c0: d28e 403e bab9 663e e618 613d c8ad dfbd
000000d0: 1fe6 a43b cfd3 a03e 29a3 253d d40a 54be
000000e0: 2503 063d cd6a b0be 628c 2f3d 9a1a 0b3e
000000f0: d74f 2a3e a4a0 1f3e 2f04 bf3e a89e 5c3d
00000100: 711c 993e 0a55 473d f7ad 12bd a70b cabd
00000110: 9a99 3fbe 71d1 643d 3c68 d7bd da11 3bbe
00000120: caa1 97bd 07bb 2e3e 9ea1 193e c7d1 933d
00000130: 781e 39be 4bcb d9bd 3ec6 903e c292 923e
00000140: b51a e9bc 620e 6cbd 503d 7dbe 7088 b13e
00000150: 4d8d a2bb a65a b8bc 0fcd a53e 86f7 bb3e
00000160: 5515 cd3d dd28 a0bd 4264 2c3e 5de8 89be
00000170: ec68 683e 13bb f9bd 0251 1abe f9b9 ce3d
00000180: 7638 b03d e026 943d d207 e9bd 6742 5e3d
00000190: c0e8 6d3d 5818 683c 3d6d a4bc b61f 753e
000001a0: 47b0 16be 3780 e7be b7f7 af3c 2288 edbe
000001b0: 33ee b73e d75b 3d3e 1e1c 2b3d b352 003e
000001c0: 4f28 5ebe 1949 653d 0034 8abd a297 bbbc
000001d0: 7752 473e 2941 983c c63c ad3e 6a46 9ebe
000001e0: 4890 0fbd fe21 85bd a298 ee3d 9260 12bd
000001f0: 5cca 4f3d 6814 13be 494b 8dbd 690a 16be
00000200: 623c febe 60e8 83bd e420 19be 354d bb3e
00000210: 8689 bbbc 57fb cebc 62ac 33be 577d 3d3e
00000220: 3120 6cbd a1dc bf3d 4f80 75be 267e e13d
00000230: 829b a73e 75d7 253e 4b39 6a3e 125c 743d
00000240: 51de f63e f793 3c3e a825 313e 11f8 b63e
00000250: fc68 5b3e cfcf 953d 2d04 b8be 216a 1c3a
00000260: 5a8a 84bd 316a 1cbe 08af 993d c18e 723e
00000270: edf3 56be 5c5d 80bd 0411 4f3b a4c4 d2bd
00000280: 46c5 b2be 0bc8 80be 9df5 9bbe c067 583d
00000290: 7431 923c fc55 45be e949 29be 5b0a f33d
000002a0: 4507 bbbe a5af 4cbe d902 35bc 989b 00be
000002b0: d0dd 4cbe 4d3b ebbd 32d8 87be 0971 a23e
000002c0: 6a09 d03d 8605 aebe 53c2 78bd 4de5 a23d
000002d0: db41 dfbd 24e8 8d3e f9a3 49bd 48e6 513c
000002e0: b3dc 91bd 3ff0 633e f5f8 b83d 08ce 723e
000002f0: d16f 413e aff4 a23e fdc5 c23d ed2a 853d
00000300: 5537 083f 102b 8d3e 9d71 52be 403d 61bc
00000310: 5b8e 703e 1b94 e6bd 8c73 043e 1f76 b23e
00000320: eafe aebe e013 1abe 84fe c2bd 7ee3 aa3c
00000330: 687b a03d 7a0d 153e 26d5 84bb 4711 313e
00000340: 79c6 e83d 0ccf 5c3e cbcf 68be 53fd 8dbc
00000350: 40f5 97bd 417e ddbd d904 10be eaa9 c0bd
00000360: cea4 583e c1ef b13e e3d7 f53e caee 9d3e
00000370: bd46 44be d71c 68be 51d5 d13b dba3 fdbd
00000380: 91d7 4bbe 8b5a 803e 4256 ecbd e347 e63d
00000390: 87b8 443e 8fe1 09be 4cf7 d3be b2fd 52be
000003a0: 17de 83bb 88ce 98bc b2b7 093e 8f41 3abe
000003b0: acd7 843e cdb5 8d3e 43e8 b2be 3c0e 083d
000003c0: 9098 fd3e a24a fa3e daa6 343e 8ca8 c13d
000003d0: e876 703d b383 ee3e 06ee 8b3d 1742 64be
000003e0: 6b12 5e3e 6622 1f3e ca5a 00be 8c1a 2e3d
000003f0: 3638 c8ba 4cdc 983d e4dc dfbd f5b6 aebd

bias f4 [8]
-0.1335287 0.20708333 -0.027535543 0.20099144 0.25678566 0.12685466 0.19820127 0.040586423
00000000: bfbb 08be a70d 543e 3892 e1bc b3d0 4d3e
00000010: 6979 833e 30e6 013e 46f5 4a3e f33d 263d

weight f4 [8]
0.98938996 0.92594314 0.9303043 1.0237331 0.9820557 0.88100487 1.0688177 1.0060446
00000000: a948 7d3f 9c0a 6d3f 6c28 6e3f b009 833f
00000010: 0168 7b3f 8989 613f 05cf 883f 12c6 803f

bias f4 [8]
-0.0835509 -0.076007605 0.092137866 0.06661849 -0.015430066 0.1406808 0.13308199 0.031876687
00000000: bc1c abbd e0a9 9bbd c7b2 bc3d 466f 883d
00000010: 63ce 7cbc a10e 103e a546 083e 2191 023d

running_mean f4 [8]
5.9771657 4.234084 2.9497056 10.730757 3.803621 5.7373137 5.6469617 62.348244
00000000: f144 bf40 9e7d 8740 fac7 3c40 2eb1 2b41
00000010: 876e 7340 1398 b740 e9b3 b440 9a64 7942

running_var f4 [8]
271.9686 139.47603 120.15321 54.97355 136.01346 327.9488 190.04453 1926.3475
00000000: fbfb 8743 dd79 0b43 724e f042 eae4 5b42
00000010: 7203 0843 72f9 a343 660b 3e43 1fcb f044

weight f4 [16, 8, 3, 3]
-0.06303235 -0.20920868 -0.14111373 0.03021607 -0.18701029 0.37803814 -0.08520104 0.22976497
0.10593696 0.14506531 0.030216876 -0.073694594 -0.01635997 -0.03202795 -0.3702243 -0.004155058
0.0073103704 -0.16868804 -0.10190855 0.3185016 -0.094226785 0.20529501 0.23155612 0.2155281
0.041753568 -0.16142425 0.13186876 -0.09610703 -0.04577976 -0.20952149 0.24182408 -0.015686955
0.025432974 -0.045485664 -0.09400659 -0.2676848 0.13215566 0.095671974 -0.11556927 0.14821957
0.09559359 0.24377343 -0.21658751 0.1202364 -0.01082974 0.17088072 0.069053 0.09917764
-0.07940266 -0.075202115 0.31897214 -0.16532335 0.064087436 -0.23576222 -0.2534558 -0.22169706
0.043515842 0.26091784 0.018861389 0.16823499 -0.27431193 0.07304116 0.028850809 -0.1308284
0.16815965 -0.15883635 -0.014872478 0.0010390406 0.076233774 0.22149654 0.26626638 -0.24006349
0.07107228 0.18527654 0.119003475 0.042597353 0.06378433 -0.11002478 -0.049447484 -0.062838376
0.21436226 -0.32448944 -0.13606101 -0.2684896 -0.08210021 0.017140163 0.1062747 -0.011968384
0.18121415 0.074724264 0.36512983 0.21701027 0.33004987 0.25564703 -0.08260722 0.14427191
0.009476657 -0.100492164 -0.11707743 -0.11661569 -0.08478922 -0.050066203 -0.09168103 0.11890857
0.0024395988 -0.25028428 -0.05654143 0.08937935 0.0073658484 -0.06667087 -0.09129322 0.04297641
-0.053102333 0.110087864 0.06018493 0.3033935 0.076731056 -0.2532442 -0.044690296 0.087905936
0.08673026 0.1935384 -0.028730974 0.006330551 -0.24016504 -0.15104498 0.09628111 -0.0006471579
0.036044203 -0.18883714 -0.06728987 -0.3758616 -0.018448176 -0.071398295 -0.14642876 -0.29481328
-0.19608445 -0.0016165968 0.25759074 0.25601274 0.23053528 -0.000559378 -0.123796366 0.05049586
-0.115214586 0.12592183 -0.078398235 0.016140493 -0.025442544 0.1049585 -0.00062650925 0.031776387
-0.029828597 0.37305102 -0.15523088 -0.11661086 0.12460036 0.040738385 0.086003296 0.21451321
0.07062551 0.0078005134 -0.07202486 0.15955421 -0.18031675 -0.1986624 -0.12308517 -0.17463824
0.054832947 -0.119842045 0.12866536 0.1260101 -0.17607595 -0.024725104 -0.12631646 0.038040433
0.0077366675 -0.102463596 -0.25776696 -0.15480897 0.101468146 0.28246623 0.21606594 -0.28415683
-0.18688874 -0.382072 -0.042547435 -0.12569503 0.113586254 0.15258646 0.19861561 0.36319512
0.10155401 -0.12855169 0.010523219 -0.08989189 -0.3699156 -0.059895612 -0.22006823 -0.12498996
-0.3773621 0.12152153 -0.0981245 0.26619127 -0.08244231 -0.093871176 0.08730141 0.12036874
-0.13282019 -0.08964214 0.012404395 -0.2302594 -0.109246045 -0.044740036 0.32110843 0.14957836
0.16822436 -0.026826434 0.02669075 0.17367285 0.2252739 -0.19950749 -0.19533922 -0.237349
-0.12075541 0.0065134834 -0.035252433 0.02220064 0.0003277632 -0.050168715 -0.13793963 0.014648065
0.06481274 0.28310442 0.10727044 0.05971478 -0.20643525 -0.1497625 -0.010692559 0.0150018595
-0.23740189 -0.30172697 -0.3154072 -0.020964893 -0.19434422 0.048305135 0.0496576 0.06436231
0.08203933 0.09795989 0.109697 0.040070806 -0.12196814 0.01710669 -0.11064814 0.1217062
00000000: 1b17 81bd cd3a 56be 1e80 10be b187 f73c
00000010: a07f 3fbe 378e c13e e27d aebd 8247 6b3e
00000020: 7af5 d83d 008c 143e 6289 f73c 31ed 96bd
00000030: 5805 86bc bd2f 03bd 0a8e bdbe 2727 88bb
00000040: d58b ef3b 8fbc 2cbe 6eb5 d0bd a412 a33e
00000050: f9f9 c0bd db38 523e 0c1d 6d3e 66b3 5c3e
00000060: ca05 2b3d 664c 25be 9b08 073e c3d3 c4bd
00000070: 8f83 3bbd cd8c 56be bba0 773e ee81 80bc
00000080: d058 d03c 2d4f 3abd 8786 c0bd fb0d 89be
00000090: d053 073e abef c33d 95af ecbd dfc6 173e
000000a0: 92c6 c33d be9f 793e 1ec9 5dbe 803e f63d
000000b0: 396f 31bc 5bfb 2e3e a96b 8d3d a61d cb3d
000000c0: dd9d a2bd 9103 9abd 5150 a33e 864a 29be
000000d0: 4640 833d a76b 71be f5c4 81be 8e04 63be
000000e0: ab3d 323d 0697 853e 3383 9a3c cb45 2c3e
000000f0: 9d72 8cbe 9b96 953d 8858 ec3c e1f7 05be
00000100: 0b32 2c3e ffa5 22be b2ab 73bc 6b30 883a
00000110: 7420 9c3d fdcf 623e 1154 883e 34d3 75be
00000120: 588e 913d 22b9 3d3e 18b8 f33d 907a 2e3d
00000130: 5ca1 823d ac54 e1bd 7289 4abd 68b1 80bd
00000140: c881 5b3e 7b23 a6be 9453 0bbe 7877 89be
00000150: 2824 a8bd 8769 8c3c 8da6 d93d 0a17 44bc
00000160: 3490 393e 0909 993d 4cf2 ba3e f137 5e3e
00000170: 4cfc a83e 2be4 823e f92d a9bd 04bc 133e
00000180: fb43 1b3c d6ce cdbd 4bc6 efbd 35d4 eebd
00000190: f8a5 adbd 3812 4dbd 44c3 bbbd 5686 f33d
000001a0: ade1 1f3b 4325 80be fd97 67bd 850c b73d
000001b0: 375d f13b bd8a 88bd f1f7 babd 0808 303d
000001c0: d581 59bd bf75 e13d 7984 763d 6556 9b3e
000001d0: 2c25 9d3d 39a9 81be 2c0d 37bd 0708 b43d
000001e0: a29f b13d ee2e 463e 385d ebbc 8370 cf3b
000001f0: d3ed 75be 89ab 1abe 082f c53d 08a6 29ba
00000200: 16a3 133d 865e 41be 45cf 89bd ee70 c0be
00000210: a120 97bc 4539 92bd 6cf1 15be c4f1 96be
00000220: 5dca 48be fde3 d3ba efe2 833e 1a14 833e
00000230: 7111 6c3e 39a3 12ba f388 fdbd bfd4 4e3d
00000240: a0f5 ebbd a7f1 003e 418f a0bd 1139 843c
00000250: e26c d0bc 7bf4 d63d 533c 24ba f527 023d
00000260: 1a5b f4bc 8b00 bf3e d8f4 1ebe add1 eebd
00000270: 792e ff3d 4bdd 263d 7f22 b03d 5aa9 5b3e
00000280: 1ba4 903d 739b ff3b c581 93bd 2e62 233e
00000290: f4a4 38be 286e 4bbe 1414 fcbd 5ed4 32be
000002a0: 8398 603d bf6f f5bd dac0 033e cb08 013e
000002b0: 414d 34be 4d8c cabc 1a59 01be 49d0 1b3d
000002c0: df83 fd3b 6fd8 d1bd 08fa 83be 3e86 1ebe
000002d0: 88ce cf3d 6a9f 903e 6440 5d3e 017d 91be
000002e0: c35f 3fbe f19e c3be 3846 2ebd 33b6 00be
000002f0: e99f e83d a03f 1c3e e461 4b3e b6f4 b93e
00000300: 8cfb cf3d 0ea3 03be 9469 2c3c 3d19 b8bd
00000310: 9465 bdbe 1a55 75bd 9159 61be bcfa ffbd
00000320: 9b35 c1be 48e0 f83d 7ff5 c8bd 394a 883e
00000330: 84d7 a8bd 883f c0bd 15cb b23d e383 f63d
00000340: 0402 08be 4c96 b7bd ce3b 4b3c 1fc9 6bbe
00000350: 64bc dfbd 5441 37bd 5368 a43e 122b 193e
00000360: 0243 2c3e 1cc3 dbbc 8fa6 da3c 4cd7 313e
00000370: 34ae 663e b14b 4cbe 0107 48be 9e0b 73be
00000380: 9d4e f7bd 0f6f d53b db64 10bd 1ede b53c
00000390: a2d7 ab39 b67d 4dbd 0c40 0dbe 70fe 6f3c
000003a0: 8bbc 843d 10f3 903e 9bb0 db3d 7c97 743d
000003b0: c363 53be 575b 19be d82f 2fbc 5cca 753c
000003c0: 7b19 73be f57b 9abe 0d7d a1be 91be abbc
000003d0: 2c02 47be 9bdb 453d c465 4b3d 63d0 833d
000003e0: 3c04 a83d 329f c83d d2a8 e03d 4921 243d
000003f0: 6fca f9bd 5423 8c3c 7e9b e2bd 1a41 f93d

bias f4 [16]
-0.10362845 -0.04535026 -0.077469826 -0.076854974 -0.05019454 -0.1847689 0.08926291 -0.034082476
-0.13162005 0.07162442 -0.08136062 -0.053133033 0.1095684 0.0004773695 0.06187916 0.013434528
00000000: 273b d4bd 32c1 39bd 80a8 9ebd 2466 9dbd
00000010: ca98 4dbd 0f34 3dbe 79cf b63d 119a 0bbd
00000020: 68c7 06be d3af 923d 66a0 a6bd 06a2 59bd
00000030: 6665 e03d 7347 fa39 0175 7d3d 7f1c 5c3c

weight f4 [16]
0.9911436 0.8954744 0.93652874 1.0700521 0.9614615 0.9984912 0.8956049 0.94807786
1.0020281 0.9919659 1.0144719 0.9407029 0.8965139 1.0493326 0.9640822 1.1092474
00000000: 96bb 7d3f cf3d 653f 59c0 6f3f 78f7 883f
00000010: 5722 763f 1f9d 7f3f 5d46 653f 3bb5 723f
00000020: 7542 803f 7af1 7d3f 37da 813f e8d1 703f
00000030: ef81 653f 8850 863f 17ce 763f d2fb 8d3f

bias f4 [16]
0.06745606 0.14465964 -0.0074486984 -0.06293941 -0.05855562 0.09096112 0.197833 0.18184845
-0.055240717 -0.2204375 -0.10461041 0.33270657 0.1532901 -0.1669645 -0.10312388 0.06732429
00000000: 6726 8a3d a821 143e 3614 f4bb 61e6 80bd
00000010: 05d8 6fbd d349 ba3d bc94 4a3e 7b36 3a3e
00000020: 1744 62bd 5eba 61be fc3d d6bd 8458 aa3e
00000030: 14f8 1c3e bef8 2abe 9d32 d3bd 51e1 893d

running_mean f4 [16]
0.3801734 0.31261975 0.33856976 0.2293759 0.3309623 0.5457432 0.27330008 0.32949314
0.16587394 0.7867414 0.18119444 0.3079602 0.8376315 1.3242416 0.7620977 0.6509593
00000000: 16a6 c23e b20f a03e 0459 ad3e 84e1 6a3e
00000010: e473 a93e d4b5 0b3f fded 8b3e 53b3 a83e
00000020: dcda 293e e267 493f 098b 393e f6ac 9d3e
00000030: 056f 563f c080 a93f d618 433f 45a5 263f

running_var f4 [16]
0.9375613 0.8006859 0.68229234 0.12127308 0.82087445 1.1966008 0.29210213 0.6306924
0.117043346 3.6459427 0.21185295 0.5085361 0.82699466 0.56544316 0.7662012 0.31012374
00000000: 0404 703f c0f9 4c3f b6aa 2e3f 055e f83d
00000010: d424 523f 372a 993f 698e 953e 0f75 213f
00000020: 6cb4 ef3d 2057 6940 fbef 583e 6c2f 023f
00000030: ecb5 533f e2c0 103f c325 443f 8ac8 9e3e

weight f4 [32, 16, 3, 3]
0.12981088 0.07042535 -0.037501473 -0.11825959 -0.13349658 -0.1867689 -0.08766993 -0.082136266
0.05603197 -0.032870464 0.101127006 0.021130294 -0.11899162 0.15491964 0.097339034 -0.18275064
-0.16214572 0.016848456 -0.03817317 0.1583652 0.019673847 -0.11932088 0.12928252 0.16069749
0.1295156 -0.14960283 0.061849196 0.104760714 0.062079895 0.044501223 0.08213908 -0.067741536
0.04895441 -0.015218986 -0.0634815 0.03938846 -0.21591388 0.1564803 -0.09276605 -0.014734866
-0.04790348 0.0154813295 -0.16568676 0.07341316 0.09155202 -0.005104465 -0.24691638 -0.13006851
0.024239188 0.0136960335 -0.15234128 -0.07544701 0.09330973 -0.3153353 -0.072649755 -0.21298781
-0.1192621 -0.035419103 0.067920215 0.0109761 -0.1068349 -0.038097046 -0.2028919 -0.02071738
-0.17162727 -0.09692814 0.09013058 -0.20963582 -0.24175876 -0.07267325 0.11026787 0.065971576
0.20984663 0.071965195 0.13966233 -0.19362196 -0.009075573 -0.08813291 -0.073775694 -0.13114344
0.11006444 0.083359845 0.10218241 -0.27292418 -0.024151098 0.032282967 0.050027665 0.2658641
0.113162376 0.3171276 -0.1772656 -0.00082484866 -0.16068313 -0.050272886 -0.046038963 -0.04047123
-0.06337526 -0.11717016 -0.1169177 -0.22858755 -0.05431829 -0.30547693 -0.00716474 0.1193682
-0.17340547 -0.092862904 0.07216433 -0.045145918 -0.06311934 -0.07864164 -0.13510343 0.13381152
0.03986171 0.29131922 -0.20769946 -0.15640272 0.032525096 -0.021045944 0.010834461 0.13569987
-0.07403093 -0.16688383 0.0383568 -0.17116755 -0.011798431 0.12108531 -0.079113886 -0.11008561
-0.032721538 0.21622853 0.06733655 -0.009993651 0.081970625 0.08737038 0.15304522 -0.09266605
-0.11168843 -0.13279346 -0.0508219 0.083555736 0.24294703 -0.020465055 -0.07101426 -0.044215273
-0.051299796 -0.021789629 -0.073794276 -0.07093382 -0.105286196 0.014528995 -0.03470645 -0.12199862
0.040639892 0.024389286 -0.03552519 -0.012145914 -0.14262684 -0.1144198 -0.14985809 0.10899738
0.09335631 0.107272364 -0.12016788 -0.15506485 0.26433003 -0.13264723 0.050548457 -0.0054259365
0.020859983 -0.119486004 0.0673891 0.089208804 -0.17715888 0.10920467 0.024874952 0.16693644
0.17072491 0.06959866 0.16742305 0.13092744 -0.30180624 -0.3151648 -0.04983344 -0.13292374
-0.18084675 0.0037978936 -0.23210724 0.039870787 -0.26817316 -0.24464272 -0.024891159 -0.3234637
-0.21002856 -0.08445412 -0.12576528 -0.21213844 0.0122829 -0.15107483 -0.07666766 0.038812213
-0.0016002685 -0.12597652 0.008446068 -0.25336346 -0.085206755 0.029136863 -0.08051282 0.03467546
0.12756033 0.08454532 0.019633139 0.018163048 -0.16155522 -0.062014326 -0.010324672 0.09037259
0.097404115 -0.15154351 0.09142639 -0.06032812 0.012296105 -0.22593287 -0.16597186 0.0019369872
0.091157176 -0.105580665 -0.027511679 -0.021053584 -0.055467427 -0.035632193 -0.00048964884 -0.018220153
0.21683897 0.15314722 0.0010898703 -0.0563931 0.07480483 0.0548629 -0.05094056 -0.1598073
-0.064619385 -0.029119663 0.026304329 -0.009287455 -0.010174325 -0.011924147 -0.17796233 -0.06963462
0.08247347 0.053636547 -0.18346627 -0.07209857 -0.15587743 0.18445507 -0.12635367 -0.033304527
00000000: 25ed 043e 2a3b 903d 259b 19bd 1532 f2bd
00000010: 54b3 08be 5940 3fbe 4b8c b3bd 0f37 a8bd
00000020: c781 653d 2ea3 06bd ad1b cf3d 7019 ad3c
00000030: e1b1 f3bd 41a3 1e3e b059 c73d fc22 3bbe
00000040: 8709 26be c605 8a3c 785b 1cbd 7d2a 223e
00000050: 0c2b a13c 815e f4bd a362 043e e28d 243e
00000060: bd9f 043e 7c31 19be 9555 7d3d c98c d63d
00000070: 7d47 7e3d ea46 363d 8938 a83d 13bc 8abd
00000080: 6b84 483d 0e59 79bc 9702 82bd cb55 213d
00000090: 8718 5dbe 5f3c 203e 20fc bdbd 826a 71bc
000000a0: 7036 44bd 67a5 7d3c caa9 29be a459 963d
000000b0: a07f bb3d 5b43 a7bb a6d7 7cbe ae30 05be
000000c0: 4391 c63c 5465 603c 5aff 1bbe f683 9abd
000000d0: 2c19 bf3d a173 a1be 65c9 94bd 7a19 5abe
000000e0: b03f f4bd 9f13 11bd c119 8b3d 1ad5 333c
000000f0: 42cc dabd a60b 1cbd e5c2 4fbe 7fb7 a9bc
00000100: 0fbf 2fbe 4382 c6bd 6296 b83d c6aa 56be
00000110: 9c8f 77be b7d5 94bd 1fd4 e13d 1b1c 873d
00000120: 09e2 563e 7d62 933d a403 0f3e d644 46be
00000130: b6b1 14bc 077f b4bd b617 97bd 774a 06be
00000140: 7769 e13d 91b8 aa3d 0345 d13d b8bc 8bbe
00000150: 86d8 c5bc 253b 043d cfe9 4c3d 571f 883e
00000160: adc1 e73d 8c5e a23e 1d85 35be a83a 58ba
00000170: 1e8a 24be f1ea 4dbd 5a93 3cbd 29c5 25bd
00000180: e3ca 81bd e9f6 efbd 8c72 efbd db12 6abe
00000190: db7c 5ebd 7967 9cbe 32c6 eabb 5177 f43d
000001a0: 3491 31be e82e bebd e4ca 933d edea 38bd
000001b0: b644 81bd de0e a1bd 8e58 0abe e305 093e
000001c0: 0846 233d cb27 953e 2baf 54be 0928 20be
000001d0: 0939 053d 8b68 acbc 0683 313c e8f4 0a3e
000001e0: 879d 97bd 98e3 2abe 051c 1d3d 8c46 2fbe
000001f0: 354e 41bc 93fb f73d 7606 a2bd 9074 e1bd
00000200: 0507 06bd 036b 5d3e bfe7 893d 69bc 23bc
00000210: 37e0 a73d 3eef b23d e3b7 1c3e b3c7 bdbd
00000220: e7bc e4bd 02fb 07be a02a 50bd 451f ab3d
00000230: 1bc7 783e 55a6 a7bc ed6f 91bd 131b 35bd
00000240: bc1f 52bd 2a80 b2bc 7421 97bd c045 91bd
00000250: 4aa0 d7bd 060b 6e3c 5a28 0ebd 6ada f9bd
00000260: 0476 263d 0acc c73c dd82 11bd a8ff 46bc
00000270: c50c 12be ee54 eabd 6674 19be 053a df3d
00000280: 9831 bf3d 9db1 db3d 941a f6bd 52c9 1ebe
00000290: 4456 873e add4 07be e60b 4f3d 0ecc b1bb
000002a0: 8ee2 aa3c 14b5 f4bd 4c03 8a3d 1bb3 b63d
000002b0: 2369 35be b3a6 df3d 8ec6 cb3c 63f1 2a3e
000002c0: 83d2 2e3e be89 8e3d f370 2b3e d811 063e
000002d0: 5986 9abe 485d a1be 261e 4cbd 291d 08be
000002e0: e42f 39be 15e6 783b 85ad 6dbe 8d4f 233d
000002f0: fe4d 89be 9f83 7abe 8be8 cbbc 099d a5be
00000300: ba11 57be 48f6 acbd 9dc8 00be d23a 59be
00000310: 373e 493c 5cb3 1abe ef03 9dbd 8ef9 1e3d
00000320: 1ac0 d1ba fdff 00be 6061 0a3c dbb8 81be
00000330: e180 aebd 6eb0 ee3c e8e3 a4bd db07 0e3d
00000340: 2d9f 023e 1926 ad3d add5 a03c acca 943c
00000350: bb6e 25be bc02 7ebd d028 29bc 4415 b93d
00000360: cf7b c73d 392e 1bbe c23d bb3d 9e1a 77bd
00000370: 9a75 493c f25a 67be 87f4 29be 81e2 fd3a
00000380: 9db0 ba3d ad3a d8bd 2c60 e1bc 9178 acbc
00000390: d031 63bd 10f3 11bd c75b 00ba 6e42 95bc
000003a0: 090b 5e3e a0d2 1c3e fbd9 8e3a 74fc 66bd
000003b0: 4633 993d ecb7 603d 0ca7 50bd 86a4 23be
000003c0: 2b57 84bd 5c8c eebc 2d7c d73c 692a 18bc
000003d0: 36b2 26bc 7f5d 43bc c23b 36be 989c 8ebd
000003e0: dae7 a83d ffb1 5b3d 95de 3bbe 6aa8 93bd
000003f0: 559e 1fbe cae1 3c3e db62 01be 546a 08bd

bias f4 [32]
-0.21263097 0.095081225 -0.017920852 -0.043735135 -0.029374983 -0.13020274 -0.10319216 0.0099043865
-0.0060006543 -0.05581714 -0.08511869 -0.15142734 0.003315026 -0.069491215 -0.054106284 -0.27806157
-0.15954776 -0.17224917 -0.10314227 -0.09566132 -0.0012249039 -0.15420352 0.009157086 -0.010386176
-0.020470379 -0.071086414 -0.31471547 -0.17153811 -0.14647037 -0.11439778 -0.07891311 -0.0670665
00000000: efbb 59be f2b9 c23d c0ce 92bc 9d23 33bd
00000010: cea3 f0bc de53 05be 6956 d3bd 0246 223c
00000020: 23a1 c4bb 83a0 64bd b552 aebd c50f 1bbe
00000030: e840 593b 6951 8ebd 8d9e 5dbd 165e 8ebe
00000040: 7d60 23be 1662 30be 413c d3bd 15ea c3bd
00000050: f48c a0ba 87e7 1dbe 9a07 163c c82a 2abc
00000060: 7fb1 a7bc c195 91bd 6322 a1be b0a7 2fbe
00000070: 54fc 15be 6249 eabd 329d a1bd 295a 89bd

weight f4 [32]
0.99022216 0.94277143 0.9729722 0.9468075 1.0022905 1.0432147 0.93411034 0.97876143
0.9538182 0.95923513 1.053869 1.0143325 1.0304238 0.95940876 1.0139991 1.0549091
0.9862656 1.0323641 1.0790881 1.0072538 0.973301 1.0589871 0.96090287 0.99405104
0.9855455 0.86521024 1.006969 1.0801249 1.0623806 0.93224233 1.0246911 0.9458668
00000000: 337f 7d3f 7859 713f b514 793f fa61 723f
00000010: 0e4b 803f 0f88 853f db21 6f3f 1c90 7a3f
00000020: 6e2d 743f 6f90 753f 2ee5 863f a6d5 813f
00000030: ede4 833f d09b 753f b9ca 813f 4307 873f
00000040: e77b 7c3f 8224 843f 8f1f 8a3f b1ed 803f
00000050: 412a 793f e48c 873f bbfd 753f 217a 7e3f
00000060: b64c 7c3f 6b7e 5d3f 5ce4 803f 8841 8a3f
00000070: 16fc 873f 6fa7 6e3f 1429 833f 5424 723f

bias f4 [32]
-0.20539095 0.08368441 0.12000589 -0.045456104 -0.009910857 0.1609742 0.1284449 -0.10237913
-0.010298679 0.13306579 -0.17326693 -0.080990344 -0.040647738 -0.00663893 -0.085103504 0.052857783
-0.084923 0.12486484 0.22290106 -0.14580318 0.16407801 0.0011742124 0.28988102 0.055814553
0.04413854 -0.019699048 0.17901187 0.21905142 0.14174126 0.1176129 -0.06977829 -0.024772838
00000000: 0152 52be bb62 ab3d a6c5 f53d 2e30 3abd
00000010: 2661 22bc 6cd6 243e 0f87 033e 26ac d1bd
00000020: cabb 28bc 6642 083e e36c 31be 44de a5bd
00000030: 3e7e 26bd 628b d9bb bf4a aebd 6781 583d
00000040: 1cec adbd 23b9 ff3d 2d40 643e 6e4d 15be
00000050: 1104 283e 08e8 993a 496b 943e cd9d 643d
00000060: 9dca 343d e65f a1bc e34e 373e 044f 603e
00000070: 9f24 113e 08df f03d ece7 8ebd 68f0 cabc

running_mean f4 [32]
0.14352298 0.997984 0.54050744 0.68801236 0.5687975 0.40867078 0.4922983 0.5389054
0.55216396 0.46299577 0.61887217 0.40132463 0.85044485 0.7889357 1.0375876 0.13885745
0.38118467 0.3170549 0.30136722 0.37926614 0.6663576 0.14866711 0.57130224 0.54051846
0.40713537 0.58712304 0.19197921 0.4775409 0.71527356 0.802469 0.6224916 0.31641743
00000000: b0f7 123e e17b 7f3f b25e 0a3f 9421 303f
00000010: b79c 113f 4c3d d13e 860e fc3e b4f5 093f
00000020: 9e5a 0d3f c80d ed3e 686e 1e3f 6c7a cd3e
00000030: c1b6 593f b1f7 493f accf 843f a630 0e3e
00000040: a32a c33e 0555 a23e ce4c 9a3e 2c2f c23e
00000050: 6996 2a3f 313c 183e dd40 123f 6b5f 0a3f
00000060: 0c74 d03e b24d 163f 3396 443e 3e80 f43e
00000070: 2b1c 373f 9c6e 4d3f 9c5b 1f3f 7701 a23e

running_var f4 [32]
0.09782139 1.6190604 0.5063693 2.5458426 1.020786 0.71622914 1.0505164 0.6885109
0.5173696 0.6943027 1.151184 0.58127743 1.898158 0.61826485 2.0177271 0.25069836
0.6140594 0.4001706 0.48271623 0.60184175 1.4158938 0.22332798 1.3531243 0.5483134
0.33281916 0.87329596 0.3324167 0.93383723 2.3134255 1.8036715 0.77568567 0.27773926
00000000: 9556 c83d 5f3d cf3f 6ba1 013f 16ef 2240
00000010: 1ea9 823f cb5a 373f 5277 863f 4042 303f
00000020: 5672 043f d2bd 313f ff59 933f 99ce 143f
00000030: d7f6 f23f 9b46 1e3f 7122 0140 895b 803e
00000040: ff32 1d3f 29e3 cc3e 9526 f73e 4d12 1a3f
00000050: 023c b53f 17b0 643e 2d33 ad3f 445e 0c3f
00000060: 4667 aa3e 5390 5f3f 8632 aa3e f50f 6f3f
00000070: 2a0f 1440 b5de e63f 5693 463f d733 8e3e

weight f4 [64, 32, 3, 3]
-0.1378254 -0.18488282 0.14113787 -0.051186875 0.08269294 0.07402285 -0.24954945 -0.07080404
-0.09240815 0.009033524 0.10381995 -0.07603143 -0.045485273 0.049315277 0.04111 0.121418566
0.032207873 0.037125804 -0.16421591 -0.05456928 0.07342071 0.040970393 0.046822485 0.044405434
0.035800826 -0.05016783 0.09228774 -0.022100361 0.03889089 0.07025275 -0.05558546 0.08099619
0.09963131 -0.095071636 0.119183145 -0.027287124 0.024826119 0.060443603 -0.02525331 0.1720821
0.20941193 0.07998687 -0.036988012 0.033627 -0.11274764 0.008839802 -0.049278464 0.097730845
0.072825685 0.047995094 0.062950596 0.29240507 0.22501157 0.08560818 0.007842107 -0.04497672
0.007909676 -0.015643803 -0.09980142 -0.014716977 0.19895849 -0.050295204 0.06227405 -0.03621327
-0.0069184564 -0.1124878 0.005570704 -0.031487145 -0.099356234 -0.04722069 -0.072451286 -0.029195253
-0.029708587 -0.04129297 -0.076864325 -0.0051201666 -0.11675975 -0.072505854 0.012015615 -0.040543508
-0.059787836 0.04869548 -0.027839895 0.043978654 0.07456478 0.068391286 -0.008930547 0.063708894
0.02952384 -0.034933146 0.016753359 -0.0381239 -0.16860913 0.011501084 -0.048553795 -0.12619942
-0.13952056 -0.11699071 0.057808664 0.041255046 0.10161499 0.013919794 0.051424008 -0.10339849
-0.12453367 0.2158311 0.045312528 0.056574363 -0.070375524 0.15613763 0.045984328 -0.10798652
0.047918297 -0.008869882 -0.06859896 0.051284354 0.05554052 -0.0154733425 0.13901342 -0.11271475
-0.0703506 0.014678194 0.023670498 0.078776695 0.14430735 -0.042523056 0.034232114 -0.048367556
-0.07312669 -0.07727743 0.08996433 -0.011190508 -0.054127306 0.09152413 0.13895962 0.014352567
0.020810125 -0.012069742 0.036249768 -0.016055493 -0.010027388 -0.012697582 0.10110484 -0.047235306
-0.009649947 -0.04778322 -0.08684715 -0.058351453 -0.19727708 0.006637812 -0.11175634 -0.0647981
-0.045453925 0.017656721 -0.06735455 -0.14131841 -0.0854931 -0.09113211 -0.17633586 0.05982513
0.07329556 0.03965938 -0.1487017 -0.11047553 -0.19390444 0.18438368 0.31446078 0.19191009
-0.078404024 -0.14701334 -0.12279735 -0.081400745 -0.011938372 0.019593919 -0.13906513 -0.007680248
0.02441904 -0.09017837 0.15490243 0.08602731 -0.043299034 0.0031042222 -0.101943456 -0.062549375
-0.24361616 0.14264451 0.0367516 0.11880957 0.077256754 -0.10023767 0.05271931 -0.08739524
0.20175484 0.09156913 -0.008656337 -0.131238 -0.15197513 -0.0029412804 -0.0028003023 -0.029489167
0.16216296 0.02977811 -0.04626084 -0.09638634 -0.031933032 0.056966543 -0.11542378 0.1195841
-0.0053505856 0.14010903 0.0076227244 -0.029525055 -0.06333189 0.15035957 -0.035032503 0.042341612
-0.0022968466 0.018148435 -0.12765798 -0.0234604 -0.020997627 -0.10841023 0.019438807 0.028361967
-0.037257303 0.1439993 0.04325912 -0.03880164 0.07595236 -0.047092825 0.035281472 0.05388856
0.059380356 0.07668373 0.03365131 -0.05633298 -0.027096279 -0.14838012 -0.054372117 -0.03985564
-0.11034191 0.010658705 -0.0715896 -0.08330892 -0.027906423 0.042450774 -0.04036018 0.14945906
0.058417697 -0.006562077 0.026474582 -0.10442335 0.076803595 0.057351265 0.15412878 0.0539367
00000000: 1a22 0dbe ec51 3dbe 7286 103e 54a9 51bd
00000010: eb5a a93d 4b99 973d e489 7fbe b501 91bd
00000020: 7c40 bdbd 5901 143c 8e9f d43d 5eb6 9bbd
00000030: c44e 3abd d1fe 493d f662 283d 4caa f83d
00000040: 67ec 033d 3a11 183d 3728 28be 0a84 5fbd
00000050: 995d 963d 92d0 273d efc8 3f3d 79e2 353d
00000060: e3a3 123d c87c 4dbd 5b01 bd3d d10b b5bc
00000070: 0e4c 1f3d ace0 8f3d 94ad 63bd 55e1 a53d
00000080: 800b cc3d ebb4 c2bd 4b16 f43d 3f89 dfbc
00000090: 2560 cb3c b693 773d 08e0 cebc 4a36 303e
000000a0: 1570 563e 28d0 a33d be80 17bd 77bc 093d
000000b0: 3ce8 e6bd d1d4 103c 37d8 49bd 1c27 c83d
000000c0: a225 953d 8196 443d 3eec 803d 1eb6 953e
000000d0: 6f69 663e 5753 af3d 2e7c 003c 8239 38bd
000000e0: 9697 013c 6f27 80bc b064 ccbd 7a1f 71bc
000000f0: c6bb 4b3e 5802 4ebd 1313 7f3d 5e54 14bd
00000100: 38b4 e2bb 0160 e6bd 748a b63b aaf8 00bd
00000110: 487b cbbd 7b6a 41bd 5761 94bd e22a efbc
00000120: 6c5f f3bc d122 29bd 0b6b 9dbd 12c7 a7bb
00000130: bc1f efbd f37d 94bd 24dd 443c f310 26bd
00000140: 17e4 74bd e974 473d 7e10 e4bc f622 343d
00000150: 6bb5 983d bb10 8c3d 6e51 12bc cf79 823d
00000160: fbdb f13c 0f16 0fbd 573e 893c ce27 1cbd
00000170: dfa7 2cbe 0b6f 3c3c 58e0 46bd 6c3a 01be
00000180: 7ade 0ebe d398 efbd c7c8 6c3d 0dfb 283d
00000190: 851b d03d d90f 643c fba1 523d 96c2 d3bd
000001a0: 820b ffbd d402 5d3e a199 393d 85ba 673d
000001b0: 0b21 90bd 8be2 1f3e 105a 3c3d 0928 ddbd
000001c0: fa45 443d fb52 11bc 9d7d 8cbd 8b0f 523d
000001d0: 757e 633d e783 7dbc 8959 0e3e fed6 e6bd
000001e0: fa13 90bd cf7c 703c a2e8 c13c ad55 a13d
000001f0: 4ec5 133e a82c 2ebd f936 0c3d 0f1d 46bd
00000200: 72c3 95bd a143 9ebd 383f b83d 6458 37bc
00000210: 98b4 5dbd 0171 bb3d 6e4b 0e3e 0727 6b3c
00000220: ff79 aa3c 2bc0 45bc a37a 143d cf86 83bc
00000230: ea49 24bc 8509 50bc 0e10 cf3d cf79 41bd
00000240: d01a 1ebc 56b8 43bd ebdc b1bd ef01 6fbd
00000250: 0103 4abe 0182 d93b 82e0 e4bd deb4 84bd
00000260: e52d 3abd d4a4 903c 2ff1 89bd c6b5 10be
00000270: 0217 afbd 79a3 babd 6391 34be 320b 753d
00000280: fc1b 963d e071 223d 4245 18be ff40 e2bd
00000290: e38e 46be 13cf 3c3e 0101 a13e 1484 443e
000002a0: 4a92 a0bd aa8a 16be 2d7d fbbd 6fb5 a6bd
000002b0: 2999 43bc 6d83 a03c 1767 0ebe 97aa fbbb
000002c0: 700a c83c 70af b8bd be9e 1e3e 162f b03d
000002d0: 545a 31bd 3570 4b3b bbc7 d0bd e319 80bd
000002e0: 8476 79be 6711 123e d988 163d 6f52 f33d
000002f0: ca38 9e3d 6849 cdbd 34f0 573d 47fc b2bd
00000300: d298 4e3e 9988 bb3d 4fd3 0dbc 4163 06be
00000310: 5e9f 1bbe 7fc2 40bb 4785 37bb 4493 f1bc
00000320: 0c0e 263e 39f1 f33c 027c 3dbd 3466 c5bd
00000330: 36cc 02bd c055 693d 4e63 ecbd 82e8 f43d
00000340: f753 afbb be78 0f3e 0cc8 f93b 87de f1bc
00000350: 26b4 81bd dcf7 193e 3e7e 0fbd 666e 2d3d
00000360: b186 16bb 07ac 943c c6b8 02be 0630 c0bc
00000370: 3703 acbc 2f06 debd 223e 9f3c 5b57 e83c
00000380: 1d9b 18bd 8d74 133e 7a30 313d 78ee 1ebd
00000390: e98c 9b3d 68e4 40bd 4e83 103d 40ba 5c3d
000003a0: d138 733d 5c0c 9d3d f5d5 093d 69bd 66bd
000003b0: 04f9 ddbc f5f0 17be 4cb5 5ebd ab3f 23bd
000003c0: f0fa e1bd d9a1 2e3c 919d 92bd de9d aabd
000003d0: 039c e4bc dde0 2d3d b750 25bd cc0b 193e
000003e0: 6547 6f3d b106 d7bb 39e1 d83c e9db d5bd
000003f0: 344b 9d3d 29e9 6a3d efd3 1d3e bbec 5c3d

bias f4 [64]
0.01828352 0.10373467 0.014845292 0.010344207 0.04656487 -0.10684397 -0.14869139 -0.09792665
0.0030417421 -0.014095276 0.18609244 0.01586611 0.105241366 0.17686783 0.1778331 0.07522273
0.06755521 0.0029320873 -0.07397795 0.10770155 0.010692777 0.010430238 -0.030427514 0.033243105
-0.11563203 -0.056307737 -0.08234226 -0.005479143 -0.0033395512 -0.1822876 0.1039732 -0.24096856
0.059652504 -0.014357701 -0.0030387447 -0.1509874 -0.014483144 0.09878047 0.06199628 0.118145645
0.026220215 0.042089835 0.013661409 0.012044899 0.24724972 -0.05501334 -0.16184443 -0.039622024
0.062408432 -0.03361811 0.027895764 -0.0049671982 -0.027646353 -0.015372394 0.10233275 -0.04343732
0.031964604 0.018916659 -0.082514994 -0.14592505 -0.11074025 -0.14553046 0.16908911 0.070792265
00000000: 52c7 953c d872 d43d ab39 733c c07a 293c
00000010: ceba 3e3d 03d1 dabd 8e42 18be c48d c8bd
00000020: f757 473b dfef 66bc 048f 3e3e a5f9 813c
00000030: c988 d73d d71c 353e e119 363e 600e 9a3d
00000040: 635a 8a3d 4328 403b c081 97bd a192 dc3d
00000050: c230 2f3c 97e3 2a3c 1f43 f9bc ec29 083d
00000060: 7cd0 ecbd f1a2 66bd 0fa3 a8bd 628a b3bb
00000070: 5fdc 5abb 9aa9 3abe e7ef d43d 76c0 76be
00000080: 2f56 743d 903c 6bbc ad25 47bb 719c 1abe
00000090: b54a 6dbc 6a4d ca3d d0ef 7d3d 58f6 f13d
000000a0: c7cb d63c 6466 2c3d 1ad4 5f3c f857 453c
000000b0: 082f 7d3e ab55 61bd 8cba 25be b44a 22bd
000000c0: fc9f 7f3d 25b3 09bd a885 e43c e1c3 a2bb
000000d0: 9b7a e2bc 7edc 7bbc d593 d13d 55eb 31bd
000000e0: 51ed 023d 1cf7 9a3c 9ffd a8bd 606d 15be
000000f0: c9cb e2bd f005 15be b225 2d3e 89fb 903d

weight f4 [64]
1.4796852 1.6544025 1.7364405 1.5621274 1.7640635 1.5883204 1.568786 1.6554508
1.497433 1.5455542 1.4484439 1.5797613 1.5725044 1.5055627 1.5511503 1.5668341
1.6505435 1.7711703 1.6391133 1.6663371 1.7508001 1.5641695 1.5675104 1.5308062
1.644613 1.6745776 1.6463525 1.5140368 1.5820888 1.5869125 1.4824557 1.7975019
1.5867424 1.5034307 1.6130456 1.6129633 1.3964231 1.5518843 1.6720313 1.4687989
1.6796863 1.4256153 1.5912187 1.6472138 1.6907568 1.6988522 1.6822689 1.6768382
1.5687594 1.4234371 1.4636604 1.6863782 1.5881977 1.6382405 1.4130092 1.4691488
1.756463 1.6288759 1.464407 1.5691606 1.6030704 1.8553455 1.6587114 1.4907115
00000000: 5366 bd3f 76c3 d33f af43 de3f caf3 c73f
00000010: d5cc e13f 154e cb3f fbcd c83f d0e5 d33f
00000020: e2ab bf3f b8d4 c53f 9c66 b93f 9e35 ca3f
00000030: d347 c93f 47b6 c03f 188c c63f 058e c83f
00000040: 0245 d33f b5b5 e23f 77ce d13f 894a d53f
00000050: 381a e03f b536 c83f 2ea4 c83f 75f1 c33f
00000060: ae82 d23f 8f58 d63f aebb d23f f5cb c13f
00000070: e381 ca3f f31f cb3f 1cc1 bd3f 8b14 e63f
00000080: 601a cb3f 6b70 c03f 4778 ce3f 9575 ce3f
00000090: febd b23f 25a4 c63f 1f05 d63f 9a01 bc3f
000000a0: f6ff d63f 907a b63f 0ead cb3f e7d7 d23f
000000b0: b86a d83f fd73 d93f 9654 d73f a2a2 d63f
000000c0: 1ccd c83f 3033 b63f 3959 bb3f 3edb d73f
000000d0: 104a cb3f ddb1 d13f 7cdd b43f 110d bc3f
000000e0: c8d3 e03f 017f d03f b071 bb3f 41da c83f
000000f0: 6931 cd3f f67b ed3f a850 d43f a2cf be3f

bias f4 [64]
0.008303964 0.12095891 -0.0789996 -0.23310886 -0.06296972 -0.07401274 -0.011811303 -0.091587
-0.010102698 -0.048127465 -0.08800271 -0.071832225 -0.10626414 0.20351174 -0.08915711 -0.040620636
0.018004186 0.15386449 -0.061864913 -0.020520363 0.10149371 0.09857239 -0.03555571 0.04013493
-0.19484968 0.043270174 -0.10235141 0.07018828 -0.1048139 -0.09616458 0.10084871 0.064821474
0.05932813 -0.06976525 -0.09417051 -0.01600716 -0.10471538 0.038285326 0.11929519 0.037846807
0.05927005 -0.09346007 -0.020917943 -0.18544608 -0.19403775 -0.087778635 0.021886796 0.10768287
0.013437243 -0.13375589 -0.15112178 0.019086398 0.043641377 0.09191094 0.0449812 -0.030887848
0.057904374 -0.16379738 -0.13494305 -0.1635109 -0.040739745 0.11265401 0.14458336 0.14864236
00000000: 590d 083c 4eb9 f73d 8bca a1bd 17b4 6ebe
00000010: 45f6 80bd fe93 97bd 3284 41bc f791 bbbd
00000020: c985 25bc 4e21 45bd c43a b4bd c61c 93bd
00000030: 03a1 d9bd 6265 503e 0198 b6bd d361 26bd
00000040: 847d 933c a78e 1d3e 1066 7dbd 521a a8bc
00000050: efdb cf3d 52e0 c93d dda2 11bd 8664 243d
00000060: ad86 47be 113c 313d 9e9d d1bd dfbe 8f3d
00000070: aca8 d6bd eff1 c4bd c589 ce3d 1fc1 843d
00000080: 0e02 733d 15e1 8ebd 78dc c0bd 7321 83bc
00000090: 0475 d6bd 13d1 1c3d 0951 f43d 4105 1b3d
000000a0: 27c5 723d fe67 bfbd 1b5c abbc 94e5 3dbe
000000b0: d5b1 46be 49c5 b3bd f04b b33c d688 dc3d
000000c0: e227 5c3c 4ef7 08be abbf 1abe 145b 9c3c
000000d0: 4dc1 323d ce3b bc3d 353e 383d 8308 fdbc
000000e0: 232d 6d3d 80ba 27be 832e 0abe 676f 27be
000000f0: b8de 26bd 25b7 e63d a90d 143e b435 183e

running_mean f4 [64]
0.49948463 0.91986334 0.44197148 0.84817404 0.8229125 0.6317208 0.16556074 0.32760546
0.44571906 0.5875414 0.9954798 0.627058 0.6962782 1.0281377 0.8816595 1.0370286
0.4559583 0.9624788 0.373295 0.74933505 0.85335004 0.72604173 0.56302243 0.8700881
0.29775548 0.46798635 0.49906048 0.777673 0.38618037 0.41190007 0.8396794 0.161014
0.6729878 0.7093571 1.0373898 0.2826681 0.62931305 0.80759 0.95923305 1.1287242
0.83991486 1.0717331 0.86275715 0.41819736 0.47438297 0.52722627 0.33484522 0.9137282
0.5614693 0.6614323 0.6578247 0.7175873 0.5693823 0.7232377 0.97310007 0.53308976
0.7625201 0.46964186 0.36382288 0.45086712 0.6494537 0.42432374 1.385062 0.9089051
00000000: 73bc ff3e 2a7c 6b3f 164a e23e ef21 593f
00000010: 65aa 523f 74b8 213f c188 293e e7bb a73e
00000020: 4a35 e43e 1d69 163f c4d7 7e3f e086 203f
00000030: 4a3f 323f 049a 833f 70b4 613f 5abd 843f
00000040: 5e73 e93e 0365 763f 8620 bf3e 6cd4 3f3f
00000050: 2675 5a3f dfdd 393f 3d22 103f 18be 5e3f
00000060: 6873 983e e89b ef3e db84 ff3e 9415 473f
00000070: 6fb9 c53e 91e4 d23e 3bf5 563f dbe0 243e
00000080: ee48 2c3f 6d98 353f 30c9 843f e0b9 903e
00000090: a91a 213f 38be 4e3f 4c90 753f 097a 903f
000000a0: a904 573f 8d2e 893f a7dd 5c3f f71d d63e
000000b0: 53e2 f23e 4df8 063f d570 ab3e 17ea 693f
000000c0: 74bc 0f3f a153 293f 3367 283f cdb3 373f
000000d0: 0ac3 113f 1b26 393f 161d 793f 9278 083f
000000e0: 8434 433f e674 f03e fe46 ba3e 0ed8 e63e
000000f0: 9942 263f f640 d93e b649 b13f 01ae 683f

running_var f4 [64]
0.8703005 1.0231413 0.4280029 1.629538 1.3143879 0.9578566 0.25620744 0.5209267
0.531117 0.971597 1.2257357 1.150538 1.4742446 0.88189334 1.8685749 1.2529184
0.49302292 1.0859361 0.59911716 0.93074644 1.0859761 0.7459591 0.83006406 1.1890645
0.46087945 0.69783765 0.7240876 0.8181373 0.66536665 0.91795635 1.0778894 0.21749176
1.0905651 0.91356266 1.5032784 0.4419597 0.9727962 0.7959787 0.9864446 2.06426
0.95754325 2.5750618 1.5420833 0.83861923 0.62610215 0.75613374 0.5926533 1.1518569
0.56791764 2.0488236 1.43274 1.0486703 0.86280644 0.75270325 1.0268428 1.1761416
0.9909015 0.96019435 0.5928963 0.8437391 0.72907156 0.44977978 1.2942979 1.0068289
00000000: 03cc 5e3f 4bf6 823f 3223 db3e b494 d03f
00000010: dd3d a83f 1736 753f 9f2d 833e 745b 053f
00000020: 49f7 073f 95ba 783f e8e4 9c3f d444 933f
00000030: 0cb4 bc3f c3c3 613f 762d ef3f a15f a03f
00000040: 806d fc3e f4ff 8a3f be5f 193f 6645 6e3f
00000050: 4401 8b3f 2df7 3e3f 147f 543f 4433 983f
00000060: 64f8 eb3e 7da5 323f ce5d 393f 7271 513f
00000070: 7855 2a3f 30ff 6a3f 48f8 893f 29b6 5e3e
00000080: a397 8b3f 3edf 693f 6d6b c03f 8b48 e23e
00000090: 2c09 793f 43c5 4b3f a287 7c3f d61c 0440
000000a0: 8e21 753f d0cd 2440 fc62 c53f c0af 563f
000000b0: 3b48 203f fb91 413f 20b8 173f 0c70 933f
000000c0: 0d63 113f ed1f 0340 0664 b73f d43a 863f
000000d0: e2e0 5c3f 29b1 403f 966f 833f cf8b 963f
000000e0: b9ab 7d3f 4ccf 753f 0dc8 173f 49ff 573f
000000f0: 6fa4 3a3f 8949 e63e 8eab a53f c5df 803f

weight f4 [10, 64]
-0.3808712 0.05423311 -0.3006113 0.25824282 -0.0242709 0.10521578 -0.3257169 -0.19956006
-0.119716346 0.3724893 -0.21231529 0.19949256 0.17273833 -0.18550831 -0.3630758 0.3006358
-0.025699498 0.43603456 -0.22333424 0.29849207 0.20681475 -0.16737004 -0.20833987 0.30058268
-0.08902267 0.21717419 0.37786356 -0.18006194 -0.008634675 0.25666806 -0.33336526 -0.20742604
-0.3600604 -0.17981766 0.35596934 -0.18050124 -0.119682126 -0.27735898 0.28956386 0.11785063
0.12896153 -0.10503687 0.19039044 -0.30291954 -0.3187052 -0.30400494 0.20166838 -0.06193238
-0.36347702 -0.2916405 0.12651446 0.24526195 -0.32981837 -0.13046007 -0.15751879 -0.14703593
-0.31576136 -0.3666249 -0.18887745 0.42803386 -0.15264125 -0.111237586 0.020283394 -0.113032915
-0.21885109 0.20768277 -0.49937853 -0.17953882 0.45067686 0.12184216 -0.25494838 0.395441
-0.2970865 -0.19379583 -0.3117785 0.098308064 -0.1265319 0.1276019 -0.042062417 -0.4331496
0.3270844 -0.25986746 0.12374121 0.28461903 0.41696408 0.3709647 0.032436185 -0.10509365
0.20078532 0.27459645 0.37624276 0.25079146 0.13820027 -0.29978028 -0.016117766 0.44153035
0.2970005 -0.42154643 -0.28787172 0.14541648 -0.16181017 -0.14680381 -0.34321 0.0099404445
0.3386924 0.016972767 0.049382996 -0.2600765 0.23792623 0.09868778 -0.37322065 -0.17371412
-0.3898642 -0.2339981 -0.1995049 0.0012126304 0.18471117 0.20527071 -0.06452232 -0.33974588
-0.28200647 0.12724131 -0.04539727 0.0030088336 -0.3785878 -0.5990138 0.25724494 -0.066881165
-0.08357052 -0.18312356 -0.1433206 -0.06441985 0.28644663 0.064149566 -0.24226904 0.108837694
0.022342514 0.003926347 0.20073862 -0.07995238 -0.04627138 0.12834808 -0.14853424 0.25035855
0.21187729 -0.030853825 -0.20524776 -0.24216546 0.31809187 -0.44089288 0.41094077 -0.22717088
0.054874223 0.32675943 0.014039539 -0.2992504 0.17068447 -0.12134783 0.29950625 0.30065414
0.17341842 0.2582684 -0.18244003 -0.32020795 0.24881999 -0.027295247 -0.25284028 -0.12175063
-0.17712238 -0.08970839 -0.16152446 0.010886 0.19173525 0.4907658 0.014475458 0.11742079
0.18759803 0.18179096 -0.24541275 0.25739506 0.38274348 -0.11875979 0.24828896 0.262459
0.21613395 -0.08907849 0.22398028 -0.1162182 0.20501782 -0.28787652 0.22973217 0.17249146
0.23291256 0.38300088 0.059596073 0.04624751 -0.3279335 0.31209713 0.23852025 -0.15352057
-0.24592473 0.29347312 0.28191945 0.15827525 0.1543171 -0.21798082 0.22174713 -0.12801178
-0.31212804 -0.20251901 0.13776894 0.21175316 -0.3219792 -0.17800315 0.07542961 0.039783392
-0.11125465 -0.20727323 -0.23660865 -0.114923134 0.024678603 0.04775907 -0.14953566 -0.27301046
0.49635217 -0.18761645 0.0428428 -0.05465779 -0.12952685 -0.17061323 0.36843577 0.3125032
-0.30437487 0.23761205 0.33920482 0.14101337 -0.17304546 0.23476756 -0.02707111 -0.2134923
0.13212131 0.22240905 -0.097904116 -0.11917072 0.015505838 0.013454518 -0.23160604 0.28560385
0.4805465 0.19538711 0.2631148 -0.23939212 -0.14012624 -0.1293773 -0.035851486 -0.16620994
00000000: 8d01 c3be 8a23 5e3d b9e9 99be 6738 843e
00000010: c4d3 c6bc 5f7b d73d 5ec4 a6be 7959 4cbe
00000020: d82d f5bd ebb6 be3e 2e69 59be c747 4c3e
00000030: 51e2 303e e4f5 3dbe 12e5 b9be f0ec 993e
00000040: c187 d2bc ec3f df3e bbb1 64be f4d3 983e
00000050: 3fc7 533e 0d63 2bbe 0c57 55be f9e5 993e
00000060: 8551 b6bd e962 5e3e 5577 c13e 2862 38be
00000070: 7478 0dbc ff69 833e daae aabe 7e67 54be
00000080: d659 b8be 1f22 38be 9d41 b63e 51d5 38be
00000090: e71b f5bd ff01 8ebe b741 943e ac5b f13d
000000a0: 7e0e 043e 921d d7bd b6f5 423e 4518 9bbe
000000b0: 542d a3be 89a6 9bbe 2882 4e3e cfac 7dbd
000000c0: a919 babe e751 95be 028d 013e f325 7b3e
000000d0: f4dd a8be 5397 05be 9b4c 21be 9690 16be
000000e0: 79ab a1be 42b6 bbbe 1769 41be 4127 db3e
000000f0: fd4d 1cbe 88d0 e3bd 5c29 a63c cd7d e7bd
00000100: 801a 60be cbaa 543e 8bae ffbe 06d9 37be
00000110: 1ebf e63e 6288 f93d 9888 82be 3e77 ca3e
00000120: b91b 98be 6a72 46be 6ea1 9fbe bd55 c93d
00000130: 9491 01be 13aa 023e a449 2cbd c9c5 ddbe
00000140: 9b77 a73e 590d 85be 086c fd3d 96b9 913e
00000150: 517c d53e 16ef bd3e cedb 043d 573b d7bd
00000160: ab9a 4d3e e897 8c3e e4a2 c03e bd67 803e
00000170: 5f84 0d3e cd7c 99be 6809 84bc 4410 e23e
00000180: 7310 983e efd4 d7be ec63 93be 0fe8 143e
00000190: 91b1 25be bd53 16be 39b9 afbe 3fdd 223c
000001a0: 1769 ad3e 790a 8b3c d345 4a3d bf28 85be
000001b0: efa2 733e d21c ca3d c716 bfbe 1de2 31be
000001c0: 489c c7be 339d 6fbe 034b 4cbe 20f1 9e3a
000001d0: ed24 3d3e 7c32 523e 4724 84bd 2cf3 adbe
000001e0: 2763 90be 8c4b 023e 7df2 39bd da2f 453b
000001f0: 43d6 c1be f858 19bf 9cb5 833e fef8 88bd
00000200: 0527 abbd be84 3bbe a3c2 12be 8eee 83bd
00000210: 22a9 923e d960 833d 6015 78be 4ce6 de3d
00000220: a607 b73c 96a8 803b 6d8e 4d3e 13be a3bd
00000230: 0f87 3dbd ae6d 033e 5c19 18be ff2e 803e
00000240: 5cf6 583e 29c1 fcbc 782c 52be 39fa 77be
00000250: f0dc a23e b6bc e1be d466 d23e 7c9f 68be
00000260: cbc3 603d 034d a73e 1806 663c 5937 99be
00000270: e9c7 2e3e 3685 f8bd e258 993e 57ef 993e
00000280: 9994 313e c13b 843e 8fd1 3abe 4cf2 a3be
00000290: abca 7e3e 489a dfbc 4874 81be 6558 f9bd
000002a0: 925f 35be 08b9 b7bd ab66 25be 315b 323c
000002b0: 3f56 443e a845 fb3e 792a 6d3c 507a f03d
000002c0: b319 403e 6927 3a3e 7b4d 7bbe 49c9 833e
000002d0: f4f6 c33e 5538 f3bd 763f 7e3e 0761 863e
000002e0: 3852 5d3e c96e b6bd 165b 653e cf03 eebd
000002f0: 31f0 513e 8d64 93be e93e 6b3e 9aa1 303e
00000300: a180 6e3e b118 c43e 031b 743d 076e 3d3d
00000310: e6e6 a7be 32cb 9f3e a73e 743e 7f34 1dbe
00000320: b1d3 7bbe 1c42 963e bf57 903e e812 223e
00000330: 4d05 1e3e 5d36 5fbe ae11 633e 8515 03be
00000340: 3fcf 9fbe 2561 4fbe 4d13 0d3e d2d5 583e
00000350: 75da a4be 7546 36be d77a 9a3d e9f3 223d
00000360: 7ad9 e3bd 6f3f 54be 8a49 72be d25c ebbd
00000370: c82a ca3c 049f 433d e01f 19be 07c8 8bbe
00000380: df21 fe3e 871e 40be ef7b 2f3d d9e0 5fbd
00000390: b0a2 04be 3cb5 2ebe 9da3 bc3e 6b00 a03e
000003a0: 06d7 9bbe 9350 733e 41ac ad3e cf65 103e
000003b0: d432 31be e866 703e 3cc4 ddbc ba9d 5abe
000003c0: cf4a 073e 33bf 633e f481 c8bd c70f f4bd
000003d0: 330c 7e3c 5770 5c3c 222a 6dbe ab3a 923e
000003e0: 310a f63e 8f13 483e fcb6 863e 3523 75be
000003f0: 417d 0fbe 7c7b 04be 02d9 12bd f032 2abe

bias f4 [10]
0.13743673 -0.023737509 0.08755499 0.13381454 0.12349634 -0.015048585 0.035175912 0.110780455
-0.3334241 -0.22273947
00000000: 37bc 0c3e 2a75 c2bc 0850 b33d ae06 093e
00000010: a6eb fc3d 578e 76bc 9e14 103d dde0 e23d
00000020: 90b6 aabe d115 64be
