Models/cloud_with_electric.pt (torch, 115275 bytes, 26 tensors)

weight f4 [8, 2, 5, 5]
-0.024261743 -0.017233105 0.09166418 -0.22192554 0.038691025 -0.062407825 0.16441385 0.19904628
0.40688968 0.17842986 -0.20044988 0.08228501 0.18289599 0.13563439 0.35679197 0.26197007
0.019051157 0.3095445 0.26752973 0.13454695 -0.18688822 -0.2628752 0.011726308 0.054338418
0.4026933 0.016130583 -0.39338487 -0.03520483 -0.19079845 -0.15851341 -0.13946962 -0.04507471
-0.0796894 -0.0072398502 -0.47008282 0.037540127 0.06906514 -0.15457387 -0.12386842 0.37457213
0.024374714 0.5550679 0.14252521 0.3228244 0.0044432073 0.06305736 0.007956203 -0.16434883
-0.39720944 -0.16581424 -0.6938725 -0.40274805 -0.6157688 0.0071433475 -0.12193124 0.26685593
0.26626524 -0.03367075 0.110589385 -0.22701523 0.19482346 -0.102647856 0.2476935 -0.07781971
0.011554094 0.12625739 0.15792197 -0.03368033 -0.1098504 0.06583184 -0.23588671 -0.2554788
0.14325091 0.106220745 -0.09057531 0.26916638 -0.1927849 0.2988676 -0.2185872 -0.34071717
0.38164115 0.29425672 0.18302006 -0.015925003 0.28772077 -0.21171635 0.25964475 0.18731211
0.24752328 0.009689609 0.123211965 0.30934682 -0.30270037 0.00015968039 0.052136827 -0.22358987
-0.25346974 -0.1821233 0.055644944 0.003987673 -0.030362215 0.045904256 0.14011483 -0.07254044
0.06214591 0.2477787 0.3094518 0.15209176 0.2802143 0.18578514 -0.15940188 0.02800758
0.20301154 0.0202208 -0.10068222 -0.07595983 -0.20924328 -0.21732537 0.00076046714 -0.036207918
-0.14687552 0.13463666 0.072061345 -0.13811904 -0.13246465 0.13452244 0.29345554 0.08106895
-0.014863186 0.040485993 0.19470277 -0.14626719 0.25739136 0.23305061 0.11493077 0.18290228
-0.18942378 -0.34215373 -0.10903596 0.31383133 -0.102708705 0.17019951 -0.034322772 0.06829279
-0.33056524 -0.1888841 -0.20336473 -0.34688556 0.4263351 0.035042685 0.33131304 0.19684781
-0.22008109 -0.25049913 -0.22295204 -0.058373723 0.27680248 0.006555851 0.068574876 0.2740247
0.15564741 0.11016894 -0.27951655 0.5190449 -0.32349324 -0.19888751 -0.2216053 -0.10336718
0.13681078 0.13088216 0.06606244 -0.35967433 0.1091314 -0.12854537 -0.52252996 0.21148849
0.288092 -0.051989358 0.27976352 -0.15599361 0.09118791 -0.022157378 0.02611601 0.042322192
0.4861944 0.08111609 0.091775954 -0.2326495 -0.051018972 -0.0012997175 0.09506202 0.095453
-0.3596753 -0.06590703 -0.14695543 -0.07066239 -0.40757343 0.033185747 0.21458016 -0.15963022
0.11948615 -0.46220377 -0.08675808 0.21892199 -0.13404493 -0.4111355 0.32747722 -0.03904548
-0.17970997 0.0771325 0.13433364 0.05343631 0.15682188 0.490343 0.23586263 0.09123058
0.19860445 0.12283934 0.53680706 0.08479947 0.120836824 -0.11761902 -0.079435274 -0.082679525
-0.13289243 0.13989395 0.14768365 0.2926692 0.11515363 -0.15222873 0.05123515 -0.028207425
0.24472156 -0.08254081 -0.31934127 -0.060275543 -0.20084845 -0.21384887 0.12958615 -0.0026294237
0.0006501462 0.19595267 0.12287947 0.13448311 0.6067375 -0.09622672 -0.037632026 0.29577944
0.10244909 0.013770766 0.40365952 -0.073738426 -0.32921875 -0.11723137 0.24712911 -0.43509355
00000000: 90c0 c6bc 712c 8dbc 6eba bb3d 7340 63be
00000010: 7b7a 1e3d 599f 7fbd 1b5c 283e cad2 4b3e
00000020: d853 d03e 51b6 363e bc42 4dbe 0b85 a83d
00000030: 1649 3b3e bee3 0a3e 70ad b63e f120 863e
00000040: 2c11 9c3c 9e7c 9e3e a8f9 883e adc6 093e
00000050: a05f 3fbe 9497 86be b31f 403c f691 5e3d
00000060: d12d ce3e 4924 843c be69 c9be f132 10bd
00000070: ab60 43be 5751 22be 20d1 0ebe 42a0 38bd
00000080: 3234 a3bd 443c edbb b2ae f0be adc3 193d
00000090: 0672 8d3d 9d48 1ebe baae fdbd ebc7 bf3e
000000a0: 7bad c73c ee18 0e3f 21f2 113e 3d49 a53e
000000b0: 5398 913b 3824 813d bc5a 023c 0f4b 28be
000000c0: 095f cbbe 35cb 29be a1a1 31bf fe34 cebe
000000d0: 06a3 1dbf be12 ea3b 16b7 f9bd 57a1 883e
000000e0: eb53 883e 57ea 09bd b07c e23d ae76 68be
000000f0: cd7f 473e 0a39 d2bd 5da3 7d3e f15f 9fbd
00000100: 624d 3d3c 9e49 013e 4cb6 213e 63f4 09bd
00000110: 3ff9 e0bd d8d2 863d 498c 71be 1ece 82be
00000120: 5eb0 123e 438a d93d 8c7f b9bd 2dd0 893e
00000130: 6869 45be 2d05 993e 53d5 5fbe 7b72 aebe
00000140: 7866 c33e d1a8 963e 9c69 3b3e 2775 82bc
00000150: 2350 933e 2ccc 58be 28f0 843e bfce 3f3e
00000160: be76 7d3e 2ac1 1e3c 8e56 fc3d b562 9e3e
00000170: 8bfb 9abe e16f 2739 6d8d 553d bef4 64be
00000180: c9c6 81be 887e 3abe f4eb 633d 07ab 823b
00000190: 2eba f8bc 1a06 3c3d 437a 0f3e 1590 94bd
000001a0: b68c 7e3d b3b9 7d3e 7770 9e3e f1bd 1b3e
000001b0: 4078 8f3e 763e 3e3e 3f3a 23be 2770 e53c
000001c0: 42e2 4f3e 17a6 a53c 7b32 cebd d490 9bbd
000001d0: df43 56be 8b8a 5ebe 165a 473a c14e 14bd
000001e0: 8966 16be 31de 093e e694 933d 146f 0dbe
000001f0: d0a4 07be 40c0 093e ce3f 963e 7a07 a63d
00000200: b884 73bc a4d4 253d 2a60 473e 11c7 15be
00000210: cdc8 833e d2a4 6e3e d360 eb3d bc4a 3b3e
00000220: 4ff8 41be c62e afbe 3f4e dfbd 80ae a03e
00000230: f158 d2bd c848 2e3e 0996 0cbd 17dd 8b3d
00000240: d93f a9be d56a 41be d83e 50be fc9a b1be
00000250: 9848 da3e eb88 0f3d dda1 a93e 7992 493e
00000260: f05c 61be 6c41 80be 8a4d 64be 4919 6fbd
00000270: 0eb9 8d3e 77d2 d63b fc70 8c3d f74c 8c3e
00000280: 0962 1f3e 41a0 e13d cb1c 8fbe 20e0 043f
00000290: e8a0 a5be 2ba9 4bbe 80ec 62be 2cb2 d3bd
000002a0: 2018 0c3e f905 063e bf4b 873d 3c27 b8be
000002b0: 4980 df3d 66a1 03be 86c4 05bf 7090 583e
000002c0: cb80 933e cbf2 54bd 2a3d 8f3e cabc 1fbe
000002d0: bac0 ba3d 6483 b5bc 3ef1 d53c 095a 2d3d
000002e0: 79ee f83e 3120 a63d 08f5 bb3d ac3b 6ebe
000002f0: 45f9 50bd 485b aaba e0af c23d dd7c c33d
00000300: 5c27 b8be 44fa 86bd 7c7b 16be 71b7 90bd
00000310: 77ad d0be c7ed 073d e7ba 5b3e 1b76 23be
00000320: 28b5 f43d f9a5 ecbe 38ae b1bd 162d 603e
00000330: 1343 09be 5a80 d2be 18ab a73e 27ee 1fbd
00000340: e405 38be a5f7 9d3d c28e 093e 08e0 5a3d
00000350: ea95 203e 3d0e fb3e f985 713e 19d7 ba3d
00000360: f75e 4b3e 3193 fb3d 306c 093f 58ab ad3d
00000370: 4c79 f73d 3ee2 f0bd f6ae a2bd e253 a9bd
00000380: f414 08be 5c40 0f3e 623a 173e bdd8 953e
00000390: abd5 eb3d d9e1 1bbe f3db 513d 4213 e7bc
000003a0: 4a98 7a3e 280b a9bd b380 a3be 7de3 76bd
000003b0: 37ab 4dbe 33fb 5abe 3bb2 043e 6952 2cbb
000003c0: 936e 2a3a d1a7 483e 3ba8 fb3d f1b5 093e
000003d0: 2653 1b3f 8412 c5bd 0a24 1abd 6770 973e
000003e0: d4d0 d13d c79e 613c 76ac ce3e 2c04 97bd
000003f0: 5c8f a8be 0017 f0bd 6a0f 7d3e 95c4 debe

bias f4 [8]
0.19316289 0.16432641 0.1929081 0.16193342 0.059315294 0.31492272 -0.14122191 0.30382612
00000000: 7ecc 453e 2f45 283e b389 453e e0d1 253e
00000010: 98f4 723d 8d3d a13e 7a9c 10be 198f 9b3e

weight f4 [8]
1.0176333 0.9923099 0.96601975 0.8320453 1.0722083 0.9857511 1.1036098 0.89419794
00000000: cf41 823f 0608 7e3f 124d 773f ec00 553f
00000010: 1f3e 893f 2f5a 7c3f 1643 8d3f 28ea 643f

bias f4 [8]
-0.026042791 0.13122448 -0.09215793 0.0447342 0.21660891 -0.069554105 -0.054862976 0.1399956
00000000: b157 d5bc b65f 063e 4cbd bcbd 353b 373d
00000010: bace 5d3e 6272 8ebd 00b8 60bd 025b 0f3e

running_mean f4 [8]
3.4673686 7.5595074 4.432286 10.044107 5.69583 4.7190337 81.20742 2.5956402
00000000: 5ee9 5d40 7ce7 f140 49d5 8d40 aab4 2041
00000010: 3d44 b640 5302 9740 336a a242 f81e 2640

running_var f4 [8]
129.72472 66.008545 143.05997 131.87901 283.50662 65.98628 3132.584 42.165092
00000000: 87b9 0143 6004 8442 5a0f 0f43 07e1 0343
00000010: d9c0 8d43 faf8 8342 58c9 4345 0ea9 2842

weight f4 [16, 8, 3, 3]
0.196719 -0.19373281 0.18975587 0.13827069 -0.12609956 0.054919105 -0.29225296 0.017636238
0.2132763 -0.18666491 -0.08260553 0.17845997 -0.0020668407 -0.02175569 -0.11107398 -0.19953938
-0.044255853 -0.17501311 -0.0068250727 0.08124606 -0.11872896 0.14910588 0.26283035 0.118746035
-0.049407143 -0.08796703 -0.02687849 -0.021032423 -0.023508705 0.032255765 0.13154456 -0.005301021
-0.0025454347 0.1789232 0.11078197 0.07108277 -0.07770068 0.1635279 0.16700144 -0.14300524
-0.36698648 -0.012978296 -0.4521651 -0.33428204 -0.19150399 -0.1464163 -0.14737837 -0.28748012
0.038810257 0.101817876 -0.186858 0.062710725 0.11543943 0.04314656 0.033621434 -0.084577516
-0.05873596 -0.21208254 0.020453107 -0.11796696 0.13923371 -0.036100846 -0.007947513 -0.12817541
0.08368468 -0.053835854 -0.07970562 -0.09191733 0.1164978 -0.015201511 0.15532394 0.1469373
0.20886621 -0.16364904 -0.15224117 0.13142239 0.025241373 -0.3383715 -0.15006432 0.025952695
0.13935259 0.06803874 -0.15397218 0.2130511 0.13577448 0.1963194 -0.05986541 -0.02297371
0.0057194135 0.21977057 -0.12118545 -0.24175604 0.41801763 -0.061316017 0.18116128 -0.13348733
-0.1371339 -0.18722145 -0.03866211 0.03255031 0.05470993 0.1327756 0.09720441 0.30479613
0.0020165516 -0.34803396 -0.12741621 0.10599532 -0.15419896 0.18196817 0.3843568 0.06963474
-0.009833199 0.099462666 0.10685621 -0.05423279 0.09849103 0.1925084 0.074255556 0.16207053
0.11691839 0.3167186 0.30576298 -0.40577716 -0.5410397 -0.18995577 0.26559648 -0.24541247
0.11411566 0.07575369 0.5579296 0.058667757 -0.16972454 -0.1107038 0.03876216 -0.18851094
0.037074544 -0.027922962 0.22508112 0.14105514 -0.0031664288 -0.0893203 0.26764482 0.14012057
0.25582778 0.4055368 -0.1671576 0.04928746 0.22954407 0.0731309 0.14425094 -0.13832188
0.18817261 -0.07326281 0.0592997 -0.068440735 -0.03599776 -0.1988029 -0.11205047 0.053194642
-0.26241538 0.15540557 -0.09115132 -0.32707256 0.0073785456 -0.12235847 -0.2325706 -0.16102411
0.13289157 0.2646439 0.15268092 0.24375837 0.2183711 0.030889483 -0.16445822 0.17047295
0.10877224 -0.096592925 0.06850106 -0.26489723 -0.18798596 -0.17836301 0.09360449 0.093005344
0.054111596 -0.10749447 -5.739862e-05 0.32344633 -0.04745119 -0.030745074 0.041441422 0.13910474
0.11542982 0.02213706 0.12333328 0.03563092 -0.040418677 0.095354065 0.4657217 0.16405182
-0.26323125 0.25350642 0.41494915 0.05849222 0.17708226 -0.04699467 0.31636027 0.050340068
0.1654572 0.2446944 0.098894805 0.10834803 0.27495104 0.1787999 -0.050409593 -0.20402348
-0.23406045 -0.08961414 0.13569978 -0.14846179 -0.2028994 -0.17743438 0.11919132 -0.03664065
0.17947695 0.20720124 0.02276645 -0.018427322 0.046316434 -0.07095528 0.016117783 0.11654872
0.00037862713 0.07313259 0.07618632 -0.07151721 -0.1730006 0.26599556 -0.024827493 0.26612774
-0.011259525 -0.043320417 -0.0073399823 -0.21077386 -0.067597315 0.16487165 -0.16286927 0.07539794
0.20978057 0.0878369 0.050461546 0.18691142 0.35629943 0.20332907 0.19866055 0.037282985
00000000: b570 493e e561 46be 5d4f 423e d596 0d3e
00000010: 3e20 01be dbf2 603d 2ea2 95be df79 903c
00000020: 1a65 5a3e 1625 3fbe 172d a9bd 36be 363e
00000030: d573 07bb fd38 b2bc c17a e3bd 0d54 4cbe
00000040: a045 35bd a336 33be dca4 dfbb 5664 a63d
00000050: 2b28 f3bd 36af 183e b391 863e 1f31 f33d
00000060: 255f 4abd 0f28 b4bd 4730 dcbc 304c acbc
00000070: 5495 c0bc 9f1e 043d 9eb3 063e 30b4 adbb
00000080: 4fd1 26bb a537 373e a8e1 e23d d893 913d
00000090: 8921 9fbd dc73 273e 6d02 2b3e f76f 12be
000000a0: a7e5 bbbe eba2 54bc 2f82 e7be 0427 abbe
000000b0: 9f19 44be 28ee 15be 5bea 16be 9830 93be
000000c0: 81f7 1e3d e485 d03d b457 3fbe 7b6e 803d
000000d0: 826b ec3d 73ba 303d a1b6 093d fa36 adbd
000000e0: 1e95 70bd 2a2c 59be 468d a73c a998 f1bd
000000f0: 4893 0e3e 7bde 13bd 4936 02bc 6a40 03be
00000100: e062 ab3d fc82 5cbd b33c a3bd 273f bcbd
00000110: 6696 ee3d c20f 79bc 3d0d 1f3e bb76 163e
00000120: 06e1 553e 9d93 27be 1ce5 1bbe 9793 063e
00000130: ffc6 ce3c 073f adbe 76aa 19be bf9a d43c
00000140: 72b2 0e3e e557 8b3d e2aa 1dbe 112a 5a3e
00000150: 7708 0b3e f407 493e 6f35 75bd 5d33 bcbc
00000160: eb69 bb3b 890b 613e 1430 f8bd e58e 77be
00000170: 6806 d63e 8126 7bbd 5882 393e e7b0 08be
00000180: d46c 0cbe fbb6 3fbe 295c 1ebd 7953 053d
00000190: 8517 603d 54f6 073e 1b13 c73d 3d0e 9c3e
000001a0: 1f28 043b 8231 b2be 6579 02be 1314 d93d
000001b0: 55e6 1dbe dd55 3a3e 6aca c43e a99c 8e3d
000001c0: 6d1b 21bc 15b3 cb3d 6ed7 da3d 3423 5ebd
000001d0: aab5 c93d ec20 453e 4c13 983d d1f5 253e
000001e0: e972 ef3d f128 a23e f78c 9c3e 06c2 cfbe
000001f0: 9481 0abf c483 42be 43fc 873e 684d 7bbe
00000200: 79b5 e93d c024 9b3d 79d4 0e3f 9a4d 703d
00000210: 45cc 2dbe adb8 e2bd 12c5 1e3d 0309 41be
00000220: 7adb 173d b2be e4bc aa7b 663e c270 103e
00000230: dc83 4fbb 90ed b6bd be08 893e c47b 0f3e
00000240: dcfb 823e 85a2 cf3e 5d2b 2bbe a6e1 493d
00000250: 9a0d 6b3e a7c5 953d 85b6 133e 40a4 0dbe
00000260: 52b0 403e d00a 96bd 3ee4 723d a82a 8cbd
00000270: 6372 13bd fd92 4bbe b87a e5bd a0e2 593d
00000280: 4f5b 86be a322 1f3e 8bad babd 0e76 a7be
00000290: bac7 f13b 1497 fabd fd26 6ebe 81e3 24be
000002a0: ba14 083e 687f 873e 6358 1c3e cb9b 793e
000002b0: ac9c 5f3e f10b fd3c bc67 28be 7690 2e3e
000002c0: fbc3 de3d 83d2 c5bd 494a 8c3d 9ca0 87be
000002d0: 647f 40be cba4 36be b6b3 bf3d 9679 be3d
000002e0: 1fa4 5d3d 1026 dcbd 4dbf 70b8 c29a a53e
000002f0: 2e5c 42bd 18dd fbbc 7bbe 293d 7971 0e3e
00000300: 7866 ec3d c858 b53c 2996 fc3d baf1 113d
00000310: 0e8e 25bd fe48 c33d 1373 ee3e 33fd 273e
00000320: 3fc6 86be 98cb 813e 3774 d43e 8a95 6f3d
00000330: 0d55 353e 7c7d 40bd f9f9 a13e 6331 4e3d
00000340: 9d6d 293e 2b91 7a3e 5c89 ca3d 92e5 dd3d
00000350: 62c6 8c3e 5217 373e 4a7a 4ebd 88eb 50be
00000360: 8bad 6fbe 9e87 b7bd e2f4 0a3e 5e06 18be
00000370: dcc4 4fbe 5cb1 35be 941a f43d 8214 16bd
00000380: cec8 373e 902c 543e b580 ba3c e5f4 96bc
00000390: 4db6 3d3d 0051 91bd 7109 843c 18b1 ee3d
000003a0: 7982 c639 8ac6 953d 9307 9c3d 9d77 92bd
000003b0: 1227 31be 9230 883e 0763 cbbc e541 883e
000003c0: df79 38bc c070 31bd 3c84 f0bb 1ad5 57be
000003d0: 7670 8abd 1dd4 283e 34c7 26be 3c6a 9a3d
000003e0: b8d0 563e d5e3 b33d c4b0 4e3d b565 3f3e
000003f0: e16c b63e 7f35 503e ac6d 4b3e 0bb6 183d

bias f4 [16]
-0.14414613 0.16014676 -0.12862355 0.042895883 0.05210656 -0.0066624735 0.013087963 0.005233632
-0.08595105 -0.2021757 0.031542316 -0.007501447 -0.080868505 0.02624184 -0.017279629 -0.014884671
00000000: 0b9b 13be 83fd 233e e4b5 03be 98b3 2f3d
00000010: b06d 553d e150 dabb e56e 563c e37e ab3b
00000020: 1b07 b0bd 2607 4fbe 8432 013d b3ce f5bb
00000030: 639e a5bd 21f9 d63c 028e 8dbc d6de 73bc

weight f4 [16]
0.96837765 1.0817859 1.0405741 1.0471625 0.9667308 0.98888093 0.9910771 0.96950114
0.8272618 0.97509557 0.9595746 0.9388795 0.99053985 1.0063457 1.0571775 0.9587584
00000000: 99e7 773f f677 8a3f 8831 853f 6c09 863f
00000010: ab7b 773f 4d27 7d3f 3bb7 7d3f 3a31 783f
00000020: 6ec7 533f dd9f 793f aea6 753f 685a 703f
00000030: 0594 7d3f f0cf 803f 9851 873f 3171 753f

bias f4 [16]
0.22455901 0.20516708 -0.022471895 0.2809391 0.019157445 0.21988009 -0.025211625 -0.13316014
-0.045778096 0.10781587 0.24372621 0.1647923 0.065745056 0.21266584 0.2835776 -0.14089194
00000000: ccf2 653e 5217 523e fb16 b8bc 40d7 8f3e
00000010: 13f0 9c3c 3f28 613e 9c88 cebc 225b 08be
00000020: d081 3bbd 91ce dc3d 5d93 793e 50bf 283e
00000030: 58a5 863d 13c5 593e 1531 913e fa45 10be

running_mean f4 [16]
0.29779163 0.92906266 0.5246687 0.5553508 0.7451363 0.66978467 0.5304185 0.7047988
0.43644857 0.28685522 0.60761976 0.6977418 0.6084907 0.72908115 0.78828275 1.2155652
00000000: 2578 983e 0dd7 6d3f b050 063f 782b 0e3f
00000010: 41c1 3e3f 0277 2b3f 82c9 073f b26d 343f
00000020: 3076 df3e b0de 923e f88c 1b3f 359f 323f
00000030: 0cc6 1b3f 10a5 3a3f e6cc 493f a497 9b3f

running_var f4 [16]
0.454686 1.5051205 0.81906575 1.5810905 0.44768766 1.8256578 0.66166687 1.336617
0.24741201 0.33330026 1.2776572 1.098958 0.38383144 2.0445492 0.60457575 3.1079257
00000000: 9acc e83e caa7 c03f 4bae 513f 2c61 ca3f
00000010: 5137 e53e 28af e93f 0063 293f 4416 ab3f
00000020: 9359 7d3e 55a6 aa3e 458a a33f a8aa 8c3f
00000030: 8e85 c43e e5d9 0240 7ac5 1a3f 41e8 4640

weight f4 [32, 16, 3, 3]
-0.14000294 0.027380003 -0.17892754 0.0046511795 0.21015732 0.102872476 0.12927549 0.028898565
-0.06824375 -0.15190803 -0.14893107 -0.29330245 0.033627823 0.23220454 -0.03527003 0.04233296
-0.032362323 0.02095339 -0.09736566 -0.12570061 0.096280865 -0.18055654 0.005170011 -0.14788374
0.07083341 -0.034805603 0.10118953 0.06821486 -0.062691875 -0.12599495 0.108284876 0.21745394
0.0626037 0.15985261 0.038106762 -0.05780678 -0.034489702 0.18712974 -0.06612427 -0.09713565
-0.23749858 0.005514908 0.2767761 0.15457706 -0.093543015 -0.04793763 -0.0663955 0.18079533
-0.0010523458 -0.11616704 -0.111999184 0.08587174 0.11842458 0.122263454 -0.15690932 -0.16347547
0.011110013 -0.009046535 0.06535034 0.14133367 0.11627888 -0.09301336 -0.053369384 0.104225166
-0.030428631 0.06469914 -0.14746189 -0.06622151 -0.018869588 -0.24285267 -0.18172233 0.04735434
0.04783106 0.1175659 0.16632451 0.035055824 -0.094630376 0.0015276562 0.18368472 0.1731934
0.02225328 -0.14942023 0.056591757 -0.019990524 0.0077263108 -0.13702951 0.089207225 -0.13570552
0.05098638 -0.2118304 0.015910747 -0.021696255 0.096531324 -0.018155064 -0.2112358 -0.3176166
0.13767576 0.0058544185 -0.16394421 -0.016618276 0.0066255657 0.054035258 -0.04120158 0.03765929
-0.036836304 -0.05263495 -0.024075093 0.16975993 0.12073385 0.05201976 0.0056635574 -0.19067103
-0.07127768 -0.046774384 -0.138223 -0.034369793 -0.08824365 0.06411388 -0.18493026 0.018883653
-0.046358384 0.16084991 0.06778589 -0.013336809 -0.085365914 -0.14390695 0.013999715 -0.007858658
-0.20493473 -0.21396434 -0.017123058 -0.18806115 -0.0708527 -0.18509877 2.9370056e-05 0.19915509
0.016039183 0.2335427 0.20893724 -0.021458996 -0.09419166 -0.047605224 0.034350503 0.009833439
-0.043051235 -0.05242535 -0.25842398 0.11854432 0.21021223 -0.021598293 0.10623369 -0.03423461
0.15006164 0.073589906 -0.20350777 -0.18597858 0.11687398 0.20807725 0.051030017 0.2827094
-0.019345503 0.06775267 0.009053382 -0.18957627 -0.0074976953 -0.03598237 -0.08810852 -0.015921002
-0.064838305 0.052369762 -0.16865335 0.032444987 -0.20468822 0.07590472 -0.2718418 0.09022138
-0.04457515 0.096254535 0.11512408 -0.08325623 -0.091314666 -0.031794697 0.22757788 -0.08086848
-0.1463288 -0.14725575 -0.37963355 0.006804766 -0.14222646 0.06459727 0.23133162 0.21800211
0.16381799 0.19237891 -0.011722719 -0.11728371 0.043673374 -0.048071455 -0.07429415 0.012842185
0.037128694 0.043738157 0.020994939 0.11940765 -0.004013937 -0.042174403 0.054880764 0.15292662
-0.007445765 -0.06577038 0.081821725 0.16442922 0.022085365 -0.1162834 0.12322794 -0.10602295
0.10682674 -0.033596408 0.21088444 0.12961388 0.122466646 -0.053589374 -0.15960936 -0.23905253
-0.09339534 -0.25018775 -0.024947928 -0.1950863 -0.16504309 0.21242559 -0.036387783 0.06862629
0.026314173 -0.026524758 -0.029623669 -0.1514943 0.031355236 0.2546025 0.082236804 0.10157248
-0.03760078 0.06564032 -0.21787147 -0.026463483 -0.27167574 0.052693103 0.23519273 0.055880196
-0.1709375 0.0636247 0.10186682 -0.03777649 0.22512117 -0.04563283 -0.06625842 0.12941402
00000000: ee5c 0fbe 074c e03c c838 37be ec68 983b
00000010: 7b33 573e ceae d23d cb60 043e afbc ec3c
00000020: 61c3 8bbd c78d 1bbe 6381 18be bd2b 96be
00000030: 54bd 093d 07c7 6d3e 4f77 10bd 5365 2d3d
00000040: 5b8e 04bd 72a6 ab3c a667 c7bd a9b7 00be
00000050: e72e c53d d0e3 38be 3269 a93b d66e 17be
00000060: 1b11 913d 5290 0ebd 753c cf3d 3cb4 8b3d
00000070: 9964 80bd d204 01be 76c4 dd3d 3fac 5e3e
00000080: 5e36 803d 67b0 233e d615 1c3d cdc6 6cbd
00000090: 1345 0dbd f09e 3f3e 296c 87bd 0eef c6bd
000000a0: d432 73be 67b6 b43b 99b5 8d3e 7349 1e3e
000000b0: 7b93 bfbd 405a 44bd 5dfa 87bd 6922 393e
000000c0: deee 89ba fce8 edbd d45f e5bd 86dd af3d
000000d0: 9688 f23d 4365 fa3d d6ac 20be 1d66 27be
000000e0: c606 363c eb37 14bc 66d6 853d c6b9 103e
000000f0: 9f23 ee3d ca7d bebd db99 5abd 0174 d53d
00000100: 7745 f9bc fc80 843d 4000 17be 259f 87bd
00000110: 6594 9abc 5fae 78be 6b15 3abe a0f6 413d
00000120: 80ea 433d 64c6 f03d f950 2a3e b296 0f3d
00000130: 92cd c1bd a33b c83a d917 3c3e 9c59 313e
00000140: 834c b63c 9e01 19be c2cc 673d 2bc3 a3bc
00000150: fe2c fd3b 7751 0cbe 47b2 b63d 63f6 0abe
00000160: 18d7 503d 12ea 58be 4157 823c 58bc b1bc
00000170: 37b2 c53d eeb9 94bc 334e 58be a59e a2be
00000180: e0fa 0c3e 6cd6 bf3b fee0 27be 0d23 88bc
00000190: 461b d93b 1354 5d3d fdc2 28bd a140 1a3d
000001a0: aae1 16bd bf97 57bd 2139 c5bc 8cd5 2d3e
000001b0: 4f43 f73d ac12 553d 5d95 b93b 443f 43be
000001c0: 08fa 91bd 7f96 3fbd 558a 0dbe 57c7 0cbd
000001d0: 16b9 b4bd 234e 833d 5c5e 3dbe e4b1 9a3c
000001e0: 4ae2 3dbd d7b5 243e 54d3 8a3d a282 5abc
000001f0: 53d4 aebd 585c 13be 105f 653c 9ac1 00bc
00000200: 69da 51be 7819 5bbe a845 8cbc 1a93 40be
00000210: 381b 91bd 888a 3dbe b75f f637 50ef 4b3e
00000220: 9b64 833c d125 6f3e a5f3 553e c7ca afbc
00000230: 8fe7 c0bd b2fd 42bd 1db3 0c3d 6f1c 213c
00000240: 7e56 30bd f7bb 56bd 2650 84be 5dc7 f23d
00000250: e041 573e e7ee b0bc 0d91 d93d 9739 0cbd
00000260: c2a9 193e 4eb6 963d 5764 50be 2b71 3ebe
00000270: a05b ef3d 3412 553e da04 513d 49bf 903e
00000280: 767a 9ebc e9c1 8a3d a354 143c 4820 42be
00000290: 3aaf f5bb 4062 13bd 3d72 b4bd c36c 82bc
000002a0: f2c9 84bd ad81 563d 77b3 2cbe 09e5 043d
000002b0: ca99 51be ef73 9b3d d92e 8bbe fdc5 b83d
000002c0: 6f94 36bd 1921 c53d 2cc6 eb3d 3e82 aabd
000002d0: 2f03 bbbd 283b 02bd 2d0a 693e 609e a5bd
000002e0: 38d7 15be 36ca 16be 545f c2be 84fa de3b
000002f0: d0a3 11be 934b 843d 32e2 6c3e f23b 5f3e
00000300: e7bf 273e fafe 443e a610 40bc 7132 f0bd
00000310: dae2 323d 93e6 44bd 8827 98bd 0768 523c
00000320: 4214 183d c826 333d 94fd ab3c ff8b f43d
00000330: 5887 83bb 11bf 2cbd a7ca 603d cc98 1c3e
00000340: 9bfb f3bb 9fb2 86bd 2692 a73d 2260 283e
00000350: 5eec b43c fe25 eebd ee5e fc3d 8f22 d9bd
00000360: fac7 da3d 639c 09bd 17f2 573e 80b9 043e
00000370: cbcf fa3d 8880 5bbd a370 23be 30ca 74be
00000380: 0e46 bfbd 9c18 80be 995f ccbc b4c4 47be
00000390: 0e01 29be 1886 593e 5b0b 15bd f18b 8c3d
000003a0: d290 d73c 734a d9bc 56ad f2bc 5221 1bbe
000003b0: 596e 003d 425b 823e c56b a83d 3b05 d03d
000003c0: 4703 1abd 6f6e 863d b319 5fbe f2c9 d8bc
000003d0: 1519 8bbe b9d4 573d 5dd6 703e a2e2 643d
000003e0: 3d0a 2fbe ab4d 823d 8d9f d03d 85bb 1abd
000003f0: 2a86 663e 7ee9 3abd 7fb2 87bd 1c85 043e

bias f4 [32]
0.062012393 -0.01754647 -0.07072746 -0.058797453 -0.15796573 -0.08259308 -0.06434794 -0.2558791
0.0015010049 -0.24580726 -0.20549035 0.016756503 -0.10648269 -0.042583577 -0.21633208 0.08819236
-0.052178543 0.04992123 -0.19863252 -0.13066177 -0.18319455 -0.1588235 -0.13501178 -0.054777388
-0.047860872 -0.11814453 -0.00048728313 0.0065442314 -0.19786166 0.07520421 -0.015116669 -0.2667867
00000000: b500 7e3d 9dbd 8fbc 8fd9 90bd 99d5 70bd
00000010: c5c1 21be 9026 a9bd dac8 83bd 9602 83be
00000020: 5ebd c43a e6b4 7bbe 106c 52be ef44 893c
00000030: 9913 dabd 1e6c 2ebd 2886 5dbe 329e b43d
00000040: 2bb9 55bd 347a 4c3d 5366 4bbe 33cc 05be
00000050: 5a97 3bbe a1a2 22be 8740 0abe 415e 60bd
00000060: c309 44bd c2f5 f1bd 097a ffb9 fe70 d63b
00000070: 3f9c 4abe aa04 9a3d e8ab 77bc 4498 88be

weight f4 [32]
0.98414385 0.878205 0.96844983 1.1431258 1.0396441 1.0031872 0.9921049 1.0262977
0.9942671 0.9956039 1.1169869 0.9881021 0.99372 0.9813429 1.0212277 1.0247246
0.9334161 0.922377 1.0474759 1.0261887 1.0971975 0.97917265 1.0006769 0.959508
0.949084 0.9497818 0.91220975 1.0190614 0.9507982 0.8253223 0.8918314 0.9849695
00000000: daf0 7b3f 0bd2 603f 54ec 773f f251 923f
00000010: 0f13 853f 7068 803f 96fa 7d3f b95d 833f
00000020: 4a88 7e3f e6df 7e3f 6df9 8e3f 42f4 7c3f
00000030: 6f64 7e3f 4a39 7b3f 97b7 823f 2d2a 833f
00000040: 5cf4 6e3f e620 6c3f b113 863f 275a 833f
00000050: f870 8c3f 0fab 7a3f 2e16 803f 51a2 753f
00000060: 2bf7 723f e624 733f 9486 693f 9b70 823f
00000070: 8367 733f 5248 533f 104f 643f f626 7c3f

bias f4 [32]
0.23642588 0.10136057 0.10237692 0.095502466 -0.011434693 0.05989652 0.17871395 0.10181847
0.01601534 0.17066889 -0.053282045 0.26579115 0.12496047 0.14091331 0.23978768 0.23858462
-0.15963034 -0.19261801 0.01707899 0.10477333 0.23873796 -0.14019023 0.07655562 0.06589213
-0.009207206 0.2745814 0.2935301 -0.054509442 0.20148267 0.21742794 0.11000996 0.10114501
00000000: a019 723e 2196 cf3d feaa d13d cc96 c33d
00000010: 9458 3bbc 0e56 753d ca00 373e 3486 d03d
00000020: 9a32 833c d3c3 2e3e 463e 5abd c715 883e
00000030: 46eb ff3d 944b 103e e78a 753e 874f 743e
00000040: 2376 23be a83d 45be 3de9 8b3c 6693 d63d
00000050: b977 743e 078e 0fbe 31c9 9c3d 74f2 863d
00000060: d2d9 16bc ef95 8c3e 9449 963e 4b45 5fbd
00000070: 7951 4e3e 6ea5 5e3e e74c e13d 1d25 cf3d

running_mean f4 [32]
0.5201221 0.9717347 0.2222037 0.34421557 0.33659512 0.4691198 0.5447785 0.34888643
0.46263513 0.36053213 0.11122151 1.1662713 0.45411965 0.5029358 0.27190223 0.8208814
0.6840329 0.83032084 0.36100668 0.2420055 0.2654686 0.4615849 0.6355222 0.26833996
0.5343278 0.6787846 0.9553563 0.43812335 0.9546759 0.43952426 0.70762455 0.43992338
00000000: b926 053f 9bc3 783f 5e89 633e 063d b03e
00000010: 3256 ac3e 7830 f03e 9b76 0b3f 3ea1 b23e
00000020: 83de ec3e ab97 b83e 1ac8 e33d 6148 953f
00000030: 5f82 e83e 67c0 003f c536 8b3e 4925 523f
00000040: c81c 2f3f e88f 543f ded5 b83e 4ad0 773e
00000050: 80eb 873e db54 ec3e 95b1 223f db63 893e
00000060: b5c9 083f d4c4 2d3f 3b92 743f b451 e03e
00000070: a465 743f 5309 e13e e226 353f a33d e13e

running_var f4 [32]
0.8405155 2.7319486 0.25384352 0.4538779 0.524449 0.8218742 0.6790348 0.84215426
0.75866747 0.5714904 0.098657474 1.8552649 0.38668054 0.9387164 0.4413666 1.0261129
0.75305825 0.8816745 0.5289637 0.26099607 0.47320125 0.54031867 1.2287141 0.18390249
0.63124734 1.6583974 2.1607327 0.6313377 3.2874265 0.7888138 2.1787195 1.5234239
00000000: 062c 573f 3fd8 2e40 c7f7 813e af62 e83e
00000010: 4a42 063f 5966 523f 3ad5 2d3f 6c97 573f
00000020: 0838 423f 324d 123f ee0c ca3d 5279 ed3f
00000030: fefa c53e b84f 703f cefa e13e ab57 833f
00000040: 6dc8 403f 6cb5 613f 2a6a 073f 47a1 853e
00000050: 6f47 f23e 5352 0a3f 8146 9d3f ef50 3c3e
00000060: 6d99 213f 5e46 d43f 7249 0a40 599f 213f
00000070: 3265 5240 b4ef 493f 2470 0b40 8eff c23f

weight f4 [64, 32, 3, 3]
-0.03703909 0.033023153 0.005851575 0.0005172845 0.10001063 -0.006038832 0.04292866 0.05728334
0.13031249 0.07711026 0.08108219 -0.016662255 -0.10807886 -0.114355735 -0.09092383 -0.017263032
-0.008080013 0.1447753 0.00082130736 0.1994297 0.1558675 -0.08226363 -0.2405399 -0.07802826
0.13404894 0.014163407 -0.026424969 -0.008895018 -0.0905522 0.02713736 -0.10000925 -0.054935135
0.006425105 -0.0985599 0.120942764 -0.052478377 0.06441908 0.010823604 -0.029591775 0.06835807
0.04217491 0.15883063 0.11441196 -0.025038967 -0.05858964 0.051375438 -0.11636391 0.024776114
-0.1322703 -0.14101772 0.09624517 -0.06960797 0.06499848 -0.1458649 0.006256188 0.02486916
-0.06714113 0.151152 -0.102956094 0.010104991 0.05590745 0.021563906 -0.015185394 0.036904886
0.009727088 -0.0036022614 0.016056402 0.02743802 0.03441213 -0.09125117 -0.063407876 -0.09933481
-0.033361368 -0.052255474 0.059207655 0.039800398 -0.06619076 0.0698982 0.031903815 0.0027410707
0.030713154 0.017368225 -0.12137461 0.10729516 0.21359786 0.22409503 0.0115882205 -0.030992772
-0.050101534 0.081886165 -0.05149893 -0.05943231 -0.12125248 -0.07400126 -0.037847463 0.03708068
-0.06423429 -0.14641371 -0.09926696 -0.092734754 -0.116015464 -0.030474419 -0.1454724 -0.09215039
-0.18055552 0.0045102295 -0.08114048 0.0371498 0.092212714 -0.11042078 0.019768825 0.066423245
0.11474502 -0.08358429 0.040476482 0.067126915 -0.06409076 -0.006963099 0.029255847 -0.1776666
0.059490588 0.15462728 -0.064345255 -0.15363893 -0.10445794 -0.14601865 0.0802306 0.17763312
0.020023463 0.07889769 -0.025646586 0.059151694 0.053810112 -0.037235767 0.08550405 0.07194017
0.05452486 0.0068046963 -0.19389722 -0.13353981 -0.24561241 0.14923997 -0.05047305 0.10811837
0.13543402 0.081950344 0.26383495 0.039278008 0.08313301 0.12377346 0.11589009 0.128617
0.037859447 -0.04347208 0.07498943 0.057285458 0.14748344 0.040401787 0.18069977 0.07060628
-0.12817189 -0.053510822 0.07793721 0.015827166 -0.028609324 0.08972996 0.08135836 0.11907663
0.06819228 0.24017762 0.07934043 -0.017592812 -0.05386847 -0.087863624 -0.061969478 0.042878482
-0.005336815 -0.07841883 -0.051254828 0.0037107698 -0.12926435 -0.16696343 -0.098195255 0.08959763
-0.018893523 0.16771385 -0.17631125 -0.13814345 -0.10931867 0.05991671 0.006005316 -0.04481824
0.023077058 0.028011404 0.0035701767 -0.05624906 0.12441848 0.06039442 -0.14257075 0.016473975
-0.045001447 0.06556576 0.07806274 -0.0066935685 0.03648616 -0.05571798 -0.14549102 0.098235235
0.023955066 -0.04749829 0.0061943573 0.017102072 -0.030408911 -0.28755042 0.039668415 0.055790123
-0.06490002 0.00650504 -0.028837487 -0.020699333 -0.024226932 0.1712562 -0.01463537 0.15412343
0.059436563 -0.18664907 -0.050306227 -0.015016499 -0.043202948 -0.0039259633 0.038512193 0.055289783
0.047662236 -0.0797998 -0.05303658 -0.13593037 0.023734912 -0.15767169 -0.02053307 0.1673077
-0.021743862 0.01916556 0.05508038 -0.07140596 0.029050127 -0.033700395 0.05480033 0.05857623
-0.039686434 -0.049572 -0.056129847 0.08900698 -0.10170282 -0.15981382 -0.020871641 0.121299945
00000000: 4db6 17bd 4943 073d 92be bf3b 609a 073a
00000010: 60d2 cc3d 65e1 c5bb f6d5 2f3d efa1 6a3d
00000020: a370 053e fceb 9d3d 6b0e a63d 487f 88bc
00000030: 7358 ddbd 5733 eabd 4636 babd 346b 8dbc
00000040: 0862 04bc fa3f 143e 014d 573a 4d37 4c3e
00000050: bb9b 1f3e d679 a8bd 1750 76be 48cd 9fbd
00000060: 2044 093e a20d 683c 2d79 d8bc 69bc 11bc
00000070: 6f73 b9bd 2b4f de3c a6d1 ccbd aa03 61bd
00000080: b089 d23b c6d9 c9bd d7b0 f73d 91f3 56bd
00000090: 27ee 833d 7c55 313c 736a f2bc 51ff 8b3d
000000a0: 99bf 2c3d 7fa4 223e d150 ea3d 851e cdbc
000000b0: b1fb 6fbd 0d6f 523d 3450 eebd 47f7 ca3c
000000c0: de71 07be f366 10be 301c c53d a08e 8ebd
000000d0: ec1d 853d 9c5d 15be b500 cd3b 69ba cb3c
000000e0: 4a81 89bd 97c7 1a3e a5da d2bd 678f 253c
000000f0: 36ff 643d caa6 b03c 29cc 78bc 9429 173d
00000100: 5d5e 1f3c eb13 6cbb b788 833c b3c5 e03c
00000110: bcf3 0c3d e5e1 babd fddb 81bd 0d70 cbbd
00000120: eea5 08bd d609 56bd ba83 723d be05 233d
00000130: 058f 87bd ca26 8f3d 93ad 023d 89a3 333b
00000140: 279a fb3c cf47 8e3c 4093 f8bd 91bd db3d
00000150: 66b9 5a3e 2b79 653e 85dc 3d3c 8ee4 fdbc
00000160: 4437 4dbd efb3 a73d 8bf0 52bd 4b6f 73bd
00000170: 3853 f8bd f98d 97bd f105 1bbd e9e1 173d
00000180: 448d 83bd 7aed 15be 7a4c cbbd b8eb bdbd
00000190: 8499 edbd 7da5 f9bc b8f6 14be 58b9 bcbd
000001a0: 8ce3 38be 8cca 933b fb2c a6bd 642a 183d
000001b0: 05da bc3d 4a24 e2bd 3bf2 a13c e908 883d
000001c0: 70ff ea3d 3e2e abbd abca 253d d679 893d
000001d0: 0442 83bd b52a e4bb f5a9 ef3c 3cee 35be
000001e0: 67ac 733d 9d56 1e3e 72c7 83bd 8653 1dbe
000001f0: 0bee d5bd ea85 15be f14f a43d 75e5 353e
00000200: 3f08 a43c 1d95 a13d ca18 d2bc 0c49 723d
00000210: fe67 5c3d 8884 18bd bf1c af3d 5e55 933d
00000220: 7655 5f3d eef9 de3b fe8c 46be a9be 08be
00000230: d281 7bbe 5dd2 183e d4bc 4ebd 2a6d dd3d
00000240: 37af 0a3e 95d5 a73d 6015 873e fae1 203d
00000250: a441 aa3d f17c fd3d c957 ed3d 2db4 033e
00000260: 8212 1b3d c80f 32bd 0f94 993d 28a4 6a3d
00000270: e605 173e 587c 253d 5c09 393e 069a 903d
00000280: 7e3f 03be 2a2e 5bbd 8b9d 9f3d f9a7 813c
00000290: 1a5e eabc 57c4 b73d 369f a63d 73de f33d
000002a0: 65a8 8b3d 1ff1 753e 3c7d a23d cd1e 90bc
000002b0: 2fa5 5cbd d8f1 b3bd b5d3 7dbd 59a1 2f3d
000002c0: 73e0 aebb 0d9a a0bd 95f0 51bd 6330 733b
000002d0: e05d 04be 76f8 2abe 981a c9bd f67e b73d
000002e0: 97c6 9abc 2ebd 2b3e f08a 34be 7a75 0dbe
000002f0: 78e2 dfbd 396b 753d 3ec8 c43b 5593 37bd
00000300: 190c bd3c 2c78 e53c a0f9 693b 6a65 66bd
00000310: 1ecf fe3d 2460 773d 11fe 11be 6ef4 863c
00000320: 7053 38bd 5747 863d 5cdf 9f3d b955 dbbb
00000330: 8372 153d 8938 64bd 99fb 14be 8e2f c93d
00000340: 6a3d c43c 918d 42bd 09fa ca3b a519 8c3c
00000350: 1c1c f9bc cf39 93be 597b 223d 2f84 643d
00000360: 4dea 84bd 3b28 d53b 983c ecbc a691 a9bc
00000370: 8f77 c6bc c95d 2f3e 31c9 6fbc 88d2 1d3e
00000380: c173 733d ef20 3fbe e70d 4ebd c307 76bc
00000390: 93f5 30bd 5ea5 80bb f6be 1d3d 8a77 623d
000003a0: 7a39 433d 146e a3bd e33c 59bd 5531 0bbe
000003b0: b86f c23c b074 21be f834 a8bc b652 2b3e
000003c0: 2f20 b2bc 1801 9d3c f79b 613d 4a3d 92bd
000003d0: 88fa ed3c 6d09 0abd 5076 603d a1ed 6f3d
000003e0: 3e8e 22bd 020c 4bbd 69e8 65bd 4b49 b63d
000003f0: 9149 d0bd 3ca6 23be 01fb aabc 1b6c f83d

bias f4 [64]
-0.11331856 -0.020966835 0.12433243 0.07979987 -0.1015918 0.015774542 0.013519527 0.023707401
-0.08000774 0.011067046 -0.069894634 0.050734445 -0.08312416 -0.05340419 0.056352884 -0.0010494213
-0.11455347 0.060662415 -0.018768398 -0.1101853 -0.021008894 0.062345676 0.1603361 -0.11896246
0.11744433 0.02043811 -0.13502134 -0.3007975 0.06568623 0.076213926 0.023769936 -0.19527751
-0.13746154 -0.08547975 0.005484097 -0.023384254 -0.02224595 -0.025790554 0.11368048 -0.03777493
0.073999606 0.102532186 -0.092925675 -0.13515715 -0.11448202 -0.10219234 -0.051743902 0.0005153996
-0.21161054 -0.100732654 0.15861024 -0.18170969 0.040268328 -0.07599153 -0.1687526 -0.07468992
0.084202975 -0.08990682 -0.026323294 -0.1557506 -0.14048769 -0.14187032 -0.08957691 0.06563049
00000000: 9013 e8bd a4c2 abbc 00a2 fe3d 1d6e a33d
00000010: 5d0f d0bd 9d39 813c 0281 5d3c 0636 c23c
00000020: 19db a3bd 8e52 353c eb24 8fbd ecce 4f3d
00000030: 003d aabd 5abe 5abd 48d2 663d bc8c 89ba
00000040: 029b eabd 2779 783d 2fc0 99bc d5a8 e1bd
00000050: d81a acbc 2e5e 7f3d 262f 243e 97a2 f3bd
00000060: a786 f03d d36d a73c 0943 0abe 2102 9abe
00000070: 8186 863d 0c16 9c3d 2bb9 c23c d4f6 47be
00000080: b8c2 0cbe 0210 afbd f1b3 b33b 5690 bfbc
00000090: 233d b6bc b646 d3bc 50d1 e83d e3b9 1abd
000000a0: 1b8d 973d 65fc d13d d14f bebd a366 0abe
000000b0: 8d75 eabd 384a d1bd 6af1 53bd e21b 073a
000000c0: 6fb0 58be ec4c cebd b96a 223e 1b12 3abe
000000d0: 67f0 243d 73a1 9bbd 7bcd 2cbe 07f7 98bd
000000e0: 9c72 ac3d 1121 b8bd f3a3 d7bc 167d 1fbe
000000f0: 01dc 0fbe 7446 11be 1974 b7bd 4769 863d

weight f4 [64]
1.6323082 1.5930418 1.486857 1.4024749 1.5836058 1.6561495 1.6871649 1.662828
1.6028867 1.5709069 1.5177252 1.4884566 1.3665624 1.4944588 1.7437338 1.4457669
1.5749142 1.6649607 1.6522281 1.4352943 1.6133952 1.5146023 1.5092512 1.6842524
1.5792084 1.4824737 1.5189869 1.6807357 1.4976964 1.7270246 1.5541587 1.5162973
1.5890592 1.540464 1.6580437 1.4580797 1.6687582 1.56982 1.4977155 1.7515347
1.6041727 1.5322362 1.5052438 1.70781 1.4634475 1.6506134 1.6143018 1.6125449
1.6897233 1.5407907 1.5061162 1.6792886 1.4158671 1.606459 1.8604585 1.6051009
1.5873272 1.5420105 1.4971943 1.7046293 1.6042897 1.6373547 1.6935052 1.81407
00000000: 7aef d03f cbe8 cb3f 5551 be3f 4c84 b33f
00000010: 98b3 ca3f b5fc d33f 05f5 d73f 8cd7 d43f
00000020: 642b cd3f 7a13 c93f d244 c23f bf85 be3f
00000030: 84eb ae3f 6d4a bf3f ab32 df3f e40e b93f
00000040: ca96 c93f 6f1d d53f 367c d33f b9b7 b73f
00000050: bc83 ce3f 7dde c13f 252f c13f 9595 d73f
00000060: 8023 ca3f b3c1 bd3f 2a6e c23f 5922 d73f
00000070: 84b4 bf3f 240f dd3f acee c63f 0816 c23f
00000080: 4b66 cb3f ed2d c53f c73a d43f 5ba2 ba3f
00000090: de99 d53f ddef c83f 24b5 bf3f 4a32 e03f
000000a0: 8855 cd3f 5120 c43f d4ab c03f 8599 da3f
000000b0: 3f52 bb3f 4d47 d33f 71a1 ce3f df67 ce3f
000000c0: da48 d83f a138 c53f 6ac8 c03f eef2 d63f
000000d0: 223b b53f 73a0 cd3f 8123 ee3f f273 cd3f
000000e0: 8a2d cb3f 9a60 c53f 10a4 bf3f 4b31 da3f
000000f0: 5d59 cd3f d794 d13f c7c4 d83f 7233 e83f

bias f4 [64]
-0.04194722 -0.08961592 -0.03458306 -0.1300997 0.03319246 0.013358104 -0.03676904 0.110398024
0.07229985 0.095494986 -0.0958244 -0.06280402 -0.16643474 -0.09332256 0.15149525 -0.04828501
-0.11778188 0.039366312 -0.043594625 0.045020476 0.12209267 -0.18918905 0.0389497 0.059836145
0.20908108 0.17656934 -0.15566592 0.09721973 -0.13340975 -0.12279847 -0.16073288 -0.0070400187
-0.18343157 0.06156947 -0.1371943 -0.028900757 0.21827032 -0.21072869 0.118709356 -0.0044779456
0.090687044 -0.19413391 -0.022992749 -0.12362151 -0.09356867 -0.14373063 0.04162883 -0.03541121
0.11195383 -0.015558218 -0.04889117 0.03529645 0.055827033 -0.15782 0.10647358 -0.06710466
-0.036941536 -0.02158623 0.06026121 -0.052035596 -0.13820806 0.14498866 -0.03176222 0.18444805
00000000: d9d0 2bbd 8d88 b7bd f7a6 0dbd db38 05be
00000010: d1f4 073d f3db 5a3c 229b 16bd 5c18 e23d
00000020: f211 943d e092 c33d 953f c4bd 659f 80bd
00000030: de6d 2abe e61f bfbd 9221 1b3e 81c6 45bd
00000040: a037 f1bd 923e 213d 4790 32bd 6467 383d
00000050: b90b fa3d c6ba 41be b889 1f3d bf16 753d
00000060: 5a19 563e 98ce 343e e366 1fbe 231b c73d
00000070: 919c 08be c47d fbbd 2997 24be f5af e6bb
00000080: 7cd5 3bbe 4530 7c3d aa7c 0cbe 48c1 ecbc
00000090: 4182 5f3e 43c9 57be e41d f33d bbbb 92bb
000000a0: 21ba b93d 0acb 46be 4a5b bcbc 462d fdbd
000000b0: eea0 bfbd 1f2e 13be fe82 2a3d 580b 11bd
000000c0: 0d48 e53d e5e7 7ebc 1c42 48bd 0393 103d
000000d0: e3aa 643d 919b 21be d20e da3d 2b6e 89bd
000000e0: 0250 17bd 9bd5 b0bc 75d4 763d 4723 55bd
000000f0: 6a86 0dbe e877 143e 1a19 02bd f3df 3c3e

running_mean f4 [64]
0.5864317 0.44318014 0.8319142 0.8379399 0.3247295 0.8549374 0.5153823 0.7107958
0.3471257 0.6516043 0.5245976 0.5936452 0.644906 0.26993087 1.0068607 0.7108612
0.25949022 0.50860816 0.46858406 0.7393909 0.80455214 0.5163346 0.8813032 0.38794774
0.9455839 0.7022294 0.7024159 0.3081856 0.66219044 0.43270022 0.57345086 0.23505835
0.27531847 0.47458965 0.5377392 0.6794632 0.87521654 0.47080916 0.95486987 0.26021188
0.5689131 0.90552044 0.43784055 0.32903856 0.5019355 0.54104733 0.53039175 0.4970774
0.3636141 0.30824497 0.85415685 0.20473173 0.6903261 0.34467122 0.7376311 0.50842255
0.57805556 0.4808534 0.52517134 0.31183666 0.33323333 0.30719715 0.32121646 0.79955995
00000000: 6320 163f 82e8 e23e 54f8 543f 3b83 563f
00000010: f242 a63e 2ddd 5a3f 18f0 033f b7f6 353f
00000020: 76ba b13e 8acf 263f 074c 063f 22f9 173f
00000030: 8f18 253f 6134 8a3e d0e0 803f 00fb 353f
00000040: e7db 843e 2534 023f 40ea ef3e b948 3d3f
00000050: 21f7 4d3f 812e 043f 169d 613f 16a1 c63e
00000060: c911 723f 4ec5 333f 87d1 333f 81ca 9d3e
00000070: 5085 293f e28a dd3e adcd 123f 23b3 703e
00000080: 8bf6 8c3e 6afd f23e 47a9 093f 4df1 2d3f
00000090: 310e 603f e60d f13e 5a72 743f 7e3a 853e
000000a0: 4aa4 113f 30d0 673f a32c e03e be77 a83e
000000b0: d87e 003f 1482 0a3f c1c7 073f ee80 fe3e
000000c0: a12b ba3e 49d2 9d3e 06aa 5a3f 32a5 513e
000000d0: 36b9 303f bf78 b03e 64d5 3c3f fb27 023f
000000e0: 73fb 133f 6b32 f63e a171 063f 0ea9 9f3e
000000f0: 8f9d aa3e f248 9d3e 7c76 a43e f6af 4c3f

running_var f4 [64]
0.9647034 0.7360808 1.3940747 1.2174836 0.43883237 1.2471888 0.7019169 0.9110701
0.43261522 1.1190876 0.77770025 0.9739106 1.5508689 0.38933074 1.26458 1.1472416
0.39447972 0.9007467 0.7369104 1.0562546 0.87201154 0.8912319 1.232976 0.6252695
0.99467564 0.8886408 1.205093 0.4908439 1.2897409 0.67358327 0.9566652 0.38795203
0.37829548 0.74772584 0.9317887 1.0341344 1.2576821 0.7681381 1.4193397 0.3965232
0.7176641 1.9292207 0.73387706 0.48432726 0.673707 1.0201547 0.5569075 0.7442502
0.55760026 0.4517258 0.9838309 0.32009146 1.0976292 0.63035965 1.3599814 0.6796392
0.7599274 0.78242767 0.7522298 0.5576189 0.49825293 0.45620885 0.48573473 0.8372303
00000000: cdf6 763f cb6f 3c3f 0a71 b23f 81d6 9b3f
00000010: a3ae e03e e2a3 9f3f d3b0 333f e43b 693f
00000020: be7f dd3e 433e 8f3f 5d17 473f 3552 793f
00000030: df82 c63f 5c56 c73e c2dd a13f d0d8 923f
00000040: 3ff9 c93e 5697 663f 29a6 3c3f 5a33 873f
00000050: 263c 5f3f c627 643f 28d2 9d3f a911 203f
00000060: 10a3 7e3f f77d 633f 7d40 9a3f e44f fb3e
00000070: 3b16 a53f f46f 2c3f 03e8 743f a6a1 c63e
00000080: f2af c13e f66a 3f3f b489 6e3f 845e 843f
00000090: bafb a03f b3a4 443f ecac b53f 1705 cb3e
000000a0: d6b8 373f b4f0 f63f 5edf 3b3f bef9 f73e
000000b0: 1078 2c3f 6e94 823f 7d91 0e3f 2e87 3e3f
000000c0: e4be 0e3f 9b48 e73e 58dc 7b3f 07e3 a33e
000000d0: 1d7f 8c3f 405f 213f df13 ae3f d6fc 2d3f
000000e0: 9a8a 423f 2e4d 483f 2292 403f 1dc0 0e3f
000000f0: 021b ff3e 3594 e93e 39b2 f83e ba54 563f

weight f4 [10, 64]
0.42140058 0.37208876 -0.37346467 0.24302237 -0.40402132 -0.16645046 0.29551947 -0.22781453
0.40995225 0.06265565 -0.21273962 -0.38845807 -0.14580786 -0.3281614 0.4113846 0.02243734
-0.2626999 -0.36201987 -0.09654736 0.12224496 0.3097926 0.2262264 0.18864629 0.374362
0.07085445 -0.011356192 -0.1650598 0.419228 -0.11917535 -0.22051124 -0.046400968 -0.21332687
-0.11936967 0.31972328 -0.2510567 0.087363 0.03330836 -0.18542759 0.054828167 -0.30314225
0.047166746 -0.113663025 0.020240381 -0.33556694 -0.23635049 0.38623503 0.2119036 -0.13299657
0.21811286 -0.18659246 -0.29695132 -0.36602056 0.19332887 0.20338221 -0.046577036 0.39715096
0.35522884 0.06735834 -0.20704472 -0.008354041 -0.11487027 -0.20808803 0.13711132 0.080113664
0.1490387 -0.057629038 -0.06523363 0.08530809 0.42614266 -0.28606188 0.30983675 -0.2899371
0.28074086 -0.045587514 -0.32096913 -0.038873654 -0.038419526 -0.2226071 -0.48093665 -0.027136438
-0.09904949 0.2536385 0.27810743 -0.4491327 -0.23391554 -0.21593906 -0.14124405 0.3084047
0.2417504 -0.07487572 -0.24002202 0.35867807 -0.16327392 0.51794153 -0.022941098 0.18718863
-0.14299893 -0.26518413 -0.015272028 -0.4252623 0.049430307 -0.21851015 0.263469 0.42517838
0.39446133 -0.1048278 -0.017593073 0.1444756 0.034959156 -0.19088335 -0.35931155 0.2246524
0.29235533 -0.20464157 -0.25727755 0.3310207 0.050533224 -0.24861278 -0.5204679 0.16402298
-0.027188199 -0.078376845 -0.017397564 0.043515004 -0.23838337 0.4195972 0.16136387 0.090454124
-0.15209468 -0.17762393 0.25509465 -0.011845916 -0.15334122 -0.16108987 -0.29773512 0.27716607
0.076523334 0.3358777 0.09138589 -0.10866456 -0.21399172 -0.1833212 -0.2766168 0.19148321
-0.30125692 0.2625585 0.07366142 0.22059835 0.02546123 -0.06550688 0.33037823 -0.31715
0.075162284 -0.100362696 0.11184965 -0.40065607 -0.15339215 -0.027507314 -0.0038973556 0.43016464
0.38377202 -0.060205583 0.3040965 0.14566231 -0.08956615 -0.13588104 0.29732913 0.34600747
0.12798151 -0.17908925 0.06393853 0.45390627 -0.10652154 -0.0745382 -0.1074448 -0.017389627
-0.43409452 0.36667567 0.3312881 0.023748763 0.32265183 -0.17628103 -0.16204022 -0.211352
-0.32041794 0.13326854 -0.024858389 0.48412573 0.06562484 0.046175618 0.13791804 -0.29915014
-0.020467464 0.06780773 0.3805707 0.273516 -0.026073221 0.4194768 -0.19076514 -0.21755268
0.1855641 0.2632454 0.14984535 0.25750685 0.2182656 0.16457258 0.13231762 0.19472711
-0.3927457 -0.3247471 -0.09521728 -0.14787468 -0.22402346 -0.049087472 -0.4185561 -0.20833269
-0.28592217 -0.03828874 0.28240576 -0.23966879 0.1262931 -0.2718301 0.18366933 -0.16652323
0.011069888 0.06683437 0.07014919 -0.26366922 -0.18308127 0.16186182 -0.33432588 -0.36478993
-0.36385685 0.3006327 0.20030119 -0.25434992 0.2978584 0.26204163 -0.299611 0.3066691
-0.1558224 -0.24359396 0.2801371 -0.19185866 -0.39453647 0.05830206 0.15626425 -0.24163122
-0.094151765 0.37530056 -0.26398632 0.21122831 0.05501629 -0.31456718 -0.3736757 -0.3177369
00000000: d1c1 d73e 6b82 be3e c336 bfbe dbda 783e
00000010: e2db cebe fd71 2abe 544e 973e 3648 69be
00000020: 43e5 d13e 9b51 803d 6ad8 59be fae3 c6be
00000030: a84e 15be c504 a8be 01a1 d23e 83ce b73c
00000040: 9a80 86be ab5a b9be 9fba c5bd 915b fa3d
00000050: 239d 9e3e e5a7 673e 7e2c 413e 60ac bf3e
00000060: 231c 913d 520f 3abc 7005 29be 0da5 d63e
00000070: 3512 f4bd b3cd 61be f10e 3ebd 5c72 5abe
00000080: 1678 f4bd c5b2 a33e 818a 80be 5feb b23d
00000090: 596e 083d bbe0 3dbe 8093 603d 7635 9bbe
000000a0: eb31 413d 29c8 e8bd 28cf a53c 6ecf abbe
000000b0: dd05 72be 99c0 c53e 42fd 583e 4130 08be
000000c0: fa58 5f3e 1812 3fbe 010a 98be 0c67 bbbe
000000d0: 01f8 453e 6d43 503e 90c7 3ebd 5f57 cb3e
000000e0: 8ee0 b53e 2bf3 893d 8803 54be 63df 08bc
000000f0: 1b41 ebbd 0715 55be e966 0c3e a212 a43d
00000100: 9a9d 183e 6d0c 6cbd 3699 85bd 02b6 ae3d
00000110: 5f2f da3e b476 92be eca2 9e3e a372 94be
00000120: 44bd 8f3e f9b9 3abd 1156 a4be fb39 1fbd
00000130: cb5d 1dbd 1ef3 63be 543d f6be 3c4d debc
00000140: 76da cabd e8dc 813e 1964 8e3e b9f4 e5be
00000150: 8e87 6fbe 211f 5dbe 48a2 10be 39e7 9d3e
00000160: 6b8d 773e 7158 99bd 55c8 75be a7a4 b73e
00000170: 4731 27be d197 043f f8ee bbbc 60ae 3f3e
00000180: 506e 12be 37c6 87be 8737 7abc fbbb d9be
00000190: 6f77 4a3d 20c1 5fbe 69e5 863e fbb0 d93e
000001a0: d6f6 c93e f5af d6bd 591f 90bc 69f1 133e
000001b0: 5531 0f3d ed76 43be aff7 b7be 470b 663e
000001c0: 99af 953e 8f8d 51be e2b9 83be 8c7b a93e
000001d0: edfb 4e3d 5994 7ebe 623d 05bf a4f5 273e
000001e0: c9b9 debc 0a84 a0bd 5685 8ebc ca3c 323d
000001f0: c51a 74be 72d5 d63e 923c 253e 0340 b93d
00000200: b5be 1bbe 0ce3 35be c49b 823e 5f15 42bc
00000210: 7b05 1dbe bef4 24be bd70 98be b6e8 8d3e
00000220: 44b8 9c3d 29f8 ab3e 8728 bb3d 868b debd
00000230: a520 5bbe 8db8 3bbe b8a0 8dbe 2d14 443e
00000240: 593e 9abe 116e 863e ccdb 963d 89e4 613e
00000250: 1294 d03c 7928 86bd 5627 a93e 7c61 a2be
00000260: afee 993d f58a cdbd 6e11 e53d cb22 cdbe
00000270: d512 1dbe 0557 e1bc c76a 7fbb 8a3e dc3e
00000280: c47d c43e 219a 76bd 89b2 9b3e 8028 153e
00000290: 756e b7bd 6624 0bbe 863b 983e e427 b13e
000002a0: 960d 033e 2c63 37be 34f2 823d 6766 e83e
000002b0: f727 dabd 7ca7 98bd 050c dcbd b174 8ebc
000002c0: a341 debe eabc bb3e 989e a93e c48c c23c
000002d0: 9f32 a53e 0483 34be dfed 25be a96c 58be
000002e0: d20d a4be 8c77 083e d2a3 cbbc 54df f73e
000002f0: 5166 863d a522 3d3d 633a 0d3e 352a 99be
00000300: 62ab a7bc c7de 8a3d 2ada c23e 4a0a 8c3e
00000310: 8297 d5bc aac5 d63e f057 43be 21c6 5ebe
00000320: 8404 3e3e 1ac8 863e 0f71 193e f0d7 833e
00000330: 0481 5f3e b785 283e 457e 073e 8b66 473e
00000340: f715 c9be 4045 a6be 4701 c3bd 766c 17be
00000350: 6866 65be f20f 49bd fc4c d6be 2a55 55be
00000360: 6464 92be a7d4 1cbd 7d97 903e bc6b 75be
00000370: fa52 013e 512d 8bbe d013 3c3e 1185 2abe
00000380: 7a5e 353c 75e0 883d 61aa 8f3d a7ff 86be
00000390: a879 3bbe 1bbf 253e c32c abbe bfc5 babe
000003a0: 724b babe 87ec 993e c11b 4d3e 273a 82be
000003b0: e580 983e 522a 863e 9d66 99be bb03 9d3e
000003c0: e88f 1fbe b270 79be 216e 8f3e 9976 44be
000003d0: af00 cabe 24ce 6e3d bc03 203e 2d6e 77be
000003e0: a4d2 c0bd 6527 c03e 3729 87be 3c4c 583e
000003f0: c358 613d f30e a1be 6c52 bfbe 69ae a2be

bias f4 [10]
-0.04834433 -0.091701195 -0.031695776 -0.0041528824 0.0036219868 0.036749076 0.09084287 0.009850627
-0.0945684 -0.11591387
00000000: b404 46bd d6cd bbbd 6ed3 01bd e714 88bb
00000010: db5e 6d3b 3386 163d d40b ba3d 8664 213c
00000020: 14ad c1bd 4064 edbd
