Models/cloud_model_1.pt (torch, 114763 bytes, 26 tensors)

weight f4 [8, 2, 5, 5]
0.025282206 0.039582178 0.11177741 0.33652237 0.07108281 -0.17031473 0.26120326 0.38569635
0.05881884 0.23106001 -0.3015161 -0.14512798 -0.049879182 -0.09598778 0.13909222 -0.2536744
-0.10405061 -0.10436337 0.10805367 -0.2108129 -0.047748443 0.18779682 -0.10117067 -0.28557637
0.32100517 0.47492838 0.28756887 0.26883018 0.08367222 -0.2446769 0.4021932 -0.18542798
-0.06754892 0.1579836 -0.12875369 -0.18546581 -0.19965547 -0.058783356 0.20825312 -0.16427918
0.057019915 0.09032459 -0.08209786 -0.42497012 -0.04376438 0.0027464742 -0.2706208 -0.32077375
0.008656212 -0.016535483 0.023329329 0.16003159 -0.05331968 0.0037512388 -0.03931855 -0.20662753
-0.31870672 -0.33856657 -0.14909321 0.0034660485 -0.1738608 0.060793366 -0.3395559 0.020738725
-0.3881726 0.14022598 0.28195783 -0.16883689 -0.018236862 -0.1685463 0.018946739 0.35081974
0.12095275 0.10067061 -0.04318013 -0.29006028 -0.33048525 -0.03683671 0.12162889 -0.20882119
0.11822205 -0.21874478 0.0077357376 0.03067108 0.0331091 -0.16802688 -0.12631445 -0.0013229781
-0.06526716 0.15311307 0.15780017 -0.19651608 0.17361277 -0.06447812 0.11645154 -0.008794764
0.12440149 0.3188226 -0.05653621 -0.26342684 -0.19822672 0.045047794 -0.08460386 -0.31967604
-0.39595038 0.25126588 0.05579864 -0.089339145 0.06380116 -0.14928651 -0.07836248 0.12589154
-0.19703124 0.10788019 -0.18697084 0.23788986 0.06622004 -0.34073037 0.24850453 0.04422751
0.053232547 -0.091477245 -0.04842775 -0.008339216 0.2658089 -0.12825212 0.14331834 -0.14308134
0.19528787 0.15204215 0.1361483 0.25044674 -0.015178813 -0.26658264 -0.09326613 0.044198994
0.042983092 -0.17486838 0.23236643 -0.3653679 0.35284325 0.33067533 -0.2956291 0.39532462
0.4024568 -0.10375848 0.1538621 0.15189457 -0.07748522 -0.27286366 -0.010829625 -0.3425607
0.36865407 -0.14764526 -0.38982686 -0.0058284504 0.20330039 -0.22786066 0.084794305 -0.10883544
-0.005497644 0.06989375 -0.26204866 -0.09961882 0.06718255 -0.094073236 -0.11602585 -0.23699184
-0.078987285 -0.27705416 -0.07132484 0.06575292 -0.18237412 -0.1276542 -0.1000876 0.09051736
-0.075908996 -0.17280097 -0.23116145 0.013626986 0.32966956 0.031752538 -0.1756292 0.202391
0.024762303 -0.02689519 0.06550277 0.18272874 0.06607405 0.48767462 0.0055564386 -0.031538766
0.31767383 -0.03661569 0.46246657 0.53872883 0.12258109 0.12399045 0.20522632 0.29544762
-0.17021388 -0.18469682 -0.045897055 -0.077071466 0.19516774 0.12682688 -0.042285487 0.16817495
0.030830167 -0.52542806 -0.1482667 -0.120517 -0.017741794 -0.24786562 -0.004043522 0.014637413
-0.3468422 -0.10420348 0.14013465 0.13710143 -0.06255349 0.269184 -0.075569086 0.073162645
-0.007355919 0.20911387 0.13958056 0.25523272 0.060457524 0.27686316 -0.009548455 0.1445834
-0.05376124 0.22114126 0.3829498 0.011768439 -0.10716596 0.05628499 -0.19242707 -0.23563555
-0.1802399 0.4191857 0.06271061 -0.08433691 -0.20824087 0.090141885 -0.11122111 -0.19989114
0.08854557 -0.017540568 0.14338098 0.0002235108 0.17998716 0.0067638773 -0.08212085 -0.13752788
00000000: a11c cf3c ec20 223d 8eeb e43d a94c ac3e
00000010: dd93 913d fc66 2ebe 6fbc 853e fe79 c53e
00000020: 06ec 703d ff9a 6c3e 5160 9abe 6e9c 14be
00000030: 1d4e 4cbd 3e95 c4bd 316e 0e3e 9ce1 81be
00000040: 7c18 d5bd 76bc d5bd 3e4b dd3d 56df 57be
00000050: df93 43bd cf4d 403e 9132 cfbd 1137 92be
00000060: ca5a a43e d029 f33e 3a3c 933e 1ca4 893e
00000070: 575c ab3d 958c 7abe 44ec cd3e d5e0 3dbe
00000080: 1757 8abd 74c6 213e 02d8 03be c0ea 3dbe
00000090: 7c72 4cbe d1c6 70bd 4e40 553e cd38 28be
000000a0: b78d 693d 19fc b83d ec22 a8bd af95 d9be
000000b0: 4742 33bd 31fe 333b cf8e 8abe 753c a4be
000000c0: c9d2 0d3c 6c75 87bc 261d bf3c 52df 233e
000000d0: bd65 5abd 58d7 753b 7d0c 21bd 2b96 53be
000000e0: 872d a3be 9958 adbe e4ab 18be a526 633b
000000f0: 9108 32be 7702 793d 45da adbe 42e4 a93c
00000100: 8fbe c6be 6697 0f3e c75c 903e 94e3 2cbe
00000110: 7965 95bc 6797 2cbe 3136 9b3c a59e b33e
00000120: 13b6 f73d 652c ce3d a6dd 30bd c882 94be
00000130: 5d35 a9be 17e2 16bd 9118 f93d 39d5 55be
00000140: 671e f23d a2fe 5fbe 127c fd3b eb41 fb3c
00000150: 689d 073d 3d0f 2cbe 9358 01be c767 adba
00000160: caaa 85bd acc9 1c3e 5e96 213e 833b 49be
00000170: 8cc7 313e 1b0d 84bd 257e ee3d ea17 10bc
00000180: 35c6 fe3d b73c a33e 8392 67bd e2df 86be
00000190: f2fb 4abe 0984 383d ca44 adbd 94ac a3be
000001a0: 02ba cabe eca5 803e 1d8d 643d 71f7 b6bd
000001b0: 2faa 823d 90de 18be 827c a0bd b6e9 003e
000001c0: 8fc2 49be 4af0 dc3d 4975 3fbe 6699 733e
000001d0: 5f9e 873d 3674 aebe f977 7e3e e827 353d
000001e0: 5f0a 5a3d 6c58 bbbd 2d5c 46bd 35a1 08bc
000001f0: 1b18 883e 8654 03be 0bc2 123e ea83 12be
00000200: 8bf9 473e f0b0 1b3e 766a 0b3e 8e3a 803e
00000210: 8eb0 78bc 857d 88be 5002 bfbd 010a 353d
00000220: 0a0f 303d b210 33be 77f1 6d3e 8011 bbbe
00000230: dfa7 b43e 474e a93e b35c 97be fd67 ca3e
00000240: d10e ce3e 537f d4bd 078e 1d3e 408a 1b3e
00000250: 92b0 9ebd c9b4 8bbe bd6e 31bc 1e64 afbe
00000260: 3ac0 bc3e 5230 17be 6397 c7be 96fc bebb
00000270: fa2d 503e 4e54 69be a3a8 ad3d 1de5 debd
00000280: 9525 b4bb 7424 8f3d 3e2b 86be f404 ccbd
00000290: 0197 893d 78a9 c0bd f69e edbd fdad 72be
000002a0: 16c4 a1bd 0bda 8dbe c212 92bd 78a9 863d
000002b0: 48c0 3abe c8b7 02be bafa ccbd 2a61 b93d
000002c0: 2d76 9bbd bdf2 30be 96b5 6cbe b943 5f3c
000002d0: 73ca a83e f30e 023d 24d8 33be 963f 4f3e
000002e0: 50da ca3c 4d53 dcbc 5126 863d 3e1d 3b3e
000002f0: d551 873d 7db0 f93e c912 b63b cb2e 01bd
00000300: 25a6 a23e 55fa 15bd 6bc8 ec3e 22ea 093f
00000310: cb0b fb3d b4ee fd3d d926 523e e944 973e
00000320: 8c4c 2ebe 2a21 3dbe 8dfe 3bbd a5d7 9dbd
00000330: 0dda 473e e8de 013e 8c33 2dbd 0e36 2c3e
00000340: 8c8f fc3c 7482 06bf 3ad3 17be 9ed1 f6bd
00000350: 3d57 91bc 7cd0 7dbe 857f 84bb c3d1 6f3c
00000360: 4d95 b1be a268 d5bd 757f 0f3e 5164 0c3e
00000370: 0b1c 80bd 7cd2 893e f7c3 9abd 4cd6 953d
00000380: ec09 f1bb f221 563e 35ee 0e3e ddad 823e
00000390: 4fa2 773d 02c1 8d3e 1f71 1cbc ac0d 143e
000003a0: bf34 5cbd db72 623e ff11 c43e 69d0 403c
000003b0: d479 dbbd 178b 663d 9a0b 45be 724a 71be
000003c0: cf90 38be 829f d63e 6c6e 803d d4b8 acbd
000003d0: 183d 55be 4f9c b83d e5c7 e3bd 43b0 4cbe
000003e0: 6157 b53d 3db1 8fbc 77d2 123e 395e 6a39
000003f0: 8e4e 383e 84a3 dd3b fa2e a8bd 1cd4 0cbe

bias f4 [8]
0.025721865 0.16960984 0.07297813 0.04592048 -0.006094521 0.05905746 -0.15069282 0.023709035
00000000: a9b6 d23c 34ae 2d3e 8f75 953d 1d17 3c3d
00000010: 8cb4 c7bb 3ce6 713d 384f 1abe 7339 c23c

weight f4 [8]
1.0576568 1.0741467 0.68952745 1.0164541 1.0248747 0.9802512 0.9915479 1.0098637
00000000: 4c61 873f a47d 893f df84 303f 2b1b 823f
00000010: 182f 833f bef1 7a3f 15d6 7d3f 3743 813f

bias f4 [8]
0.0063037304 -0.046821482 0.0789445 -0.062877975 0.028791647 0.07233866 -0.03283688 -0.0071123648
00000000: 868f ce3b e2c7 3fbd a7ad a13d 2bc6 80bd
00000010: 76dc eb3c 4b26 943d f77f 06bd d70e e9bb

running_mean f4 [8]
0.3241252 0.7848865 0.24458012 0.33498704 0.115046404 0.3879074 0.4200375 0.21206148
00000000: bdf3 a53e 52ee 483f 3673 7a3e 6c83 ab3e
00000010: 739d eb3d cc9b c63e 280f d73e a526 593e

running_var f4 [8]
0.314442 0.7818833 0.2535649 0.39659178 0.05754597 0.47245553 0.539501 0.1533535
00000000: 8bfe a03e 8129 483f 42d3 813e 140e cb3e
00000010: 53b5 6b3d b1e5 f13e bd1c 0a3f b308 1d3e

weight f4 [16, 8, 3, 3]
0.33715418 0.20866147 -0.072954975 0.10513083 0.021767417 -0.07050555 -0.19736314 -0.16230443
-0.03672746 -0.33240524 -0.14574148 -0.13633007 0.049570475 -0.19393954 -0.05014731 0.32221314
0.2111195 -0.06173891 -0.23967864 0.042963713 -0.096397676 0.10801342 0.05025302 0.0099348165
0.0398013 0.009492925 -0.03403488 -0.18524952 0.19988857 0.097559035 -0.06989544 -0.043659568
0.22337599 -0.24993172 0.16271396 0.04100578 -0.2880711 0.007816458 0.05254028 0.039273843
-0.10319521 0.110488035 0.23830475 0.23582332 0.01049359 -0.24983945 -0.16247544 0.15236956
-0.08838972 -0.33258545 -0.2581442 -0.122361 -0.085083805 0.041723337 -0.20713137 -0.11936985
0.07340303 -0.14498386 -0.19555204 -0.25707403 0.014056964 -0.09651105 -0.1119428 0.20137116
0.081571534 0.14951739 0.21189167 0.11798795 0.3355462 0.05907302 0.049584124 0.06683825
0.014177714 0.13260335 0.13217105 0.09821753 0.45527366 0.013220606 -0.0715285 -0.019585036
0.058404475 0.14088356 -0.3124177 -0.11039629 -0.18684821 0.06903199 0.043921087 0.009680681
-0.19364466 -0.04696635 -0.3458659 -0.03000547 -0.111093044 0.090744995 -0.07355865 -0.28547582
-0.011936977 0.049076475 0.022317577 0.023207607 0.015545161 -0.1408011 0.091419816 -0.22526981
-0.1452758 -0.018555827 0.089781746 -0.06853658 -0.121331654 0.008211728 -0.08690542 -0.07093963
-0.19073558 -0.07965172 0.15195046 -0.19209777 -0.14684568 -0.07676598 -0.19918036 0.18206282
0.04907462 -0.06656131 0.016811602 0.08291003 -0.06917875 -0.2365554 0.33778673 0.27699718
0.011848334 -0.12452183 0.07501602 0.12864615 -0.043024853 0.0492254 -0.028731659 0.2918827
0.34281293 0.106948845 -0.33970192 -0.2301968 -0.29062444 -0.015036891 -0.19335717 0.12777776
-0.08774187 -0.12297925 0.20157614 -0.18182302 -0.09468612 0.25684485 -0.18644056 0.17926441
-0.34829262 0.03725905 -0.08466329 0.08227462 -0.015825236 0.1831469 0.03139873 0.008796129
-0.1114039 -0.25568107 -0.1402021 -0.08962459 0.22056702 0.14522265 0.14624819 0.2135684
-0.32641152 -0.07439685 0.007268453 -0.059648387 -0.07181439 0.01978597 0.07007253 0.069516
0.046029847 0.03672997 -0.044711158 0.10323408 -0.065288715 -0.12705943 0.06446538 -0.014738784
-0.113233514 0.3308411 -0.2151049 -0.053670853 0.1937827 -0.105050474 -0.099960975 0.037149113
0.47565386 -0.005230424 0.20231488 -0.22050267 -0.047659103 -0.27738774 -0.12975594 0.009604364
-0.08052606 -0.025319815 0.15621844 0.2676095 0.10316413 -0.10588007 0.38694105 -0.09566707
0.09527209 -0.273494 0.09331134 0.06528686 -0.1353356 0.20467196 -0.0065198215 0.15309167
-0.13906348 0.03591168 -0.08184769 0.16321637 0.18656209 0.2702986 0.18417823 -0.24626279
0.015899532 0.075440854 -0.13853915 0.16890615 -0.071490735 0.11212357 0.055619862 0.048212145
0.0016915741 0.13619559 0.042274866 0.12030952 0.07300347 -0.168924 -0.057923436 0.14691934
-0.14242707 -0.18585768 -0.028100686 -0.04284189 -0.013793481 -0.24176668 0.13089636 0.27414995
-0.06886788 0.24381085 0.040408082 -0.120704085 -0.07796017 0.06631828 -0.079993956 -0.084449194
00000000: 799f ac3e 5aab 553e 6b69 95bd d54e d73d
00000010: 9551 b23c 3765 90bd 9019 4abe 2233 26be
00000020: 886f 16bd 0531 aabe 413d 15be 1c9a 0bbe
00000030: 690a 4b3d 1698 46be 4467 4dbd 1ff9 a43e
00000040: b62f 583e f0e1 7cbd 516e 75be b8fa 2f3d
00000050: 256c c5bd 2436 dd3d 1cd6 4d3d a4c5 223c
00000060: b006 233d 3788 1b3c 2968 0bbd 0db2 3dbe
00000070: 97af 4c3e 08cd c73d 5725 8fbd 60d4 32bd
00000080: adbc 643e 1aee 7fbe 7d9e 263e adf5 273d
00000090: 0e7e 93be 9a10 003c 7a34 573d 9cdd 203d
000000a0: 0358 d3bd 8d47 e23d 2906 743e ab7b 713e
000000b0: 4eed 2b3c ead5 7fbe f65f 26be c406 1c3e
000000c0: ab05 b5bd a448 aabe 7a2b 84be 6798 fabd
000000d0: 6b40 aebd 17e6 2a3d 3f1a 54be 2e78 f4bd
000000e0: 5454 963d a676 14be cb3e 48be 359f 83be
000000f0: 2e4f 663c 96a7 c5bd 4442 e5bd 3e34 4e3e
00000100: fa0e a73d 161b 193e 21fa 583e aba3 f13d
00000110: b6cc ab3e 8df6 713d b918 4b3d 7ee2 883d
00000120: a449 683c 2cc9 073e d957 073e 4626 c93d
00000130: a119 e93e 3e9b 583c 897d 92bd cc70 a0bc
00000140: 8839 6f3d c843 103e 36f5 9fbe 7317 e2bd
00000150: 2355 3fbe a560 8d3d 99e6 333d b89b 1e3c
00000160: c94a 46be ca5f 40bd 5615 b1be 08ce f5bc
00000170: c084 e3bd 83d8 b93d eba5 96bd e329 92be
00000180: 4f93 43bc 6a04 493d 5ad3 b63c e11d be3c
00000190: 22b1 7e3c 2a2e 10be 503a bb3d 21ad 66be
000001a0: 2ec3 14be 6402 98bc 7edf b73d e85c 8cbd
000001b0: bb7c f8bd 7c8a 063c 78fb b1bd cc48 91bd
000001c0: 3050 43be 7120 a3bd e798 1b3e 47b5 44be
000001d0: b75e 16be 7b37 9dbd f0f5 4bbe ad6e 3a3e
000001e0: 7802 493d 4c51 88bd 7cb8 893c bccc a93d
000001f0: 97ad 8dbd 943b 72be 62f2 ac3e 93d2 8d3e
00000200: 841f 423c 4d05 ffbd 00a2 993d d1bb 033e
00000210: d43a 30bd 93a0 493d a85e ebbc a671 953e
00000220: 2d85 af3e ff07 db3d 69ed adbe b6b8 6bbe
00000230: bacc 94be 4b5d 76bc 6cff 45be 2cd8 023e
00000240: 02b2 b3bd 8cdc fbbd fa69 4e3e d02f 3abe
00000250: ccea c1bd 2b81 833e 46ea 3ebe 1791 373e
00000260: 6953 b2be f29c 183d f263 adbd 997f a83d
00000270: eda3 81bc dc8a 3b3e f49b 003d a41d 103c
00000280: ba27 e4bd a1e8 82be 2491 0fbe 198d b7bd
00000290: 52dc 613e 3fb5 143e 16c2 153e adb1 5a3e
000002a0: 691f a7be 605d 98bd 342c ee3b de51 74bd
000002b0: 6c13 93bd 3016 a23c 3082 8f3d 685e 8e3d
000002c0: cb89 3c3d 2a72 163d 0c23 37bd 646c d33d
000002d0: 17b6 85bd de1b 02be 6d06 843d f17a 71bc
000002e0: f9e6 e7bd 0164 a93e 7544 5cbe f8d5 5bbd
000002f0: f96e 463e b424 d7bd 57b8 ccbd ab29 183d
00000300: e788 f33e fa63 abbb a22b 4f3e 74cb 61be
00000310: 3136 43bd c405 8ebe bede 04be 9f5b 1d3c
00000320: d9ea a4bd 806b cfbc baf7 1f3e 1d04 893e
00000330: b747 d33d a6d7 d8bd 231d c63e 19ed c3bd
00000340: 031e c33d 6807 8cbe 041a bf3d 1eb5 853d
00000350: 6a95 0abe 8795 513e 3aa4 d5bb 10c4 1c3e
00000360: a866 0ebe 2018 133d c39f a7bd 3122 273e
00000370: 220a 3f3e 9464 8a3e 3899 3c3e 502c 7cbe
00000380: bc3f 823c bc80 9a3d 35dd 0dbe bcf5 2c3e
00000390: bc69 92bd 0ba1 e53d a7d1 633d 197a 453d
000003a0: cfb7 dd3a db76 0b3e 6928 2d3d d664 f63d
000003b0: d882 953d 6afa 2cbe 2041 6dbd 0672 163e
000003c0: 67d8 11be 7a51 3ebe 6933 e6bc fa7a 2fbd
000003d0: 0dfe 61bc af91 77be b209 063e 625d 8c3e
000003e0: 9a0a 8dbd 8da9 793e f282 253d b433 f7bd
000003f0: 95a9 9fbd e1d1 873d dfd3 a3bd b3f3 acbd

bias f4 [16]
-0.036688544 -0.12552747 0.04397298 -0.016222183 0.09037959 0.013027586 0.012082157 -0.14709565
-0.059234638 0.0021523575 0.049236804 -0.07243163 0.056876328 -0.20019628 -0.15862311 -0.04645186
00000000: ba46 16bd 468a 00be 031d 343d 62e4 84bc
00000010: ef18 b93d a871 553c 3df4 453c 3ea0 16be
00000020: 05a0 72bd 910e 0d3b 88ac 493d 0957 94bd
00000030: 27f7 683d 4100 4dbe 196e 22be 4e44 3ebd

weight f4 [16]
1.0456951 1.0099447 0.8847752 0.93062073 0.9093353 0.9552141 1.0641888 0.9234297
0.9069948 0.9967415 0.99855316 0.95278376 1.0024779 1.0833163 1.0914848 0.9959984
00000000: 56d9 853f de45 813f a180 623f 293d 6e3f
00000010: 33ca 683f e988 743f 5737 883f e465 6c3f
00000020: d030 683f 732a 7f3f 2ea1 7f3f a3e9 733f
00000030: 3251 803f 1caa 8a3f c6b5 8b3f c0f9 7e3f

bias f4 [16]
0.16373475 0.18630251 0.1047159 0.098935336 0.027033988 0.015688028 -0.26213756 0.20206687
0.16226065 0.097107485 0.13673317 -0.05093742 0.19430661 0.027452385 0.101888776 0.09092823
00000000: 15aa 273e 16c6 3e3e 4a75 d63d 9c9e ca3d
00000010: 6276 dd3c 2e84 803c e536 86be 9eea 4e3e
00000020: a827 263e 4ae0 c63d c803 0c3e c2a3 50bd
00000030: 50f8 463e d3e3 e03c 10ab d03d 9438 ba3d

running_mean f4 [16]
0.3611198 0.45894113 0.45783263 0.41731703 0.7654298 0.76458377 0.8529657 0.3365487
0.5692163 0.90237135 0.7298083 0.38094318 0.77281 0.49421233 0.75542444 1.090681
00000000: b2e4 b83e 55fa ea3e 0a69 ea3e 94aa d53e
00000010: 35f3 433f c3bb 433f f65b 5a3f 1c50 ac3e
00000020: 29b8 113f cf01 673f b7d4 3a3f fc0a c33e
00000030: e0d6 453f 6609 fd3e 7f63 413f 6f9b 8b3f

running_var f4 [16]
0.3273952 0.8306564 1.2257764 0.8601236 2.2905416 2.1720726 0.6774514 0.59765166
0.46643564 0.8353691 0.8411013 0.79016244 2.3758066 0.62274766 0.9572236 1.7016954
00000000: 58a0 a73e e6a5 543f 3ee6 9c3f 0f31 5c3f
00000010: 3c98 1240 3d03 0b40 746d 2d3f b3ff 183f
00000020: a7d0 ee3e c0da 553f 6a52 573f 1648 4a3f
00000030: 370d 1840 646c 1f3f 9b0c 753f 28d1 d93f

weight f4 [32, 16, 3, 3]
0.07199011 0.0017066023 -0.038995013 -0.17062238 0.023008073 -0.21952312 -0.2035822 -0.04606815
-0.02952432 -0.0643471 -0.008510227 -0.0011897729 -0.050522994 -0.08375658 -0.029598542 0.02358508
-0.0003521643 -0.095045894 -0.050591845 -0.055527538 -0.17973094 0.1305535 0.018033823 0.04131969
-0.07767915 0.0732194 0.106642626 -0.23079136 -0.02387428 -0.060417864 0.09195211 -0.014661338
0.21071543 -0.10634763 0.0288486 0.045969784 0.08064128 0.10914927 -0.04258318 0.023179205
0.15682949 0.048655268 0.027868683 -0.06657429 0.3639269 -0.03254128 -0.06816517 0.15731013
-0.06924052 0.16651006 -0.102021724 0.117789544 -0.015929785 -0.006940242 0.037543364 0.06761581
-0.22620764 0.0068119974 0.044446703 0.082709566 0.13616103 -0.072576955 0.06396945 -0.016518598
0.08225108 0.11070748 -0.09258575 -0.048981093 -0.1628655 0.10576384 -0.009713236 -0.012395891
0.005380726 -0.027080448 0.097245745 0.016898148 -0.03504107 -0.34443936 0.046832833 -0.18949784
-0.05026423 -0.017914634 -0.07096991 0.044264924 -0.011241671 0.106382415 -0.04579386 -0.11977568
-0.17710543 0.12064722 -0.15902045 -0.12135133 0.055718556 0.21681933 -0.00030081358 0.18605831
-0.13346629 0.09238285 -0.1840448 0.097371206 0.11754871 -0.22705837 -0.07263778 0.02302559
-0.053734586 0.11835307 -0.061643127 -0.02194292 -0.080895126 -0.115282245 -0.048355497 0.0074129202
0.16999696 0.078719884 0.2367486 0.09007976 0.057927594 0.25090864 0.04692503 -0.02142023
0.2524009 0.12860842 0.14980023 0.12467448 -0.023453034 0.29474047 0.040710397 0.088052556
-0.05613467 0.11302609 -0.055939287 0.27561095 0.19360912 0.063946545 0.15226074 -0.11184527
-0.14396253 -0.1316598 -0.069944 -0.20367791 -0.09100352 0.11822798 -0.046110004 -0.090614974
-0.08530872 -0.17212416 0.034119003 -0.12533207 -0.1530463 -0.18045686 -0.05945329 0.033017028
-0.10610229 0.14305438 0.0074825096 0.09222685 -0.11093749 -0.3848235 -0.20521685 0.009176823
0.14021747 0.06857379 -0.16623022 0.0137705365 0.045903668 0.099134676 -0.18982293 -0.17653267
-0.0050143655 -0.16244023 -0.057657227 0.07724128 -0.17046024 -0.056589916 -0.007244343 -0.25213778
-0.19864188 -0.20341915 0.07477744 0.04600912 -0.019399505 -0.19656149 0.101470344 -0.061388507
-0.21888822 0.10779138 -0.053546313 0.08335826 -0.037463583 0.21850453 -0.083331734 0.084464215
0.17403516 -0.045502264 0.10141678 0.024657488 -0.042192478 -0.10273872 0.2002378 0.08060001
-0.122354 -0.24426343 0.06724427 0.13506354 -0.047364663 -0.07467244 0.02529384 0.18039858
0.009259521 -0.02314043 0.15100051 0.03332596 0.122288905 -0.13148497 -0.13055569 0.1281559
-0.19722532 -0.007503091 -0.19273227 0.019957926 -0.124073 -0.08928736 0.010093215 -0.13053572
-0.09442998 -0.15532303 -0.12310243 -0.14872079 -0.1230478 -0.07124861 0.012752102 -0.28332126
-0.11046026 -0.24551299 0.02890295 0.005788958 0.08945445 -0.028440993 0.009393482 -0.1274917
-0.13559629 -0.1039344 -0.25308755 -0.19746146 -0.08594197 -0.04991145 -0.011330489 -0.20324013
-0.107865125 -0.19800164 0.089009896 0.18870698 -0.028221747 0.19693917 0.055935655 0.052758545
00000000: 8d6f 933d 12b0 df3a 3cb9 1fbd a2b7 2ebe
00000010: 6d7b bc3c abca 60be da77 50be f5b1 3cbd
00000020: fddc f1bc 6ac8 83bd 7b6e 0bbc 27f2 9bba
00000030: 33f1 4ebd 9288 abbd a478 f2bc 7f35 c13c
00000040: b1a2 b8b9 6ca7 c2bd 6539 4fbd d870 63bd
00000050: 630b 38be d1af 053e abbb 933c d63e 293d
00000060: 3f16 9fbd 0ef4 953d 7367 da3d 9254 6cbe
00000070: fe93 c3bc b978 77bd 6351 bc3d 1c36 70bc
00000080: c9c5 573e c9cc d9bd e653 ec3c d04a 3c3d
00000090: 4127 a53d a789 df3d b36b 2ebd 51e2 bd3c
000000a0: e997 203e bf4a 473d dd4c e43c 1a58 88bd
000000b0: a054 ba3e 014a 05bd 2e9a 8bbd e815 213e
000000c0: f9cd 8dbd 9d81 2a3e c4f0 d0bd a53b f13d
000000d0: 2e7f 82bc f86a e3bb 12c7 193d 287a 8a3d
000000e0: faa2 67be 2d37 df3b bf0d 363d a263 a93d
000000f0: cc6d 0b3e 3aa3 94bd 6a02 833d 0352 87bc
00000100: 4173 a83d 9aba e23d 999d bdbd 66a0 48bd
00000110: 37c6 26be b69a d83d 4424 1fbc 2318 4bbc
00000120: cd50 b03b d1d7 ddbc c728 c73d fc6d 8a3c
00000130: 3a87 0fbd 5b5a b0be c9d3 3f3d b90b 42be
00000140: dee1 4dbd b6c1 92bc ac58 91bd 234f 353d
00000150: fc2e 38bc 06df d93d 5892 3bbd f44c f5bd
00000160: 205b 35be e415 f73d 42d6 22be 0c87 f8bd
00000170: 2439 643d e305 5e3e 84b6 9db9 1286 3e3e
00000180: 63ab 08be 3833 bd3d 3d76 3cbe 8e6a c73d
00000190: 61bd f03d fd81 68be 1ec3 94bd 2aa0 bc3c
000001a0: cc18 5cbd 1863 f23d 817d 7cbd a3c1 b3bc
000001b0: 58ac a5bd 1919 ecbd 6a10 46bd 15e8 f23b
000001c0: af13 2e3e e437 a13d 3a6e 723e bd7b b83d
000001d0: 7c45 6d3d 1977 803e 7634 403d 7a79 afbc
000001e0: b13a 813e edb1 033e 3b65 193e 5555 ff3d
000001f0: 9420 c0bc 39e8 963e f2bf 263d e654 b43d
00000200: 78ed 65bd 397a e73d 9820 65bd e11c 8d3e
00000210: 7841 463e 68f6 823d 3dea 1b3e 220f e5bd
00000220: ea6a 13be d4d1 06be cd3e 8fbd f190 50be
00000230: 0e60 babd 8321 f23d d8dd 3cbd 5894 b9bd
00000240: 57b6 aebd 5141 30be 5ec0 0b3d 0d57 00be
00000250: 2bb8 1cbe afc9 38be 4b85 73bd dd3c 073d
00000260: 284c d9bd d97c 123e d72f f53b 6ee1 bc3d
00000270: 3233 e3bd 9607 c5be 5e24 52be 635a 163c
00000280: 2b95 0f3e 6a70 8c3d 4138 2abe d19d 613c
00000290: 7c05 3c3d 1f07 cb3d f160 42be fbc4 34be
000002a0: 8c4f a4bb bb56 26be fc29 6cbd ad30 9e3d
000002b0: 218d 2ebe d4ca 67bd f461 edbb 3418 81be
000002c0: c768 4bbe 1c4d 50be ea24 993d 0f74 3c3d
000002d0: b6eb 9ebc 6a47 49be afcf cf3d 8472 7bbd
000002e0: 3c24 60be bac1 dc3d 6153 5bbd bcb7 aa3d
000002f0: 6a73 19bd a7bf 5f3e d4a9 aabd 93fb ac3d
00000300: 4636 323e 9560 3abd 9ab3 cf3d 80fe c93c
00000310: 05d2 2cbd ae68 d2bd 230b 4d3e 9e11 a53d
00000320: bc94 fabd 3120 7abe 5db7 893d 194e 0a3e
00000330: 7301 42bd dded 98bd 0735 cf3c 68ba 383e
00000340: 3fb5 173c 0091 bdbc e19f 1a3e cd80 083d
00000350: 9b72 fa3d ffa3 06be 64b0 05be 4d3b 033e
00000360: 6ff5 49be 7ddc f5bb 9c5b 45be ce7e a33c
00000370: fc19 febd 4bdc b6bd 035e 253c 28ab 05be
00000380: 8164 c1bd 000d 1fbe 201d fcbd 434a 18be
00000390: 7c00 fcbd cbea 91bd 31ee 503c 7c0f 91be
000003a0: fd38 e2bd c267 7bbe e1c5 ec3c 4db1 bd3b
000003b0: e533 b73d 16fd e8bc 1ee7 193c 2f8d 02be
000003c0: c1d9 0abe 8fdb d4bd b194 81be 5633 4abe
000003d0: 5802 b0bd f36f 4cbd 84a3 39bc 2e1e 50be
000003e0: 64e8 dcbd f1c0 4abe d24a b63d 673c 413e
000003f0: 4b31 e7bc 6caa 493e c91c 653d 5819 583d

bias f4 [32]
-0.023280159 -0.09331843 -0.090809226 0.012298816 -0.09852918 -0.028438406 -0.1967725 -0.1539196
-0.17533529 -0.03698908 -0.1215458 -0.100777104 -0.061646193 0.039260544 -0.13330701 -0.02395078
-0.098712884 0.0021665515 -0.062248483 0.03180495 -0.1536632 -0.20732844 -0.04288433 -0.08951919
-0.022108255 -0.1354916 -0.16240384 0.035008248 -0.062001526 0.027845496 -0.015830167 -0.16215065
00000000: 08b6 bebc bc1d bfbd 30fa b9bd f980 493c
00000010: abc9 c9bd a9f7 e8bc bb7e 49be 1a9d 1dbe
00000020: 188b 33be dd81 17bd 01ed f8bd 3a64 cebd
00000030: b880 7cbd aacf 203d a281 08be 6d34 c4bc
00000040: fb29 cabd b4fc 0d3b 44f8 7ebd e845 023d
00000050: e359 1dbe e84d 54be 7ba7 2fbd d655 b7bd
00000060: 5f1c b5bc 4fbe 0abe 314d 26be cf64 0f3d
00000070: 50f5 7dbd 3d1c e43c 44ae 81bc d20a 26be

weight f4 [32]
0.90424865 1.0219423 1.0197457 0.9582926 1.0128413 0.99973536 1.2068502 1.0600473
1.014225 0.98340183 0.9115568 0.9284779 0.9469316 0.9184438 1.0390314 0.94289213
0.9148879 0.91649026 0.9867371 1.0483786 1.0294205 1.110386 1.0145082 0.90425766
0.90426487 1.0775447 0.8931072 1.0176969 0.96785295 0.9469957 0.9107068 0.9552425
00000000: d77c 673f 01cf 823f 0787 823f aa52 753f
00000010: c9a4 813f a8ee 7f3f 117a 9a3f a1af 873f
00000020: 20d2 813f 39c0 7b3f c95b 693f bab0 6d3f
00000030: 1c6a 723f 221f 6b3f fbfe 843f 6161 713f
00000040: 1836 6a3f 1b9f 6a3f cd9a 7c3f 4531 863f
00000050: 0dc4 833f 2121 8e3f 68db 813f 6e7d 673f
00000060: e77d 673f fcec 893f aca2 643f e443 823f
00000070: 36c5 773f 4f6e 723f 1524 693f c68a 743f

bias f4 [32]
-0.04421512 0.07479789 -0.04845386 -0.06667087 -0.030079817 -0.17772727 0.26298067 0.26248837
0.23213992 0.14954534 -0.12813035 -0.2014789 0.24278775 0.2555603 0.13910586 0.20582777
-0.015209116 0.022410793 0.115355864 0.2370825 -0.1904657 0.079139754 0.19583619 0.11604327
0.26471654 0.011809707 -0.014800758 0.07361321 0.17703912 0.21299504 -0.0953096 0.05695937
00000000: ea1a 35bd a32f 993d 8e77 46bd bd8a 88bd
00000010: f369 f6bc 23fe 35be 67a5 863e e064 863e
00000020: 16b6 6d3e 6a22 193e 9a34 03be 7c50 4ebe
00000030: 5a9d 783e cdd8 823e c471 0e3e 84c4 523e
00000040: a82f 79bc d796 b73c b23f ec3d c1c5 723e
00000050: 7109 43be 0614 a23d 4889 483e 18a8 ed3d
00000060: ed88 873e 807d 413c e17e 72bc 86c2 963d
00000070: be49 353e 5f1b 5a3e ae31 c3bd 3a4e 693d

running_mean f4 [32]
0.74258333 0.47693256 0.78570086 0.5484052 0.34054032 0.6358219 0.3519666 0.40645328
0.4582291 0.81320375 0.85780734 0.53716797 0.7032381 0.9103863 0.7582303 0.3926978
0.742745 0.88011754 0.68297744 1.0036435 0.27703324 0.20459764 0.8943047 0.50761926
0.9027017 0.48798206 0.94895095 0.39062983 0.6603585 0.7965015 0.6965201 0.28613633
00000000: f119 3e3f 8130 f43e b123 493f 4864 0c3f
00000010: 4d5b ae3e 39c5 223f f734 b43e a51a d03e
00000020: 019d ea3e 1f2e 503f 4399 5b3f d783 093f
00000030: 6a07 343f 140f 693f 621b 423f b00f c93e
00000040: 8924 3e3f 624f 613f 9cd7 2e3f 6477 803f
00000050: 4dd7 8d3e 0b82 513e 27f1 643f 56f3 013f
00000060: 7517 673f c9d8 f93e 73ee 723f a200 c83e
00000070: 410d 293f 86e7 4b3f 244f 323f 7680 923e

running_var f4 [32]
2.509179 0.7532057 0.6647635 0.8196334 0.49519533 0.6370822 0.4118009 0.9885112
1.0878314 1.5587877 2.278722 1.034167 1.7247263 2.5506077 1.1997035 0.31568828
1.1071721 1.5687222 1.0748088 2.447282 0.25884578 0.1981271 2.4556746 0.8001671
1.4432473 0.62009305 2.2246242 0.35108683 1.5299875 1.0234286 0.8287406 0.26069775
00000000: 6496 2040 17d2 403f f12d 2a3f 7fd3 513f
00000010: 3e8a fd3e d217 233f 91d7 d23e 120f 7d3f
00000020: 0f3e 8b3f 5b86 c73f 95d6 1140 965f 843f
00000030: d5c3 dc3f 283d 2340 e28f 993f e5a1 a13e
00000040: d1b7 8d3f e4cb c83f 5693 893f 45a0 1c40
00000050: 6f87 843e d5e1 4a3e c629 1d40 c0d7 4c3f
00000060: 54bc b83f 6bbe 1e3f 3e60 0e40 a7c1 b33e
00000070: a1d6 c33f b5ff 823f 5828 543f 2d7a 853e

weight f4 [64, 32, 3, 3]
-0.01534515 -0.046322614 -0.0032135034 0.009941168 -0.04311861 -0.09079265 0.0054223947 0.08337895
-0.0014494206 -0.098187715 0.03641914 -0.112015985 -0.09928281 -0.021094916 -0.14147364 -0.25899905
-0.056422215 0.0153241735 0.081133924 0.19342925 0.18526417 0.017119404 0.12435034 -0.035570137
0.14607935 0.09798026 0.16519222 0.08055135 0.11365182 -0.0740282 -0.1656719 0.2105578
0.01464201 -0.03173421 -0.044268727 0.006746319 -0.041205015 0.05545346 0.073693074 -0.13618262
-0.083067246 -0.032143448 0.16251786 -0.01452743 -0.046632364 -0.031478822 -0.01592679 0.09584495
0.052034903 -0.11491849 0.15029569 0.044875152 -0.0009484049 -0.06866679 -0.02406578 -0.028856352
-0.18344261 -0.15321083 -0.15422252 -0.13948111 -0.06489637 -0.007016445 -0.04283766 0.034667563
0.06555644 0.031617682 -0.13857783 -0.090438895 0.024456793 -0.042638674 0.10239821 0.06546012
0.04756449 -0.16252711 -0.035642233 0.09457326 0.056837056 0.13158917 -0.032632403 -0.07218138
0.0019997368 -0.07143105 -0.16334139 -0.25003567 -0.016052363 0.00027512555 0.14718641 0.057308063
-0.04181178 -0.023467466 0.036795128 0.15395002 0.010069134 0.10421995 -0.025511378 0.026061457
0.08942416 -0.07986588 0.022398058 0.05656769 0.05182562 -0.04457102 -0.018735323 0.03664076
0.012086524 0.14012545 0.037709527 0.0370218 -0.025407802 0.06184487 0.119557224 0.14272632
0.14046961 -0.0013755163 -0.07293351 0.14122498 -0.015151276 -0.17567624 -0.030812167 -0.0030865006
0.057656076 -0.058028292 0.034526598 0.017812729 -0.020958597 0.036827546 -0.14100903 -0.12517655
-0.10950156 -0.0464672 -0.09932877 0.009946996 -0.088615865 -0.034027427 -0.08741038 -0.14648801
-0.13210112 -0.11533748 0.010628224 -0.020686405 0.011029268 -0.002771283 0.053236928 -0.009216516
0.14826597 -0.04347802 0.0011727075 0.02057037 -0.02279048 0.03310012 0.06246954 -0.11197465
-0.1380123 0.0051631746 0.067467295 0.11343092 0.07231058 0.029622816 0.16186588 -0.120907225
-0.08759331 -0.016235389 -0.132821 -0.065402575 -0.01682272 0.052802194 0.021566967 -0.098066516
0.009072162 0.010989333 0.02366672 0.0006796359 0.08892849 0.09466537 -0.07715091 -0.15418176
-0.14098883 0.042721275 0.018270755 -0.038840327 -0.0035281607 0.17998539 0.0066425293 0.1234056
0.033903364 0.07134058 0.062679954 0.0849706 0.17654347 0.18068781 0.13249458 0.1821409
-0.058458805 -0.10046775 -0.13718389 0.20241827 -0.01489117 0.06055357 -0.039940923 -0.14454675
-0.11992227 0.02332806 0.068933405 0.09143839 -0.108021684 -0.09025809 0.04555781 0.045014407
-0.12346198 -0.11098215 -0.1420644 0.04845266 -0.033018187 0.059659377 -0.08219032 -0.012268357
-0.21219218 0.102492355 -0.040888093 -0.039008554 0.022212664 0.054467216 -0.012049206 -0.08216356
-0.13372895 0.026376136 0.028126981 0.1399912 -0.17973235 -0.023881925 -0.14034604 -0.0534485
-0.06615284 0.06144869 0.119738445 0.044870663 0.11367956 -0.014609095 0.0026611998 0.19955255
-0.066022225 0.035413556 -0.0645841 -0.12932903 -0.088268034 -0.07918327 0.09234971 0.023052683
0.16190958 0.010527619 -0.080290295 0.006496321 -0.056109544 0.046930023 -0.05877087 -0.028358495
00000000: 396a 7bbc c8bc 3dbd a499 52bb 48e0 223c
00000010: 249d 30bd 7ff1 b9bd 58ae b13b 95c2 aa3d
00000020: 7cfa bdba a416 c9bd 3c2c 153d a368 e5bd
00000030: c954 cbbd 3fcf acbc 77de 10be 869b 84be
00000040: fb1a 67bd 3e12 7b3c 8b29 a63d 5112 463e
00000050: e4b5 3d3e fe3d 8c3c 64ab fe3d feb1 11bd
00000060: d395 153e e0a9 c83d 2628 293e 1bf8 a43d
00000070: 49c2 e83d 199c 97bd e5a5 29be 779c 573e
00000080: 0be5 6f3c bbfb 01bd 2053 35bd 3a10 dd3b
00000090: 97c6 28bd 2b23 633d 65ec 963d 7573 0bbe
000000a0: 291f aabd d9a8 03bd 156b 263e 7504 6ebc
000000b0: 9401 3fbd f0ef 00bd e678 82bc 5b4a c43d
000000c0: 8d22 553d 635a ebbd 1de7 193e 02cf 373d
000000d0: 609e 78ba 2da1 8cbd 9925 c5bc 2864 ecbc
000000e0: 61d8 3bbe 4de3 1cbe 82ec 1dbe 23d4 0ebe
000000f0: 63e8 84bd 35ea e5bb 8b76 2fbd 93ff 0d3d
00000100: 7442 863d 8b81 013d 59e7 0dbe 0738 b9bd
00000110: 9d59 c83c e4a5 2ebd 27b6 d13d f50f 863d
00000120: fcd2 423d 826d 26be 97fd 11bd a0af c13d
00000130: f9cd 683d 50bf 063e 8ea9 05bd d5d3 93bd
00000140: 040e 033b 714a 92bd f742 27be ad04 80be
00000150: 3f80 83bc ba3e 9039 09b8 163e dcbb 6a3d
00000160: d442 2bbd d83e c0bc 7db6 163d 13a5 1d3e
00000170: 02f9 243c 4571 d53d 3dfd d0bc d67e d53c
00000180: 0424 b73d b990 a3bd 227c b73c 86b3 673d
00000190: 1a47 543d 1a90 36bd d27a 99bc 9f14 163d
000001a0: 8e06 463c 0c7d 0f3e 4e75 1a3d 2ca4 173d
000001b0: 0624 d0bc 0c51 7d3d 6bda f43d d926 123e
000001c0: 44d7 0f3e ab4a b4ba 2a5e 95bd 489d 103e
000001d0: 0f3d 78bc 79e4 33be cc69 fcbc e346 4abb
000001e0: c728 6c3d 13af 6dbd c36b 0d3d 00ec 913c
000001f0: 5db1 abbc 7bd8 163d ac64 10be 482e 00be
00000200: 5b42 e0bd 6454 3ebd e26c cbbd baf8 223c
00000210: 3c7c b5bd 5860 0bbd 3704 b3bd f400 16be
00000220: 8445 07be 0f36 ecbd 0122 2e3c 8976 a9bc
00000230: 1ab4 343c 6a9e 35bb f70e 5a3d df00 17bc
00000240: 09d3 173e 0216 32bd 89b5 993a 3183 a83c
00000250: 1ab3 babc fe93 073d 0fe0 7f3d f752 e5bd
00000260: 1953 0dbe d92f a93b 4b2c 8a3d 784e e83d
00000270: 9217 943d 8cab f23c 2bc0 253e 359e f7bd
00000280: 1f64 b3bd 1400 85bc 3a02 08be c9f1 85bd
00000290: cdcf 89bc 1d47 583d 35ad b03c 19d7 c8bd
000002a0: 68a3 143c 9a0c 343c b6e0 c13c 9829 323a
000002b0: 2420 b63d ebdf c13d 4c01 9ebd d3e1 1dbe
000002c0: 605f 10be 81fc 2e3d 8dac 953c 0917 1fbd
000002d0: b738 67bb 174e 383e 93a9 d93b 13bc fc3d
000002e0: 41de 0a3d 031b 923d 595e 803d 1105 ae3d
000002f0: d0c7 343e 3a06 393e a9ac 073e 2583 3a3e
00000300: 8072 6fbd 09c2 cdbd ef79 0cbe bc46 4f3e
00000310: 18fa 73bc 0507 783d 1899 23bd 1004 14be
00000320: cf99 f5bd 7d1a bf3c f52c 8d3d 0d44 bb3d
00000330: 793a ddbd 3cd9 b8bd d49a 3a3d 0761 383d
00000340: a2d9 fcbd 9c4a e3bd 5479 11be 4c76 463d
00000350: 143e 07bd 645d 743d 6653 a8bd 3801 49bc
00000360: e848 59be 83e7 d13d 467a 27bd 6fc7 1fbd
00000370: 55f7 b53c 0419 5f3d 086a 45bc 5e45 a8bd
00000380: 3ef0 08be c412 d83c 8e6a e63c da59 0f3e
00000390: c20b 38be 07a4 c3bc dfb6 0fbe d0ec 5abd
000003a0: 247b 87bd 9fb1 7b3d 6e39 f53d 4dca 373d
000003b0: d4d0 e83d fc5a 6fbc 8667 2e3b 8157 4c3e
000003c0: a936 87bd ce0d 113d ab44 84bd d46e 04be
000003d0: dfc5 b4bd d72a a2bd d821 bd3d fbd8 bc3c
000003e0: a0cb 253e 097c 2c3c 3d6f a4bd 17df d43b
000003f0: 1fd3 65bd b239 403d b9b9 70bd 1350 e8bc

bias f4 [64]
-0.1465409 -0.13200246 -0.1383037 0.029337047 0.034982428 0.01809675 -0.02564792 -0.12587312
0.035693794 -0.017612386 -0.025737884 0.012462059 -0.18580174 0.029158773 0.021590956 0.04030021
0.029111838 -0.13251683 -0.09257394 -0.0666663 0.03969248 0.049138993 -0.017376585 -0.106804766
-0.18775792 -0.10666071 -0.07661577 -0.09752968 -0.011322638 -0.06642648 -0.112612486 0.00990726
0.094062164 -0.044511855 0.00031618972 -0.13553172 -0.12705901 -0.18245724 0.04660697 -0.019359183
-0.12799121 -0.04232695 -0.03729752 0.060705435 -0.10183576 0.17538524 -0.03802085 -0.30343196
0.09592692 -0.067802206 -0.04267948 -0.058957312 0.19549696 -0.11419769 0.041572895 -0.05352678
-0.20327727 0.09393394 0.008756767 0.09251236 -0.007346322 0.085873194 0.09225166 0.058320973
00000000: d10e 16be a72b 07be 7c9f 0dbe 3f54 f03c
00000010: bc49 0f3d a33f 943c 961b d2bc e2e4 00be
00000020: a833 123d da47 90bc 41d8 d2bc aa2d 4c3c
00000030: d042 3ebe 61de ee3c 84df b03c d511 253d
00000040: f37b ee3c 7eb2 07be 6897 bdbd 5788 88bd
00000050: 9594 223d f845 493d 5759 8ebc 75bc dabd
00000060: 9d43 40be ee70 dabd bbe8 9cbd a4bd c7bd
00000070: 9682 39bc 9b0a 88bd 60a1 e6bd 0f52 223c
00000080: aaa3 c03d 1052 36bd 44c6 a539 d4c8 0abe
00000090: c21b 02be 12d6 3abe f3e6 3e3d 2697 9ebc
000000a0: 2110 03be 065f 2dbd 49c5 18bd 43a6 783d
000000b0: 448f d0bd 3098 333e c0bb 1bbd 6f5b 9bbe
000000c0: 5575 c43d e2db 8abd aed0 2ebd 397d 71bd
000000d0: 5b30 483e 7ae0 e9bd 5748 2a3d e63e 5bbd
000000e0: eb27 50be 7060 c03d 8b78 0f3c 1f77 bd3d
000000f0: 6ab9 f0bb 49de af3d 70ee bc3d f9e1 6e3d

weight f4 [64]
1.6239977 1.5916489 1.5099047 1.465864 1.6211177 1.5306584 1.6492393 1.6223934
1.4878398 1.4349339 1.6303638 1.6149812 1.477878 1.6180795 1.8157638 1.5129273
1.5344157 1.610523 1.5436245 1.5253417 1.4320288 1.5656803 1.6634357 1.3907015
1.6813701 1.5265626 1.4811152 1.4569101 1.5898272 1.500657 1.6969811 1.5024644
1.5276437 1.5308772 1.4392806 1.5998825 1.3913728 1.672701 1.347124 1.5183129
1.8303581 1.5365528 1.4996743 1.4653246 1.4425488 1.5085719 1.5561168 1.4633818
1.4031336 1.6467315 1.4599866 1.4334947 1.5076067 1.7705379 1.5702716 1.7175688
1.5626242 1.4620872 1.4629397 1.5324194 1.5106257 1.4844645 1.4606786 1.4680213
00000000: 28df cf3f 27bb cb3f 8f44 c13f 6ea1 bb3f
00000010: c980 cf3f 9dec c33f 461a d33f 96aa cf3f
00000020: 8971 be3f eaab b73f c3af d03f b4b7 ce3f
00000030: 1b2b bd3f 3b1d cf3f f36a e83f 9aa7 c13f
00000040: bc67 c43f 9e25 ce3f 7d95 c53f 663e c33f
00000050: b84c b73f 3668 c83f 76eb d43f 8202 b23f
00000060: 2337 d73f 6766 c33f 2f95 bd3f 087c ba3f
00000070: 757f cb3f 8715 c03f ad36 d93f c150 c03f
00000080: d489 c33f c9f3 c33f 593a b83f f3c8 cc3f
00000090: 8118 b23f 111b d63f 8f6e ac3f 1458 c23f
000000a0: 2d49 ea3f c3ad c43f 54f5 bf3f c28f bb3f
000000b0: 70a5 b83f e218 c13f d62e c73f 1850 bb3f
000000c0: e299 b33f 19c8 d23f d7e0 ba3f c17c b73f
000000d0: 42f9 c03f fca0 e23f a9fe c83f 4bd9 db3f
000000e0: 1204 c83f ac25 bb3f 9c41 bb3f 5226 c43f
000000f0: 2f5c c13f ef02 be3f 84f7 ba3f 1fe8 bb3f

bias f4 [64]
-0.0074971155 0.013312414 -0.08665926 -0.16186064 0.08150709 0.1191664 -0.00035592346 0.022285096
-0.0025414205 0.04005267 0.059509438 0.14067224 0.039637867 0.07156502 -0.090539634 0.04305905
-0.08644718 -0.019933134 0.028819112 0.073691435 -0.091703415 -0.08293798 -0.008476017 0.049959518
0.032767702 0.09046388 0.0013407301 -0.037784208 -0.061208628 -0.07487072 -0.031575564 -0.023757031
-0.10002998 0.009139929 -0.036645852 -0.06519101 0.0006317884 0.004493641 -0.023437025 -0.015666723
0.03326856 -0.1386894 -0.07976299 0.0092090955 0.009156961 0.051147375 0.02642555 -0.0014923101
0.016997382 0.1181824 0.02091398 0.014318097 0.014549923 -0.1522232 -0.10030288 0.03589337
0.0053600767 0.07759409 -0.15981431 0.09365442 -0.0051165232 -0.094771154 -0.08516348 -0.01818726
00000000: 5daa f5bb 501c 5a3c 697a b1bd ccbe 25be
00000010: 30ed a63d 830d f43d 3d9b bab9 3c8f b63c
00000020: f68d 26bb 450e 243d 2bc0 733d 620c 103e
00000030: 515b 223d ae90 923d d86c b9bd b05e 303d
00000040: 380b b1bd d04a a3bc 0f16 ec3c 89eb 963d
00000050: 00cf bbbd 63db a9bd fede 0abc 5aa2 4c3d
00000060: 6d37 063d 2045 b93d 70bb af3a 9dc3 1abd
00000070: e6b5 7abd d255 99bd 6155 01bd 1b9e c2bc
00000080: 85dc ccbd a4bf 153c f619 16bd dd82 85bd
00000090: 9a9e 253a 653f 933b 01ff bfbc 8057 80bc
000000a0: 9d44 083d 9804 0ebe c75a a3bd bfe1 163c
000000b0: 1407 163c e97f 513d 657a d83c 9e99 c3ba
000000c0: 183e 8b3c 9d09 f23d cc53 ab3c 7496 6a3c
000000d0: cd62 6e3c 66e0 1bbe 996b cdbd ed04 133d
000000e0: 95a3 af3b a6e9 9e3d 5da6 23be e3cd bf3d
000000f0: 82a8 a7bb 6117 c2bd 316a aebd 73fd 94bc

running_mean f4 [64]
0.37335104 0.2920251 0.29875016 0.6148924 1.1520572 0.5716412 0.48603228 0.26945856
0.5200907 0.71631485 0.47258544 0.5132847 0.37500817 0.9526036 0.29055285 0.80146676
0.83209133 0.23346467 0.5414185 0.5804296 1.1780882 0.64704704 0.34437197 0.2228343
0.31527036 0.27192625 0.34055197 0.5932917 0.6682694 0.5947887 0.4198797 0.6918177
0.95213413 0.57864463 0.8245372 0.20998584 0.58381903 0.2584713 1.1030512 0.4425091
0.32589495 0.6077308 0.4385802 0.97560215 0.21032691 0.69259024 0.29653016 0.276521
1.0702062 0.30284432 0.6652194 0.40080073 1.4440095 0.4272009 0.5325786 0.5438378
0.33723816 0.67473966 0.75624317 0.7832369 1.0101421 0.7507701 0.93635565 0.66535276
00000000: de27 bf3e 5084 953e c8f5 983e 9769 1d3f
00000010: 9c76 933f 1457 123f 39d9 f83e 79f6 893e
00000020: aa24 053f 6960 373f b8f6 f13e a066 033f
00000030: 1201 c03e d4dd 733f 58c3 943e ed2c 4d3f
00000040: f003 553f 5d11 6f3e 679a 0a3f 0997 143f
00000050: 98cb 963f e0a4 253f 8651 b03e ad2e 643e
00000060: 1e6b a13e eb39 8b3e d45c ae3e f7e1 173f
00000070: b413 2b3f 1244 183f 79fa d63e f71a 313f
00000080: 10bf 733f 0e22 143f df14 533f 8706 573e
00000090: 2a75 153f 5a56 843e c830 8d3f 8e90 e23e
000000a0: b4db a63e 3f94 1b3f 958d e03e 10c1 793f
000000b0: f05f 573e 984d 313f cdd2 973e 2994 8d3e
000000c0: 84fc 883f 690e 9b3e d24b 2a3f c135 cd3e
000000d0: 4ed5 b83f 14ba da3e 1257 083f f438 0b3f
000000e0: 7baa ac3e bdbb 2c3f 2799 413f 3782 483f
000000f0: 564c 813f 7832 403f 01b5 6f3f 8f54 2a3f

running_var f4 [64]
0.6031324 0.45768234 0.44722798 1.1043255 1.8523449 0.5370823 0.70034844 0.4169758
0.6816548 0.9837444 0.58494794 0.53791463 0.7209872 1.2913823 0.36972848 1.0886294
1.2356919 0.2962613 0.7649554 0.7148459 2.466958 1.0452359 0.47704 0.31487304
0.43870243 0.27342412 0.4499588 1.3963792 1.0322274 1.1343987 0.7551726 0.91297686
2.163966 0.7416311 1.146115 0.29671362 1.2533374 0.38162646 2.0841131 0.68515
0.49182045 1.151042 0.59268916 1.1550417 0.30390003 0.790649 0.36753953 0.46337774
1.1598008 0.39771256 1.040467 0.6000671 1.6325415 0.5942852 0.79280835 0.6515492
0.56828314 0.71011984 1.7048038 1.0253984 1.6901073 1.3963187 1.2755814 1.2113749
00000000: e366 1a3f 5755 ea3e 11fb e43e 8a5a 8d3f
00000010: a319 ed3f 3a7e 093f 094a 333f da7d d53e
00000020: ee80 2e3f acd6 7b3f 26bf 153f c6b4 093f
00000030: 9e92 383f 044c a53f 0d4d bd3e 3558 8b3f
00000040: 272b 9e3f 90af 973e 1ed4 433f 2400 373f
00000050: a4e2 1d40 4aca 853f 963e f43e 0a37 a13e
00000060: 9b9d e03e 3ffe 8b3e 0061 e63e 8ebc b23f
00000070: 0720 843f fa33 913f fe52 413f dab8 693f
00000080: 6b7e 0a40 89db 3d3f e5b3 923f d9ea 973e
00000090: 5c6d a03f 8b64 c33e 1c62 0540 fe65 2f3f
000000a0: e4cf fb3e 5855 933f 7aba 173f 68d8 933f
000000b0: c998 9b3e f967 4a3f 242e bc3e d93f ed3e
000000c0: 5a74 943f fba0 cb3e 062e 853f ff9d 193f
000000d0: 1ff7 d03f 1323 183f 7df5 4a3f eecb 263f
000000e0: 017b 113f 6aca 353f 0337 da3f 4140 833f
000000f0: 7055 d83f 92ba b23f 4046 a33f 550e 9b3f

weight f4 [8, 64]
0.09832042 0.34881416 -0.29755643 -0.012058054 0.20759176 0.26555592 0.2934875 -0.28096458
0.35178232 0.19672617 -0.20065193 0.12493945 -0.19343153 -0.21903737 -0.32413834 0.34697032
0.26640555 -0.26960042 -0.3192981 0.13680051 0.15748928 0.17762952 0.10353665 0.044521637
0.41037968 -0.25231957 -0.20926744 0.02699915 0.3368198 0.08176952 0.19585238 0.0051972526
0.056324087 0.04810824 -0.2737527 -0.192829 -0.015392783 -0.34089497 0.21577653 -0.2745857
-0.33129784 -0.21113254 -0.15253669 -0.24357866 -0.052345052 -0.2589478 -0.014542855 0.43310392
-0.13281058 0.27164868 0.052678764 0.40834752 0.24352366 -0.13094944 -0.26343548 -0.27756113
0.32184497 -0.201207 -0.08745807 0.3320204 0.26455432 0.18547432 -0.057621665 0.3252272
0.20984216 0.06670287 0.05059682 -0.15677088 -0.51187974 0.040719725 0.1274951 0.18118216
0.05797368 -0.2956343 0.41274872 -0.41838214 0.11156022 -0.42902225 0.33044055 -0.32655612
-0.1793073 0.14726287 -0.44430608 -0.47443718 -0.2363933 0.006955422 0.40333328 -0.19802456
0.19995625 0.17056473 -0.19482817 -0.10735518 -0.016843855 -0.2592535 -0.23770434 -0.08601272
-0.14000715 -0.5220271 0.06938102 0.06327487 0.00560025 0.45797408 -0.15571061 0.040693004
0.42706257 -0.1791894 0.28051805 -0.43612358 -0.15700553 0.1480246 -0.28393576 -0.20096172
-0.26360554 0.27731302 -0.34909368 0.09999533 -0.21393584 0.005630097 0.0817199 -0.41674894
0.07063808 -0.10296717 -0.1364313 -0.4051733 -0.16769049 0.0011545985 -0.26958522 -0.2149282
-0.48637748 -0.19277795 -0.12129991 0.1056277 0.12930247 0.2329542 -0.30681708 -0.49404347
-0.1373414 -0.21775821 -0.46512845 0.10926678 -0.12778641 -0.15523753 -0.2936297 -0.08975756
0.19870304 0.4547555 0.05199635 0.24831498 0.006650967 -0.13749835 0.12903015 0.2777488
0.4237534 -0.207822 0.16440934 -0.30485922 -0.117686525 -0.048569262 -0.18195595 0.16407022
-0.11574506 0.30560455 0.29245684 -0.23184983 -0.20129925 -0.21112904 -0.07582092 -0.29759014
-0.5688209 -0.10581952 -0.10076553 0.3043843 -0.19112211 0.07969664 0.2876799 0.035029784
0.1399793 -0.18199845 -0.02397036 -0.12699042 -0.08488054 0.34346852 -0.12704936 0.27944472
-0.13386153 0.022637954 -0.14212543 0.014449209 -0.076605506 -0.1674053 0.08938335 -0.21646704
-0.04155828 0.17986807 -0.34830192 -0.20928378 0.21567768 0.30837414 0.0059250165 0.35773402
-0.3244574 0.03176901 0.23221962 0.323228 -0.04109755 0.36652434 -0.3316329 0.027754445
-0.27731997 0.049806327 0.24740139 0.18106629 -0.109077424 -0.26755837 -0.41944253 0.19206579
0.035073057 0.20430094 0.2088007 0.19817846 -0.35134664 -0.0060428944 -0.3815261 -0.14791158
-0.11364568 -0.034045354 -0.22384475 0.33331946 0.015364659 -0.24182974 0.117029175 0.070747465
0.011626212 -0.18008876 -0.034246948 0.12840119 0.05680283 0.08521603 0.25156304 -0.2247449
-0.062101718 -0.17252432 0.11343815 -0.30477765 0.24131244 -0.533969 0.07186227 0.2783132
0.026811033 0.24776012 -0.22469789 -0.064503536 -0.0765358 -0.22702211 -0.07916738 -0.24374193
00000000: 375c c93d c597 b23e 5159 98be 258f 45bc
00000010: ef92 543e f2f6 873e fe43 963e 97da 8fbe
00000020: d01c b43e 9672 493e b377 4dbe 41e0 ff3d
00000030: ea12 46be 554b 60be 76f5 a5be 18a6 b13e
00000040: 4f66 883e 1109 8abe 0a7b a3be 6f15 0c3e
00000050: df44 213e 83e4 353e 060b d43d 525c 363d
00000060: 491d d23e 0830 81be 344a 56be 522d dd3c
00000070: a573 ac3e c776 a73d 878d 483e b74d aa3b
00000080: 16b4 663d 250d 453d 5029 8cbe f774 45be
00000090: 0332 7cbc c989 aebe 86f4 5c3e 7f96 8cbe
000000a0: df9f a9be 2133 58be 9432 1cbe af6c 79be
000000b0: c467 56bd ce94 84be 2845 6ebc ccbf dd3e
000000c0: 7fff 07be 8915 8b3e b0c5 573d ed12 d13e
000000d0: 445e 793e 9c17 06be 04e1 86be 7e1c 8ebe
000000e0: ddc8 a43e 3509 4ebe 371d b3bd 94fe a93e
000000f0: aa73 873e fbec 3d3e b204 6cbd 2e84 a63e
00000100: dde0 563e 849b 883d 9c3e 4f3d 8c88 20be
00000110: 8d0a 03bf bac9 263d 138e 023e d187 393e
00000120: cf75 6d3d 615d 97be cd53 d33e 2f36 d6be
00000130: af79 e43d cea8 dbbe 812f a93e 5d32 a7be
00000140: 559c 37be 14cc 163e 167c e3be 6ee9 f2be
00000150: 1611 72be 4fea e33b b381 ce3e f3c6 4abe
00000160: 55c1 4c3e 85a8 2e3e 0981 47be 08dd dbbd
00000170: 20fc 89bc e0bc 84be c468 73be 7027 b0bd
00000180: 095e 0fbe 91a3 05bf a317 8e3d 4196 813d
00000190: 4d82 b73b 947b ea3e 9a72 1fbe b5ad 263d
000001a0: f2a7 da3e 6d7d 37be 10a0 8f3e 974b dfbe
000001b0: 0fc6 20be c393 173e 0760 91be e9c8 4dbe
000001c0: 4ef7 86be f9fb 8d3e 68bc b2be 5aca cc3d
000001d0: ff11 5bbe ad7c b83b c35c a73d 1e60 d5be
000001e0: b3aa 903d 74e0 d2bd a6b4 0bbe e072 cfbe
000001f0: 0eb7 2bbe e655 973a 1307 8abe 2316 5cbe
00000200: 7806 f9be 9567 45be 166c f8bd 5653 d83d
00000210: de67 043e 8c8b 6e3e 2117 9dbe 44f3 fcbe
00000220: 39a3 0cbe 02fc 5ebe 5125 eebe 43c7 df3d
00000230: 71da 02be 96f6 1ebe a256 96be d0d2 b7bd
00000240: cf78 4b3e b7d5 e83e 20fa 543d 4846 7e3e
00000250: 5bf0 d93b 5ecc 0cbe 7b20 043e 1735 8e3e
00000260: 35f6 d83e 4acf 54be ec5a 283e 8216 9cbe
00000270: a205 f1bd 90f0 46bd a952 3abe 0602 283e
00000280: bf0b edbd 3378 9c3e e7bc 953e 0b6a 6dbe
00000290: 6421 4ebe 3632 58be 0048 9bbd bc5d 98be
000002a0: 3f9e 11bf e8b7 d8bd 285e cebd 42d8 9b3e
000002b0: 84b5 43be fe37 a33d c84a 933e 647b 0f3d
000002c0: bc56 0f3e cd5d 3abe 7d5d c4bc c709 02be
000002d0: d9d5 adbd 1bdb af3e 3a19 02be 6113 8f3e
000002e0: ff12 09be 3b73 b93c 5489 11be 60bc 6c3c
000002f0: 59e3 9cbd 4c6c 2bbe 9e0e b73d 89a9 5dbe
00000300: 0439 2abd 562f 383e a154 b2be 7d4e 56be
00000310: 9cda 5c3e 37e3 9d3e a426 c23b ea28 b73e
00000320: 481f a6be 3920 023d fbca 6d3e 247e a53e
00000330: e855 28bd 14a9 bb3e cacb a9be 4a5d e33c
00000340: e2fc 8dbe b801 4c3d ca56 7d3e 7169 393e
00000350: fc63 dfbd 69fd 88be 2cc1 d6be e5ac 443e
00000360: c4a8 0f3d 4434 513e dacf 553e 4bef 4a3e
00000370: b5e3 b3be 7903 c6bb 6457 c3be 2276 17be
00000380: 11bf e8bd 2473 0bbd 8f37 65be d9a8 aa3e
00000390: 0dbc 7b3c 37a2 77be feac ef3d 0ce4 903d
000003a0: de7b 3e3c 3069 38be 8746 0cbd 9a7b 033e
000003b0: 16aa 683d be85 ae3d dfcc 803e 8723 66be
000003c0: 5f5e 7ebd 37aa 30be 4352 e83d d10b 9cbe
000003d0: 9c1a 773e 31b2 08bf 872c 933d 117f 8e3e
000003e0: d0a2 db3c d4b4 7d3e 3417 66be 6e1a 84bd
000003f0: cdbe 9cbd 7c78 68be 8222 a2bd 7c97 79be

bias f4 [8]
0.14441924 0.07038347 0.07127347 0.20565456 -0.0056823203 0.012255219 0.08170432 0.028893951
00000000: a3e2 133e 3525 903d d3f7 913d 1c97 523e
00000010: c232 babb 1dca 483c 9854 a73d 02b3 ec3c
